vae.pth (torch, 10889 bytes, 12 tensors)

encoder.0.weight f4 [20, 29]
0	0xbe780f4f	-0.2422459
1	0xbd9c722a	-0.076389626
2	0x3e285494	0.16438514
3	0x3ebd8274	0.3701359
4	0x3e1eeeec	0.15520829
5	0xbd892dff	-0.06698226
6	0xbdada244	-0.08478215
7	0x3d01f70f	0.031729754
8	0xbe1a3e41	-0.1506281
9	0x3e24c808	0.16091931
10	0x3f818e4b	1.0121549
11	0x3f149100	0.5803375
12	0x3f79cd78	0.97579145
13	0xbe434ee9	-0.1907307
14	0x4067fe84	3.6249094
15	0xbf1df1f1	-0.616973
16	0x3eb685b4	0.35648882
17	0xbfa3ab61	-1.2786676
18	0xbfb3a7a8	-1.403554
19	0xbe61ff0b	-0.22069947
20	0x3d68df1a	0.05685339
21	0x3ed5eeeb	0.41783842
22	0x3e5d7218	0.21625555
23	0xc04690ab	-3.1025798
24	0xbe776cbe	-0.24162576
25	0x3f59321b	0.8484208
26	0x3df8727b	0.121312104
27	0x3e08857e	0.13332173
28	0x3ee24e18	0.44200206
29	0xbd82712e	-0.063692436
30	0xbaec6c96	-0.0018037732
31	0x3d9875ff	0.07444381
32	0xbe20d43f	-0.15705965
33	0x3dfaf25d	0.122532584
34	0x3dc99f02	0.098447815
35	0x3df29a79	0.118458696
36	0xbd745bd4	-0.059657887
37	0xbe146c3f	-0.14494418
38	0xbe479e82	-0.1949406
39	0xbce2d7ab	-0.02769073
40	0xbd8e9009	-0.06961066
41	0xbb175e5d	-0.0023097016
42	0xbde5f5d9	-0.11228532
43	0xbe114364	-0.14185864
44	0xbe4356be	-0.19076058
45	0x3d871cd5	0.06597296
46	0x3e1b09de	0.15140483
47	0xbe39c77b	-0.18142502
48	0x3e05b8af	0.13058732
49	0xbe55c814	-0.20877105
50	0xbde18aa3	-0.11012771
51	0xbdbe8a8b	-0.09303769
52	0xbe19af30	-0.15008235
53	0x3da389a6	0.07985239
54	0x3d59ac1a	0.053142644
55	0xbd69fa58	-0.057123512
56	0x3cb9441e	0.022615489
57	0xbe07d14a	-0.13263431
58	0x3cc33a71	0.023831578
59	0xbd9944bb	-0.074838124
60	0xbe68d3a2	-0.22736982
61	0x3cd38e5d	0.02582472
62	0xbdd0dfdb	-0.10198947
63	0x3e156483	0.14589123
64	0xbe049509	-0.12947477
65	0x3dd30e38	0.103054464
66	0xbe3bdbbd	-0.18345542
67	0x3dcaea3d	0.09907959
68	0xbe12af75	-0.14324744
69	0xbe373854	-0.17892581
70	0x3d5a0ae3	0.05323304
71	0x3c4d5cd1	0.012534336
72	0x3d0452b7	0.032305446
73	0x3ca6013b	0.020264259
74	0xbe433159	-0.19061793
75	0xbc9e4e56	-0.019324463
76	0xbc07a380	-0.0082787275
77	0xbcdab92c	-0.026699625
78	0x3dd21495	0.10257832
79	0x3d06b656	0.032888733
80	0x3df5be2d	0.11999164
81	0x3e28bd76	0.16478524
82	0x3debadbb	0.11507746
83	0xbdef3c2e	-0.116814
84	0xb99ed5e7	-0.00030295478
85	0xbe00e898	-0.12588727
86	0xbd1bb493	-0.038014006
87	0x3eae9cfc	0.34104145
88	0x3d8b25fc	0.06794354
89	0x3ecacf7f	0.39611432
90	0x3d91b095	0.071137585
91	0x3eeb743c	0.45987117
92	0x3e33c941	0.17557241
93	0x3e9b02ef	0.30275676
94	0x3eb9b80a	0.36273223
95	0xbea57a65	-0.32319942
96	0x3f52d129	0.82350403
97	0xbf2ea946	-0.6822704
98	0x3f89f622	1.0778239
99	0xc0768ca3	-3.8523338
100	0xbec2b87f	-0.38031384
101	0xc03c9d8c	-2.947116
102	0x3ebf6276	0.37379807
103	0x3e50715e	0.20355746
104	0x3eee4305	0.46535507
105	0x3f17e0ea	0.59327567
106	0x3e440d02	0.19145587
107	0x3e5f0410	0.21778893
108	0xbd4ced5b	-0.050031047
109	0x3eec00c2	0.46094328
110	0xbf83218c	-1.0244613
111	0x3e14f331	0.14545895
112	0xbdf72c33	-0.12068977
113	0x3e60e617	0.21962772
114	0x3e3315dd	0.17488809
115	0x3f52aab3	0.82291716
116	0x3ca84cef	0.020544497
117	0x3e31d457	0.17366157
118	0x3e07ce1e	0.13262221
119	0xbe454546	-0.19264707
120	0x3e054655	0.13015111
121	0xbf0135f6	-0.5047296
122	0x3e89edd0	0.2693925
123	0xbc7ff4c0	-0.015622318
124	0xbe9e8d25	-0.3096706
125	0x3e756a54	0.23966342
126	0x3df5342e	0.11972843
127	0xbda9a097	-0.08282583
128	0x3e9f335f	0.3109388
129	0xbce27d3f	-0.027647613
130	0xbf0bca78	-0.5460582
131	0x3edb05ba	0.42777807
132	0xbdb9d531	-0.09073866
133	0xbf177aa6	-0.5917152
134	0x3e122ed8	0.14275682
135	0xbc0cab03	-0.008585694
136	0xbeb0e79b	-0.345517
137	0xbf13301b	-0.5749528
138	0x3ea00737	0.31255504
139	0xbf6a75b9	-0.9158588
140	0xbee36047	-0.4440939
141	0x40a34ed6	5.1033735
142	0xbdc84acf	-0.097798936
143	0x3dd12226	0.102115914
144	0x3ea6ed9a	0.3260315
145	0xbe020be7	-0.12699853
146	0xbd76b232	-0.060228534
147	0x3e179d92	0.14806202
148	0xbe03f888	-0.12887776
149	0xbe3a265a	-0.18178692
150	0xbe3743b3	-0.17896919
151	0xbd999a05	-0.0750008
152	0xbddd2133	-0.10797348
153	0x3d84bd96	0.06481473
154	0xbe0318dd	-0.12802453
155	0x3e3611c7	0.17780219
156	0xbd8c65ea	-0.06855376
157	0x3d7543d7	0.05987915
158	0xbd793c4a	-0.06084851
159	0x3dd3bf76	0.10339253
160	0xbda6dee0	-0.08147979
161	0xbe1b5c06	-0.15171823
162	0xbdaa3af2	-0.08312024
163	0xbe07427b	-0.13208954
164	0xbd701114	-0.058610037
165	0xbd54c042	-0.051941164
166	0xbe3df3bf	-0.18550013
167	0xbda88b11	-0.0822965
168	0x3da2a2c0	0.07941198
169	0x3be5cfa0	0.007013276
170	0xbcbcbfd4	-0.02304069
171	0x3e239851	0.15976073
172	0x3e3935fc	0.18087
173	0x3e102e8c	0.14080256
174	0xbc4262f6	-0.011864414
175	0x3e254212	0.16138485
176	0xbe1d209a	-0.15344468
177	0x3dbc9a10	0.092090726
178	0x3ce3d8b3	0.027813291
179	0xbdf34db5	-0.11880056
180	0x3e23cfa8	0.15997183
181	0xbc8de245	-0.017319808
182	0x3dc53907	0.09630018
183	0xbd3fa3a3	-0.046786916
184	0x3d9ef4e8	0.07761556
185	0xbdbf7781	-0.093489654
186	0xbe2c3143	-0.16815667
187	0x3e0453ca	0.12922588
188	0xbd3d71a3	-0.04625095
189	0xbdd26ee2	-0.102750555
190	0xbde11012	-0.10989393
191	0xbe55496c	-0.2082879
192	0xbd405d42	-0.046963938
193	0xbdd3d92f	-0.10344159
194	0xbbe3936e	-0.006945065
195	0x3cd42b4a	0.025899548
196	0xbe964fed	-0.29357854
197	0x3d854b9f	0.06508564
198	0xbe617679	-0.2201785
199	0xbd1071a3	-0.035264622
200	0xbe321397	-0.17390285
201	0x3dd0212f	0.10162579
202	0x3e405b5a	0.18784848
203	0xbe06ec3a	-0.13176051
204	0xbe18c93e	-0.14920518
205	0xbc7356c0	-0.014852226
206	0xbe1e6c4f	-0.15471004
207	0xbd790eba	-0.06080506
208	0x3d83927a	0.064244226
209	0xbe085120	-0.13312197
210	0x3ddba1ed	0.10724244
211	0xbe048238	-0.129403
212	0x3d2cffce	0.04223614
213	0x3e2a723e	0.16645142
214	0xbdbbf730	-0.09178007
215	0xbe23d758	-0.16000116
216	0x3e31a2c9	0.17347254
217	0x3d4b6d30	0.049664676
218	0xbdc62c00	-0.09676361
219	0x3d4aa034	0.049469188
220	0x3d1bc8ff	0.03803348
221	0xbd7fe7d4	-0.062476948
222	0xbc990cd5	-0.018682877
223	0xbd95323f	-0.07284974
224	0xbda85823	-0.08219936
225	0x3d2f4239	0.042787764
226	0xbe002f8a	-0.12518135
227	0x3d3b83f0	0.045780122
228	0xbdd24d12	-0.10268606
229	0xbdf2ead1	-0.11861194
230	0xbce1259b	-0.027483752
231	0x3df4ec40	0.119591236
232	0x3dbe9c8a	0.09307201
233	0x3cd01c2d	0.02540406
234	0x3dd077b5	0.10179082
235	0x3bb40083	0.005493225
236	0xbe335343	-0.1751223
237	0xbd55f058	-0.052231163
238	0x3e0193a8	0.12653983
239	0x3e099e43	0.13439278
240	0xbd817c7c	-0.06322572
241	0x3d05ec93	0.032696318
242	0xbe3c974f	-0.18417095
243	0xbba34da8	-0.0049836226
244	0xbddc034f	-0.107428186
245	0xbdd3f903	-0.103502296
246	0xbd9debcb	-0.077109896
247	0xbdfcd891	-0.12345994
248	0x3d44f280	0.04808283
249	0xbd1571b1	-0.036485378
250	0xbe2bcb6a	-0.16776815
251	0x3e2a2d82	0.16618922
252	0x3df64bcd	0.120261766
253	0xbe28a049	-0.16467394
254	0xbe0b0610	-0.13576531
255	0xbe42a560	-0.19008398

encoder.0.bias f4 [20]
0	0x3e12d181	0.14337732
1	0xbb9a4511	-0.0047079404
2	0x3db96566	0.09052543
3	0x3f0a11b5	0.5393327
4	0xbd2b9386	-0.041888736
5	0x3c8a1439	0.016855346
6	0x3ce972a4	0.028497048
7	0x3dc9e5e8	0.09858304
8	0x3dc58450	0.09644377
9	0xbc29a9a0	-0.010355383
10	0x3cfa61b7	0.030564172
11	0x3e8ae333	0.27126464
12	0xbd27afe4	-0.040939227
13	0xbe021d9a	-0.12706605
14	0xbdd20286	-0.102543876
15	0x3ee7d59f	0.45280167
16	0xbe251c86	-0.16124162
17	0x3e199a37	0.15000235
18	0xbe3136b4	-0.17306024
19	0xbd5a2493	-0.053257536

encoder.3.weight f4 [10, 20]
0	0x3ee65ed2	0.44994217
1	0x3e280091	0.16406466
2	0x3d844b81	0.06459714
3	0xbd7ef0a5	-0.062241215
4	0x3f4de5c4	0.8042872
5	0x3cc841c5	0.024445424
6	0xbd87eefa	-0.06637378
7	0xbd80e978	-0.06294531
8	0x3de4e9b6	0.11177389
9	0xb8ac4c8a	-8.2158556e-05
10	0xbc9951b2	-0.018715713
11	0xbdf68a20	-0.12038064
12	0x3daa6843	0.083206676
13	0xbd1e7fc6	-0.038696073
14	0xbd3c42f3	-0.045962285
15	0xbeb5379a	-0.35393983
16	0x3c5160e6	0.01277945
17	0x3f0a7760	0.540884
18	0xbe273ad0	-0.16331029
19	0x3e0a95d5	0.13533719
20	0xbd93c22e	-0.07214771
21	0x3c5ce656	0.013482651
22	0x3b1e38b0	0.0024142675
23	0x3db516b1	0.08842219
24	0xbda4a49e	-0.08039211
25	0xbe1f46b3	-0.15554313
26	0xbe0d940e	-0.1382601
27	0xbe4b5d6a	-0.19859853
28	0x3e196759	0.1498083
29	0x3db500e0	0.088380575
30	0xbda4739e	-0.08029865
31	0xbe2af032	-0.1669319
32	0x3e036049	0.12829699
33	0xbe22032f	-0.15821527
34	0x3db76d0c	0.08956346
35	0xbdeb7bb8	-0.11498207
36	0x3d46aea7	0.048506405
37	0x3c93ab62	0.018026058
38	0x3ce6a0c5	0.028152833
39	0x3e46634f	0.1937382
40	0xbf171229	-0.59012085
41	0xbe53e021	-0.20690967
42	0xbe289f07	-0.16466914
43	0xc108a0b8	-8.539238
44	0x3cf85ece	0.030318644
45	0xbdf8d3b5	-0.12149755
46	0x3dcfea1b	0.10152074
47	0x3c78a258	0.0151754245
48	0x3de704b3	0.11280193
49	0x3d654f74	0.055983976
50	0xbd0fefd0	-0.035140812
51	0x3f384119	0.7197433
52	0x3b310d1a	0.0027015866
53	0x3d1e94a7	0.038715985
54	0x3d28176c	0.04103796
55	0xbd2019da	-0.039087154
56	0x3e47f6f5	0.195278
57	0x3f6ab746	0.91685903
58	0x3da78af1	0.08180798
59	0xbce3c8af	-0.027805654
60	0xbf314b08	-0.69255114
61	0xbdddd2d5	-0.10831229
62	0x3d3988fd	0.045296658
63	0x3e949f0f	0.29027602
64	0x3eee2913	0.46515712
65	0xbded4f57	-0.115873985
66	0xbe1ee640	-0.15517521
67	0x3e52e065	0.20593412
68	0x3e01b098	0.12665021
69	0xbe15486b	-0.14578407
70	0x3e694326	0.22779521
71	0x3dcb038b	0.09912785
72	0xbe3a4118	-0.18188894
73	0x3dd910f5	0.105989374
74	0x3da2dca5	0.07952241
75	0x3f0d5c06	0.5521854
76	0x3d01bbcf	0.03167325
77	0xbf3cbc3a	-0.7372471
78	0x3e953228	0.2913983
79	0xbe1e3046	-0.15448102
80	0xbc103575	-0.008801808
81	0x3de26115	0.11053673
82	0x3d554cab	0.05207507
83	0xbdd66ab1	-0.104695685
84	0xbe1fd51a	-0.15608636
85	0x3d577704	0.052603737
86	0xbdc251d1	-0.094882615
87	0xbe291d07	-0.1651498
88	0xbd26ac9f	-0.040691968
89	0x3dd294f5	0.102823175
90	0x3d28c26d	0.041201044
91	0xbdd89693	-0.10575595
92	0xbe26f9cb	-0.16306226
93	0x3d4d292f	0.050088104
94	0xbe09c6b9	-0.13454713
95	0xbc2897f0	-0.010290131
96	0xbe3a14a9	-0.18171944
97	0xbcec418f	-0.028839855
98	0x3ca0154f	0.01954141
99	0x3d0d0049	0.0344241
100	0x3e9307f2	0.28717
101	0xbd389e49	-0.045072827
102	0xbc3b3e86	-0.011428481
103	0xc0bc67e0	-5.88768
104	0xbcb9ea79	-0.022694813
105	0x3e4c5c3e	0.19957063
106	0x3cecf05e	0.02892321
107	0x3df0cac3	0.11757424
108	0xbe38df7d	-0.18054004
109	0x3cecc26b	0.0289013
110	0xbdf0ea6a	-0.11763461
111	0xc0c69548	-6.205723
112	0xbe5bc984	-0.21463591
113	0xbd4353ca	-0.04768733
114	0x3fa26db3	1.2689728
115	0x3be545a6	0.006996828
116	0x3e409169	0.1880547
117	0x3eb22b97	0.3479888
118	0x3d531531	0.05153388
119	0xbd9616bf	-0.07328557
120	0x3e5590c6	0.20856008
121	0x3d635630	0.055502117
122	0x3d85a57e	0.06525706
123	0x3f242858	0.6412406
124	0x3d82c172	0.06384553
125	0xbd9353d4	-0.07193723
126	0x3e1c7963	0.1528068
127	0x3e642f67	0.22283708
128	0x3bae7717	0.005324255
129	0x3c9bec3d	0.019033546
130	0x3ce17b55	0.02752463
131	0x3f9a9bc6	1.2078788
132	0xbc900b8e	-0.017583635
133	0xbdf3a476	-0.11896603
134	0xbfed4aa1	-1.85384
135	0x3d60923a	0.054826953
136	0x3e58ad49	0.21159853
137	0xbeb90b3a	-0.36141378
138	0x38251c32	3.9365324e-05
139	0x3e2b653d	0.16737838
140	0x3e93b3a5	0.28847995
141	0x3b74e0c2	0.0037365411
142	0x3c74b4f7	0.0149357235
143	0x3c0de1fa	0.008659834
144	0xc11acfbc	-9.675716
145	0xbd8d3c93	-0.06896319
146	0xbe138112	-0.14404705
147	0xbe210002	-0.15722659
148	0xbe520530	-0.20509791
149	0xbdf1a885	-0.11799721
150	0xbd69089c	-0.056892976
151	0xbd8d760a	-0.0690728
152	0x3cc2b12c	0.023766123
153	0xbe63501c	-0.22198528
154	0xbdbf348b	-0.09336194
155	0x3d09ccb5	0.03364249
156	0xbdd89aa0	-0.105763674
157	0x3ea8785a	0.3290432
158	0x3f77ba19	0.9676834
159	0x3dfe98a8	0.124314606
160	0xbf248ba3	-0.6427557
161	0x3d299778	0.041404217
162	0xbd9da68a	-0.076977804
163	0x3c85182c	0.016246878
164	0xbcd3b74d	-0.02584424
165	0xbde2ca5f	-0.110737555
166	0xbe168925	-0.14700754
167	0x3e49d054	0.19708377
168	0xbe55fbcf	-0.20896839
169	0xbdb55106	-0.088533446
170	0xbc06d01f	-0.008228331
171	0x3e04d642	0.12972358
172	0x3d7ee7fb	0.062232953
173	0x3d0426c2	0.032263525
174	0xbd25694b	-0.04038362
175	0x3fc65a9b	1.54964
176	0xbdcfa123	-0.10138156
177	0xbf5e1c47	-0.867619
178	0x3e8d043d	0.27542296
179	0x3ded6ede	0.11593412
180	0xbcdd9af9	-0.027051436
181	0x3e050ee2	0.12993959
182	0x3dd9b191	0.10629571
183	0x3fb7ca82	1.4358675
184	0x3d4fd59e	0.05074083
185	0xbdea62ed	-0.1144465
186	0xb9bf4948	-0.00036484958
187	0x3e077c34	0.13230973
188	0xbdef7fc4	-0.11694291
189	0xbca24f81	-0.019813301
190	0xbe28c198	-0.164801
191	0xbe19f9a3	-0.15036635
192	0xbdcd7156	-0.10031383
193	0x3dc92469	0.09821398
194	0x3d9945a6	0.074839875
195	0xbe64fb8e	-0.22361585
196	0x3e16069d	0.1465096
197	0x3f0d6cf1	0.55244356
198	0xbd38f4da	-0.045155384
199	0xbc467377	-0.01211249

encoder.3.bias f4 [10]
0	0x3ef72b58	0.48275256
1	0xbeb74baf	-0.3579993
2	0x3f8fb234	1.1226258
3	0x3eee87eb	0.46588072
4	0xbe235a06	-0.1595231
5	0xbe664fbd	-0.22491355
6	0x3f71f6ff	0.9451751
7	0x3f262527	0.6490044
8	0xbf79e23a	-0.9761082
9	0x3dd59484	0.10428718

encoder.5.weight f4 [5, 10]
0	0x3f267d8b	0.65035313
1	0xbd93fd88	-0.072260916
2	0x3d81d093	0.063386105
3	0x3f312cac	0.6920879
4	0x3e8fcfca	0.28088218
5	0xbe1e436e	-0.1545541
6	0x3e954c84	0.2915994
7	0x3f6b064d	0.9180649
8	0xbea30efb	-0.31847367
9	0xbe4524e8	-0.1925236
10	0x3f63bfa4	0.88964295
11	0xba616918	-0.0008598729
12	0xbe2fb094	-0.17157203
13	0xbf711ece	-0.9418763
14	0xbdc5f930	-0.09666669
15	0xbcb76bc6	-0.022390258
16	0x3e7e43c7	0.24830543
17	0x3e83d248	0.2574637
18	0x3fa956d5	1.3229624
19	0x3b69aed1	0.0035657177
20	0x3de27308	0.11057097
21	0xbea1714f	-0.3153176
22	0xbf2785ce	-0.65438545
23	0x3d307375	0.04307886
24	0x3e870fce	0.26379246
25	0x3f20fa08	0.6288152
26	0xbeea5540	-0.45768166
27	0x3e6c2b31	0.23063351
28	0x3e56d424	0.20979363
29	0xc000c898	-2.0122433
30	0x3f0d19fc	0.55117774
31	0x3d6d97b8	0.05800602
32	0x3e42507e	0.18976018
33	0x3e2d7b7b	0.16941635
34	0x3e7e1146	0.24811277
35	0x3e873357	0.26406357
36	0xbf3ba97c	-0.7330549
37	0x3f12bb07	0.5731663
38	0x3ee3bec2	0.44481474
39	0x3edc2a02	0.430008
40	0xbe6870d5	-0.22699292
41	0xbdbeb298	-0.09311408
42	0x3fa08a85	1.2542273
43	0x397c84a8	0.00024082011
44	0xbe458213	-0.192879
45	0xbf26fca7	-0.65229267
46	0x3e9eb19f	0.3099489
47	0xbe175a79	-0.14780606
48	0x3d8f459e	0.069957
49	0x3f38ab73	0.7213661

encoder.5.bias f4 [5]
0	0xbf3f7913	-0.7479412
1	0x3ec16286	0.3777048
2	0xbf037b7d	-0.51360303
3	0x3f3536d6	0.707868
4	0xbea6ff79	-0.32616785

decoder.0.weight f4 [10, 5]
0	0xbe8b265e	-0.2717771
1	0xbf153b97	-0.5829405
2	0xbeb2072c	-0.34771097
3	0x3e139a37	0.14414297
4	0xbbbbce50	-0.0057313815
5	0x3cc56473	0.02409575
6	0x3ca0265a	0.019549537
7	0x3e65b8ad	0.2243373
8	0xbd9a7f97	-0.07543867
9	0xbedfa6e1	-0.43682006
10	0xbf4d162b	-0.8011195
11	0xbec7e531	-0.39042047
12	0x3d312bf5	0.04325481
13	0x3ebb843d	0.36624327
14	0xbf1d0833	-0.61340636
15	0x3e98b638	0.29826522
16	0x3d3964ad	0.045262028
17	0x3b0291a2	0.001992323
18	0xbf0ae97d	-0.54262525
19	0x3f1ada02	0.60488904
20	0x3ef3bdc5	0.4760572
21	0xbd6072ad	-0.054796863
22	0x3f18710a	0.59547484
23	0x3e30e409	0.17274489
24	0xbc86c1a1	-0.016449751
25	0xbda6fad2	-0.08153309
26	0xbe87b8fe	-0.26508325
27	0x3ecbbb91	0.3979154
28	0xbda16fa4	-0.07882622
29	0x3dcea651	0.10090316
30	0x3dc1df1d	0.094663836
31	0x3f2d9860	0.6781063
32	0xbe116e06	-0.14202127
33	0xbe14e613	-0.14540891
34	0xbe946b83	-0.28988275
35	0xbdef7bec	-0.11693558
36	0xbf1a7409	-0.60333306
37	0xbe736521	-0.23769046
38	0x3e3668d9	0.17813434
39	0x3e9f4c67	0.31112978
40	0xbdf76947	-0.12080627
41	0x3dfc76b8	0.12327331
42	0xbe811f3f	-0.2521915
43	0x3e7f0ba0	0.24906778
44	0x3e9b7167	0.30359957
45	0x3e789681	0.24276163
46	0xbe561cc4	-0.2090941
47	0x3ee7146a	0.45132762
48	0x3c9c1c64	0.019056506
49	0xbe2fe391	-0.17176653

decoder.0.bias f4 [10]
0	0xbebf5ea8	-0.37376904
1	0xbea76546	-0.32694453
2	0xbf5ae30a	-0.85502684
3	0x3e9c84b4	0.30569994
4	0xbe8bf174	-0.27332652
5	0xbeaf0177	-0.34180805
6	0xbef1a638	-0.47197127
7	0x3ecc1f05	0.39867416
8	0xbec58a66	-0.38582152
9	0xbf676276	-0.90384614

decoder.2.weight f4 [20, 10]
0	0x3d6a354c	0.057179734
1	0xbda119cb	-0.07866248
2	0xbeaedbaf	-0.3415198
3	0xbcd8dc43	-0.026472216
4	0xbc7270f6	-0.01479744
5	0xbe63efac	-0.22259396
6	0xbd109c1c	-0.035305128
7	0x3edc299f	0.43000504
8	0x3ec9cd20	0.3941431
9	0xbe838145	-0.25684562
10	0xbe2997d9	-0.16561832
11	0x3d00a2ed	0.031405378
12	0x3eb5b0f7	0.35486576
13	0xc09ac8c8	-4.8370094
14	0x3ceffe8a	0.029296178
15	0x3cf0d55d	0.029398615
16	0x3e371c4e	0.17881891
17	0xbce2ea2d	-0.027699554
18	0xbdbda6d5	-0.09260336
19	0xbec7a1d7	-0.38990662
20	0xbe2f9f35	-0.17150576
21	0x3e9f8929	0.31159332
22	0x3e0956c0	0.13411999
23	0x3d2f4187	0.0427871
24	0xbd07d2cb	-0.033160012
25	0xbe1526c8	-0.14565575
26	0xbedc2496	-0.42996663
27	0x3edc5e79	0.43040827
28	0xbf68726b	-0.9079959
29	0x3ead640d	0.33865395
30	0xbc6e3e0f	-0.014541163
31	0xbe523753	-0.20528917
32	0xbdedc0df	-0.11609053
33	0xbc24fbd8	-0.01006981
34	0x3f2fc4fe	0.6865996
35	0xbe6a2a15	-0.22867616
36	0x3d31555a	0.04329429
37	0xbbd34742	-0.0064477036
38	0xbd83bb86	-0.06432252
39	0x3ef42687	0.47685644
40	0x3d0ec744	0.034858003
41	0x3e997af2	0.29976612
42	0x3e5b39e6	0.21408805
43	0xbe4de13f	-0.20105456
44	0xbe27966d	-0.16365977
45	0x3e75944b	0.2398235
46	0xbe52b5ef	-0.20577215
47	0xbe7f4629	-0.24929108
48	0xbe59eeee	-0.2128255
49	0xbe906d19	-0.28208235
50	0x3c0985c5	0.00839371
51	0x3e337496	0.17524943
52	0xbd3748fc	-0.044747338
53	0x3a5cb822	0.0008419772
54	0x3f1402c3	0.57816714
55	0x3ea262c7	0.31715986
56	0x3a9cdceb	0.0011967694
57	0xbd828668	-0.06373292
58	0xbdb442dc	-0.08801815
59	0xbf18b5ec	-0.5965259
60	0xbda18c48	-0.07888085
61	0xbc55f634	-0.013059188
62	0x3ea19008	0.315552
63	0xbe4a52dc	-0.19758171
64	0xbca0a650	-0.019610554
65	0x3e389282	0.18024638
66	0x3e294524	0.16530281
67	0xbe9fa3b4	-0.31179583
68	0xbeec9cbe	-0.46213335
69	0x3cd2ca5f	0.025731264
70	0x3c132f53	0.008983451
71	0xbe24c96b	-0.1609246
72	0xbd7c1f4f	-0.061553296
73	0xbc1583ba	-0.009125644
74	0x3f2db39c	0.6785219
75	0xbe35e1cb	-0.17761914
76	0x3cffc82f	0.031223385
77	0x3c9b85bd	0.01898467
78	0x3d53e421	0.051731233
79	0xbec006ba	-0.37505132
80	0x3e97829c	0.29591835
81	0x3e804e89	0.25059918
82	0xbe352a5a	-0.17691937
83	0x3ece5f90	0.40307283
84	0xbc77451c	-0.015092161
85	0x3d08dafe	0.033411972
86	0x3dc38b2b	0.095480286
87	0xbe93b9bb	-0.2885264
88	0xbe797907	-0.24362575
89	0xbe49c382	-0.19703487
90	0xbe7ebcf4	-0.24876767
91	0xbe31903a	-0.17340174
92	0xbfeabf1d	-1.8339573
93	0xbec59db9	-0.38596895
94	0x3c07f269	0.008297541
95	0xbdddc0e8	-0.108278096
96	0xbe240f11	-0.16021372
97	0x3df975ee	0.121806964
98	0x3e1b9c92	0.15196446
99	0x3c6ca736	0.014444163
100	0xbe9f8715	-0.31157747
101	0x3e995194	0.29945052
102	0x3c2dd943	0.010610881
103	0x3c454728	0.012040891
104	0xbe5d9ac9	-0.21641077
105	0xbd6797c4	-0.05654122
106	0xbc46a92c	-0.012125295
107	0xbdaacfb3	-0.08340397
108	0xbc8c2ffa	-0.01711272
109	0xbe8ac512	-0.27103478
110	0xbe1a4ea3	-0.1506906
111	0x3cc4835c	0.023988418
112	0x3e8d63db	0.27615246
113	0x3eeb52c2	0.45961577
114	0xbc72a0f8	-0.014808886
115	0x3e280220	0.1640706
116	0x3f2a0bb0	0.66424084
117	0xc02c5f6a	-2.6933236
118	0xbe8d43e2	-0.27590853
119	0xbe46c1e0	-0.19409895
120	0x3d92f491	0.071755536
121	0xbc149d71	-0.00907074
122	0xbe4b3014	-0.19842559
123	0xbd30d579	-0.043172333
124	0x3cb5a638	0.022173986
125	0x3d8139a2	0.06309821
126	0x3e335cef	0.1751592
127	0xbe50162a	-0.20320955
128	0x3ec2eb3e	0.380701
129	0xbe81a8ae	-0.25324005
130	0x3e877b6f	0.2646136
131	0xbe70bf91	-0.23510577
132	0xbe1e3572	-0.15450075
133	0x3e991d2d	0.29905072
134	0x3cf50634	0.029910184
135	0x3ecd0b1d	0.4004754
136	0xbe3a286a	-0.18179479
137	0x3e318034	0.17334062
138	0x3ec5d744	0.38640797
139	0x3db807b9	0.08985848
140	0xbba84551	-0.0051352163
141	0x3dc0c817	0.09413164
142	0x3f0a8379	0.5410686
143	0xbf91cab3	-1.1389984
144	0xbd9942bc	-0.07483432
145	0xbe4f4777	-0.20242105
146	0xbe7d2c60	-0.24723959
147	0x3dcb29c3	0.09920075
148	0x3eee66da	0.46562845
149	0xbe78f0e5	-0.24310644
150	0x3e1bc351	0.15211226
151	0xbe6562ad	-0.22400923
152	0x3e0a4e70	0.13506484
153	0xbe9a4b2d	-0.3013548
154	0xbe0d1dd4	-0.1378091
155	0xbde65dd4	-0.11248365
156	0xbdbad76a	-0.09123118
157	0x3e49ad06	0.1969491
158	0xbd8630ed	-0.065523006
159	0x3e8340f0	0.2563548
160	0xbd5b5a92	-0.05355317
161	0x3e13a027	0.14416562
162	0xbe54f2d7	-0.20795761
163	0xbd316447	-0.043308523
164	0x3c81b8d6	0.015835207
165	0xbdb33edd	-0.087522246
166	0x3e00e83f	0.12588595
167	0xbe5e7e05	-0.2172776
168	0x3f019c71	0.50629336
169	0x3e4f8f40	0.2026949
170	0xbdcc7e4b	-0.09985026
171	0xbd2e9a1c	-0.04262744
172	0xbdca3395	-0.0987312
173	0x3b8157be	0.0039472273
174	0xbf7eee2c	-0.9958217
175	0xbe01e9d0	-0.12686849
176	0xbbea7899	-0.0071554896
177	0x3d079201	0.033098225
178	0x3ce26f16	0.02764086
179	0xbe42a53d	-0.19008346
180	0xbc3c1851	-0.011480407
181	0xbe8ea626	-0.27861136
182	0xbe63820f	-0.22217582
183	0x3e03079f	0.12795876
184	0xbe7e15f2	-0.24813059
185	0xbe433e93	-0.19066839
186	0xbd87fe4c	-0.066403
187	0xbdd047a7	-0.101699166
188	0xbea20d4b	-0.31650767
189	0x3e134d5a	0.14384976
190	0xbe59cbb5	-0.21269114
191	0xbe34c93a	-0.17654887
192	0xbee38369	-0.44436195
193	0xc0736caa	-3.8035073
194	0x3cb5cac1	0.022191407
195	0x3e80a89e	0.25128645
196	0xbe43ece4	-0.19133335
197	0x3d921eb1	0.0713476
198	0x3e095c99	0.1341423
199	0x3e209f09	0.15685667

decoder.2.bias f4 [20]
0	0xbea8c3cf	-0.3296189
1	0x3e83be29	0.25731018
2	0x3e1b5bfb	0.15171807
3	0xbf4d5623	-0.8020956
4	0xbd700688	-0.05859998
5	0xbe47e1df	-0.19519757
6	0x3ee6f8ee	0.45111793
7	0xbeafaf49	-0.3431342
8	0xbdc3a036	-0.09552042
9	0x3e65d62e	0.22444984
10	0xbdeea5e1	-0.11652733
11	0xbec21f1d	-0.37914363
12	0xbdae26b8	-0.08503479
13	0xbef0e10f	-0.47046706
14	0xbf76a813	-0.9635021
15	0xbeb08587	-0.34476873
16	0xbdabc086	-0.0838633
17	0x3ed17cef	0.4091563
18	0xbe6f01f3	-0.23340587
19	0x3dfc1ff9	0.12310786

decoder.5.weight f4 [29, 20]
0	0xbed7cb0b	-0.42147097
1	0x3dcf8453	0.10132661
2	0x3d862f44	0.06551984
3	0x3eb8ecda	0.36118203
4	0x3debb2b9	0.11508698
5	0x3cf220d8	0.029556677
6	0xbe035593	-0.12825613
7	0xbc9d579a	-0.01920681
8	0x3d08c700	0.033392906
9	0x3ddf23a3	0.10895469
10	0xbd828ea2	-0.06374861
11	0xbe6cba41	-0.23117925
12	0xbcfb3cda	-0.030668665
13	0x3d92c42c	0.07166323
14	0xbdc36fca	-0.095428064
15	0x3d05d23e	0.032671206
16	0x3dc8d30a	0.098058775
17	0xbde283e7	-0.110603146
18	0xbe5b7494	-0.2143119
19	0xbd830160	-0.06396747
20	0x3b030eae	0.0019997763
21	0x3c2c3358	0.010510288
22	0xbc36d680	-0.011159539
23	0x3dcb900d	0.09939585
24	0x3dbba3b1	0.09162081
25	0x3bdae559	0.0066801724
26	0xbc92bcc6	-0.01791228
27	0xbd8cdd78	-0.06878179
28	0x3d07ef6e	0.033187322
29	0xbc4e57ed	-0.012594205
30	0xbe28b7dc	-0.16476387
31	0xbd51e80f	-0.0512467
32	0x3c036aaa	0.008021036
33	0xbb811562	-0.0039393166
34	0x3d9131c7	0.070895724
35	0xbc202ae2	-0.009775849
36	0x3cc42115	0.023941556
37	0xbd23aed2	-0.039961644
38	0xbda1132a	-0.078649834
39	0x3dc8bf43	0.09802105
40	0x3e33928e	0.17536375
41	0x3c94cde2	0.018164579
42	0xbe54b058	-0.20770395
43	0xbd9e5207	-0.07730489
44	0xbda5146c	-0.08060536
45	0x3b3b51f6	0.0028582788
46	0x3e29deec	0.16588944
47	0xbd61c388	-0.055118114
48	0x3dd75c57	0.10515659
49	0x3d4f7ae7	0.05065432
50	0x3e6268aa	0.22110239
51	0xbd520d24	-0.051282063
52	0xbdb1a864	-0.08674696
53	0xbcf045a3	-0.02933008
54	0x3c24ff57	0.010070643
55	0xbe58c95e	-0.21170565
56	0xbd35e9d4	-0.04441245
57	0xbcdfe074	-0.027328707
58	0x3e68e14c	0.22742194
59	0xbc8ec15a	-0.017426182
60	0x3e90ca80	0.28279495
61	0x3db76ee5	0.08956698
62	0xbed27fb4	-0.41113055
63	0x3f9837de	1.1892049
64	0xbde3d17c	-0.1112394
65	0xbd079f4f	-0.033110913
66	0x3e81b67d	0.2533454
67	0xbe245a90	-0.16050172
68	0x3e280150	0.1640675
69	0x3e006fbc	0.12542623
70	0xbd01eebe	-0.031721823
71	0xbd8f01fb	-0.069827996
72	0xbd5834ff	-0.052784916
73	0x3cb54faf	0.022132723
74	0x3ed0e8ee	0.4080271
75	0x3e29c730	0.1657989
76	0xbdc18e35	-0.09450952
77	0xbb5b24a8	-0.0033438597
78	0xbdfa6954	-0.12227121
79	0x3da90c4f	0.08254301
80	0x3c8361bf	0.01603782
81	0x3c8db33c	0.01729738
82	0x3ddcf636	0.107891485
83	0x3da016d2	0.07816853
84	0xbe218d34	-0.15776521
85	0x3c2d82eb	0.010590295
86	0xbd3f2294	-0.046663836
87	0x3bc5b8a6	0.0060339747
88	0xbc81b081	-0.015831234
89	0xbbe50842	-0.00698951
90	0xbdd52065	-0.104065694
91	0x3d08eee0	0.033430934
92	0x3d58b1e4	0.052904025
93	0xbd025f6c	-0.031829283
94	0x3ca7098c	0.020390294
95	0x3ded5f88	0.11590487
96	0x3cbb627d	0.022874111
97	0xbba9b50c	-0.005179053
98	0xbdf258ef	-0.11833369
99	0x3c81d551	0.015848788
100	0x3d96e1ab	0.073672615
101	0x3d90d585	0.070719756
102	0x3e53eba0	0.20695353
103	0x3d65dff2	0.056121774
104	0xbd1fa17c	-0.038972363
105	0x3cb30203	0.021851545
106	0xbd0c1b29	-0.03420559
107	0xbd1c5689	-0.038168464
108	0xbccee2c5	-0.025254617
109	0xbccdf79a	-0.02514248
110	0xbd95e481	-0.07318974
111	0x3daa5a8c	0.08318052
112	0x3cfe42e8	0.031037763
113	0xbd190d37	-0.03736612
114	0x3cfd4898	0.030918404
115	0x3e3b7c6b	0.1830918
116	0x3d9576a4	0.072980195
117	0x3b92d624	0.004481094
118	0xbd8af96b	-0.06785854
119	0xbd109931	-0.035302345
120	0x3bed507a	0.0072422596
121	0xbc07bc88	-0.008284695
122	0xbc6c3826	-0.014417684
123	0xbd3025e3	-0.04300488
124	0xbe03132c	-0.12800282
125	0x3c49f434	0.012326289
126	0x3b970145	0.0046083056
127	0x3cb3d895	0.02195386
128	0x3b9b6f4f	0.0047434936
129	0xbc468d64	-0.012118671
130	0xbc81e6dc	-0.015857153
131	0xbc91e60a	-0.017809886
132	0x3abcc046	0.0014400564
133	0xbc85c680	-0.016330004
134	0xbad8f540	-0.0016552582
135	0xbc2f0956	-0.010683378
136	0x3a6b23d0	0.0008969875
137	0x3bd4d05f	0.0064945663
138	0xbe00c087	-0.12573443
139	0x3bc65489	0.006052558
140	0x3d693893	0.05693872
141	0x3c155e62	0.009116741
142	0x3ca18071	0.019714566
143	0x3c127e5b	0.008941258
144	0xbd60fbc3	-0.0549276
145	0x3bd7e081	0.0065880422
146	0xbbf19b6d	-0.0073732645
147	0xbb8a4e3f	-0.0042207534
148	0xbc0e574b	-0.008687804
149	0xbc2d86be	-0.010591207
150	0xbe30385b	-0.17208998
151	0x3d369737	0.044577803
152	0x3adaf3a4	0.0016704691
153	0xbcedb2ea	-0.029015977
154	0x3cebd9a7	0.028790308
155	0x3de0f20b	0.10983666
156	0x3cdb5835	0.026775459
157	0xbace6e9f	-0.001574952
158	0x3df9d4ea	0.12198813
159	0x3a76db2c	0.00094168144
160	0x3d7ca920	0.061684728
161	0x3ed93aa1	0.42427543
162	0xbca00caa	-0.019537289
163	0xbf32cb01	-0.6984101
164	0xbd7ecf40	-0.062209368
165	0x3e0c4df8	0.13701618
166	0x3d28083a	0.04102347
167	0x3dedb8f6	0.11607544
168	0x3db6519a	0.08902283
169	0xbc942ae1	-0.018086853
170	0x3e0277d3	0.12741022
171	0x3cac4b85	0.021032104
172	0xbc17ae90	-0.009257928
173	0x3d64c181	0.055848602
174	0x3cd41d2d	0.025892818
175	0xbd1bfc24	-0.038082257
176	0xbc779a4d	-0.015112472
177	0x3e8bfa1b	0.27339253
178	0x3e978c2a	0.29599124
179	0x3ece4d4a	0.40293342
180	0xbc34ef3a	-0.011043364
181	0xbdc76183	-0.09735396
182	0xbce78a14	-0.028264083
183	0x3eb4dde7	0.35325548
184	0xbe52c4d3	-0.20582895
185	0xbd64aa04	-0.055826202
186	0xbaa71f2f	-0.0012750382
187	0xbd62bbae	-0.055354767
188	0xbc265fa7	-0.010154641
189	0x3c67c3ae	0.014145775
190	0x3cd8796c	0.026425086
191	0x3c75df61	0.015006871
192	0xbc183c63	-0.009291741
193	0x3c22c271	0.009934054
194	0xbcf53844	-0.029934056
195	0x3b9fdffa	0.004878995
196	0xbc38bcb9	-0.011275464
197	0xbdd197a4	-0.10234001
198	0x3d4b43d8	0.049625248
199	0xbd817adc	-0.06322262
200	0xbe3e7b14	-0.18601638
201	0x3f553fdf	0.83300585
202	0xbe0f2fab	-0.13983028
203	0xbef5687a	-0.47931272
204	0xbe75ca2c	-0.24002904
205	0x3dbf5892	0.09343065
206	0xbdf2282a	-0.11824067
207	0xbcdaecdb	-0.02672427
208	0x3e83ccad	0.25742093
209	0xbd9cfa29	-0.07664902
210	0xbd5da2a9	-0.054110203
211	0x3e51d293	0.20490484
212	0xbe327563	-0.17427592
213	0xbc72e685	-0.014825468
214	0xbe2b27eb	-0.16714446
215	0xbd878027	-0.0661624
216	0xbe515d81	-0.20445825
217	0x3c7b8bab	0.015353124
218	0x3bf9d80a	0.007624631
219	0x3f2048a5	0.62610847
220	0x3d363dbe	0.044492476
221	0xbf734d82	-0.9504014
222	0xbe11f514	-0.14253646
223	0xbeeb476f	-0.45952937
224	0x3be50782	0.0069894204
225	0x3e1bf1fb	0.15229027
226	0x3cff78c2	0.031185511
227	0x3d992bd6	0.07479064
228	0xbdc4d6a8	-0.09611255
229	0x3db6514f	0.08902227
230	0xbc9d1bc3	-0.019178277
231	0x3d775cd8	0.060391277
232	0xbcc830ac	-0.024437271
233	0xbe4fd7b0	-0.20297122
234	0x3e0e63e8	0.13905299
235	0xbd320f02	-0.043471344
236	0xbc9b9e72	-0.018996451
237	0x3e486a8e	0.19571897
238	0x3cdbd704	0.026835926
239	0xbf6512d9	-0.89481884
240	0xbebe0e57	-0.37120315
241	0x3ee75189	0.45179394
242	0xbe29a550	-0.16566968
243	0x3dca92ab	0.09891256
244	0x3e49a333	0.19691162
245	0x3ae6d508	0.0017611096
246	0x3f69778c	0.9119804
247	0xbd62c883	-0.055367004
248	0xbf1567de	-0.58361614
249	0x3f283321	0.65703017
250	0x3e05485d	0.13015886
251	0xbd2525c4	-0.04031922
252	0x3e3c98cb	0.18417661
253	0xbf650899	-0.89466244
254	0x3f56a5de	0.83846843
255	0x3db40285	0.08789543

decoder.5.bias f4 [29]
0	0x404baaf1	3.1823084
1	0x3f99009e	1.1953313
2	0x3fcf1628	1.6178637
3	0xbf8c7413	-1.0972923
4	0x3f969c12	1.1766379
5	0xbf87d319	-1.0611297
6	0xbf819355	-1.0123087
7	0x3fa5b467	1.294568
8	0xbe66705c	-0.22503799
9	0x3d4f6ead	0.050642658
10	0xbf660110	-0.8984537
11	0x3f628a38	0.88492155
12	0xbe3c1a53	-0.18369417
13	0x3f16e5b2	0.5894424
14	0xbf22d921	-0.6361256
15	0xbe323102	-0.17401507
16	0x3f81537b	1.0103601
17	0x3f1bb688	0.60825396
18	0x3e9423fc	0.28933704
19	0x3ea6b8d3	0.32562885
20	0x3e7ec632	0.24880293
21	0x3d210bf7	0.03931805
22	0x3f30ac85	0.69013244
23	0xbeb51b13	-0.35372218
24	0x3ea0da67	0.31416628
25	0xbeb68661	-0.35649398
26	0xbeaa40f4	-0.3325268
27	0xbf48bcf2	-0.7841331
28	0xc0b7a628	-5.7390327
