aeacus/weights/ae.pth (torch, 10945 bytes, 12 tensors)

encoder.0.weight f4 [20, 29]
000000 5e 9b 93 bb 70 57 11 be 6c 1b 30 bd 52 f0 20 bf
       -0.004504605 -0.14193511 -0.0429949 -0.628667
000010 7a 4f f6 bd 99 6c 14 bb cb 75 db bd d7 24 26 bd
       -0.12026878 -0.0022647737 -0.107158266 -0.040562477
000020 79 a1 b5 3d 7b b9 f8 bc 85 9c d2 3d 98 37 75 bd
       0.08868689 -0.030361881 0.1028376 -0.05986747
000030 4e a8 da 3d 0a 68 9a bc 5e 13 c4 3d a2 71 79 bc
       0.10676633 -0.018848438 0.095740065 -0.015224846
000040 4f 1f c9 bd 3a 73 92 bd b0 51 35 3e 5b 4d b0 bc
       -0.09820425 -0.07150884 0.17706943 -0.021521261
000050 80 1d f0 3b b4 fe c9 bd 74 e7 ba bb fb 33 4b 3e
       0.0073277354 -0.09863034 -0.005703861 0.19844048
000060 b0 06 79 bd cc fe d5 3f fe d7 80 bd b5 e7 76 bd
       -0.060797393 1.6718383 -0.06291197 -0.060279567
000070 f1 3b 79 3d fe 6c 29 be 18 5a 0c be 2f e2 05 3e
       0.06084818 -0.16545483 -0.13706243 0.13074563
000080 06 6b 89 3d 48 aa 35 3d 29 83 12 3e 42 49 f3 3d
       0.06709866 0.044351846 0.14307846 0.11879207
000090 0f 9a b0 bd 8c c3 65 bd 12 2e 0b be 98 1b 43 bd
       -0.08623134 -0.05609469 -0.13591793 -0.047633737
0000a0 06 c8 10 be de cd 93 3d f4 80 58 3d 4a b9 19 be
       -0.14138803 0.072170004 0.052857354 -0.15012088
0000b0 c8 a4 6a 3d 08 0a cf bc c3 26 e3 bd a9 d2 1e be
       0.057286054 -0.025273338 -0.110913776 -0.15510048
0000c0 68 4c 7c 3d e1 0e 01 be 5c d3 76 3d 60 0e 94 bc
       0.061596304 -0.12603332 0.06026016 -0.01807326
0000d0 10 e4 15 be 2c 62 16 be 4f 3d 2a be 90 59 b4 3c
       -0.1463778 -0.14685887 -0.1662495 0.022015363
0000e0 b7 81 16 3e 02 8b 8a bd f9 81 79 bd 36 d7 88 3e
       0.1469792 -0.06764795 -0.060914967 0.26726693
0000f0 60 47 5d bd 9e aa ff 3e 10 3d 30 3e 14 a1 50 3e
       -0.054023147 0.49934858 0.17210793 0.20373946
000100 f9 0d c3 bd a8 4d 81 3e 01 82 52 be 6c 8e 82 bc
       -0.095241494 0.2525456 -0.20557405 -0.015937053
000110 0f 13 0f 3f ec 08 cf 3d 13 0b 83 be 33 64 13 be
       0.55888456 0.101091236 -0.25594386 -0.14393692
000120 62 80 c9 bd dc fd 91 be c5 05 05 bd 02 8b 41 bf
       -0.0983894 -0.28513992 -0.032476205 -0.75602734
000130 fb 22 86 bf 63 3b 2a 3e 8f 45 96 3e 6a b4 8c 3e
       -1.0479425 0.16624217 0.29349944 0.27481395
000140 78 ba b6 3e c0 7b e2 be 3e d2 d4 bd b9 ff 13 3e
       0.3568914 -0.4423504 -0.10391663 0.14453019
000150 d7 d7 d6 3c 12 f9 9e 3e b3 c6 1f 3e ae e1 c8 3d
       0.026225967 0.310494 0.15603141 0.0980867
000160 b3 fb 8a 3d 23 ea 16 bd 3f 42 ca 3d 65 d0 40 3d
       0.06786289 -0.036844384 0.09875917 0.04707374
000170 d7 d0 94 3d 83 a0 fe bb b5 b8 50 be 90 02 b4 3d
       0.072663955 -0.0077705993 -0.2038296 0.08789551
000180 82 11 94 3d 76 c3 4f be 16 bf b2 3d 7f 58 64 bd
       0.07229902 -0.20289406 0.08727853 -0.05574846
000190 88 df cf bd b6 71 fb 3c 99 c0 33 be 1b 89 d8 bd
       -0.10150057 0.03069387 -0.17553939 -0.10573026
0001a0 da 4d 05 be 00 49 46 be ef 91 b9 3d 30 b6 eb 3c
       -0.1301798 -0.19363785 0.09061038 0.028773397
0001b0 65 de 49 be e3 20 29 bc d6 5a bb bd 60 bd 42 be
       -0.19713743 -0.010322782 -0.09148185 -0.19017553
0001c0 2a 7e 41 3d 38 23 56 3d f5 f6 b8 bd 5c c1 84 3d
       0.04723946 0.05227968 -0.09031478 0.06482193
0001d0 21 8b 0b 3d 6b 41 37 3d 4f d6 a9 bc 3e 3f a9 bd
       0.03406823 0.04474012 -0.020732073 -0.082640156
0001e0 c8 4c c4 3b fa 82 70 be 38 81 83 bd 2e e9 8e bd
       0.0059905984 -0.23487464 -0.06421131 -0.06978069
0001f0 b4 41 8e be c9 6c e0 3d 36 f5 89 3f 34 f8 e1 3e
       -0.27784503 0.10958249 1.0777957 0.44134676
000200 53 14 37 bf 5d 99 16 be 8e eb c7 be be b3 14 3e
       -0.7151539 -0.14706941 -0.390469 0.14521691
000210 d8 08 2b be 12 a2 0e 3f c1 29 9b 3e ed 28 1b be
       -0.16702592 0.5571605 0.30305293 -0.1515233
000220 01 8e 99 bc 76 c9 f7 3b 49 93 fc bd 44 ba 99 be
       -0.01874447 0.007561858 -0.1233278 -0.30024922
000230 d1 f9 4c bb 00 34 fe bc 6b 1c 93 bb f1 f6 8b bd
       -0.0031276832 -0.031030655 -0.0044894717 -0.0683421
000240 69 82 5e 3e 4a 3e 67 3e 11 6e 9d 3c f9 35 df 3d
       0.21729435 0.22582355 0.019217523 0.10898966
000250 43 34 8f 3d 3c 5c af bd fe 96 79 be 40 22 7f 3e
       0.0699239 -0.08562514 -0.24374005 0.24915409
000260 1a aa bf bc 10 b7 37 3e c2 e7 db 3d d9 4c 4d bf
       -0.02339654 0.17940927 0.10737564 -0.80195385
000270 61 61 1a 3e 7d ae a7 be e7 49 72 3d 36 a7 fa bf
       0.1507621 -0.32750311 0.05915251 -1.9582279
000280 3b fd 51 3e 9c 11 f7 3d cc 50 d0 bc f7 35 bd 3e
       0.20506756 0.120639056 -0.025429152 0.36955234
000290 35 8f 95 bd bd 4f e5 bd f7 af a5 bd 74 c8 6c bd
       -0.07302705 -0.111968495 -0.08090203 -0.057808354
0002a0 9b ef b5 3e 72 5f a9 3d 9d 6e 97 bd 1b be 9a 3d
       0.35534367 0.08270158 -0.07394145 0.07555791
0002b0 93 e3 a8 bc 35 3c 1b 3e f3 79 b7 3d 24 dc 1d 3d
       -0.020616328 0.15159686 0.08958807 0.03854002
0002c0 c9 62 63 3d bf 26 b6 bd a3 fa 1f 3e ad 1f 0d be
       0.05551413 -0.08894109 0.15622954 -0.13781615
0002d0 d1 bc 0f 3e 09 26 64 3d c7 53 9a 3d cf c2 40 3e
       0.14036871 0.055700336 0.075355105 0.18824314
0002e0 80 74 f9 be 32 56 27 3e 50 82 bf bf 19 2f cc bd
       -0.48721695 0.16341475 -1.4961643 -0.09969921
0002f0 c4 16 b4 3e 3d 2a f2 3d 61 8d 5d bc 7a 22 2c bd
       0.3517362 0.118244626 -0.013522477 -0.042025067
000300 03 e0 95 3d 1e d1 45 3c 99 f8 2b 3c 9d 06 09 bc
       0.073181175 0.012073783 0.010496282 -0.008363393
000310 e8 1a 15 3e a9 e0 0e be 72 ae 92 3c 3a 22 da 3c
       0.14561045 -0.13952889 0.017905448 0.026627649
000320 24 c9 10 bd 44 be 21 3d a8 04 d3 3e 53 89 2f bc
       -0.035348073 0.039488092 0.4121449 -0.010713893
000330 3e 4d dd 3d ed db 14 3e 33 85 b5 3c 49 f1 47 be
       0.108057484 0.1453702 0.02215824 -0.19525637
000340 e3 fd 17 3e 9f e5 1b be 6e d4 bd 3c 2a 29 c5 3d
       0.14842944 -0.15224312 0.023172583 0.09626992
000350 c8 ad b8 3d 47 67 16 be ad 99 12 bd 6d 17 b2 bd
       0.09017521 -0.14687835 -0.035791088 -0.08695874
000360 97 8b 0c be 73 25 a2 bd 3f c1 ef 3c d4 0d bc bd
       -0.13725124 -0.07917299 0.029266952 -0.09182325
000370 57 f7 e5 3d 1f 28 4f 3d 06 f6 dd 3c d5 a3 c3 bc
       0.11228817 0.05057537 0.027094852 -0.023881832
000380 97 2d ff 3d dc cb d6 3d de 12 b3 3d dc 27 15 be
       0.124598674 0.10488102 0.08743833 -0.14565986
000390 2c f3 c1 bd e1 37 c1 bd e0 c8 cb bb 7b 02 f3 bd
       -0.094702095 -0.09434486 -0.0062190145 -0.118657075
0003a0 e9 6c 95 bc 91 73 61 bb a0 44 4c bd f2 aa 4c bf
       -0.018240409 -0.0034401158 -0.049870133 -0.7994834
0003b0 94 08 cb bc 8c 49 89 3d 60 29 33 be b7 12 41 3d
       -0.024784364 0.06703481 -0.17496252 0.04713699
0003c0 31 39 59 bd 34 6e 9d 3c e8 68 2f 3e db 3c 9b 3b
       -0.053033058 0.019217588 0.17129862 0.004737479
0003d0 1a ae 88 3c af f1 61 bd 77 c2 8e bb 7d 21 41 3d
       0.01668458 -0.055162128 -0.004356678 0.047151078
0003e0 3b bb 19 bd bd 7b 55 be e1 90 7a 3e 55 ea b5 bd
       -0.037532073 -0.20847984 0.2446933 -0.08882586
0003f0 e3 51 ec bd f8 f2 e6 bd 9a 55 c2 3b a7 a1 0e 3e
       -0.11539056 -0.11276811 0.0059306147 0.13928853

encoder.0.bias f4 [20]
000000 6e 9d 44 be a7 24 1b be f4 76 76 3e 5b df 23 3d
       -0.1920068 -0.151507 0.24068815 0.04000793
000010 b6 32 8b 3d 3b 04 15 3e a9 76 ac 3d b3 68 4b be
       0.06796782 0.14552395 0.0842107 -0.19864158
000020 1f 54 d9 bd 52 d1 9b bd 45 12 15 3d 74 97 c6 3d
       -0.10611748 -0.07608284 0.036394376 0.09696856
000030 b2 c2 ef bd de ac cd 3d 74 c4 13 3c 98 a4 a6 3d
       -0.11707057 0.100427374 0.009019006 0.081368625
000040 ca b1 4d be 10 f4 c5 3e 98 57 a4 be 16 8b 06 be
       -0.20087352 0.38662767 -0.3209808 -0.13138995

encoder.3.weight f4 [10, 20]
000000 33 da 29 be 20 83 53 3e d0 89 3a 3c 91 91 0c bd
       -0.16587143 0.20655489 0.011385396 -0.03431851
000010 7a 86 b7 3b da 63 b2 bd 4e c0 41 be b8 68 80 3d
       0.0056007477 -0.087104514 -0.18921015 0.062699735
000020 87 96 11 bd 40 28 d6 3d 79 c3 36 3d e1 1c 15 be
       -0.035543945 0.10456896 0.04462001 -0.14561798
000030 b5 c9 35 3e 16 4e 48 3e 80 d8 aa 3d d3 8e a7 3d
       0.17752726 0.19561037 0.08342075 0.081815384
000040 5c 92 38 be 82 05 f4 3e 36 86 32 bf 5f 58 46 be
       -0.18024582 0.47660452 -0.6973604 -0.19369648
000050 f5 eb f6 3b 80 20 17 3d 3f c0 e7 3f 8b 2f 08 3e
       0.0075354525 0.03689623 1.8105544 0.13299386
000060 22 f0 09 3e 3b 5d 98 c0 9a 06 56 bb 8d 89 25 3e
       0.1347051 -4.7613807 -0.0032657743 0.16165753
000070 9d 27 fb b9 d4 85 46 be 43 30 64 3c b1 ad eb ba
       -0.00047903965 -0.19386989 0.013927522 -0.0017980841
000080 8b 58 09 bb 82 29 92 c0 4d 4c 98 39 7b 42 1f 3e
       -0.0020957317 -4.567567 0.00029048548 0.15552704
000090 9a 85 6a 3e cc b8 be 3d 86 5f 3d 3e 10 4b 59 be
       0.22902527 0.09312591 0.1849347 -0.2122004
0000a0 c2 a9 64 be 0c 20 02 3e de 05 73 bd ce cd 3e be
       -0.22330382 0.12707537 -0.059331767 -0.18633196
0000b0 07 02 90 3e dc 10 66 3d 3d 47 17 3f 83 87 eb 3d
       0.28126547 0.056168422 0.59093076 0.11500456
0000c0 7f fc bc bd 82 e0 ac bd d0 9a e4 bd 60 88 9a 3d
       -0.09227847 -0.08441259 -0.11162341 0.07545543
0000d0 6d c6 40 3d 74 d9 4e be 71 4c 6c bd 41 13 40 be
       0.047064234 -0.2020014 -0.057690088 -0.18757345
0000e0 7a bc 03 3e a7 c8 ad 3e a1 70 c6 be 38 c4 d6 3d
       0.12864867 0.33942148 -0.38757804 0.104866445
0000f0 d7 5f 80 3d c5 be 51 be 46 f1 99 3d 2b 86 93 bd
       0.0626828 -0.20482929 0.075167224 -0.07203325
000100 c0 da 0a bb b7 65 8a bc 23 e0 b7 3c eb 07 61 3e
       -0.0021187514 -0.016894205 0.022445744 0.21975677
000110 65 82 7a 3d 7b f9 70 3d e3 b4 ff c0 ae 5d bf bc
       0.06115951 0.058831673 -7.990831 -0.0233601
000120 18 3a 1a c1 9c 7c de bb 2e b0 00 c1 42 9d fa 3a
       -9.639183 -0.006789757 -8.043013 0.0019120353
000130 56 79 3a 3e 83 4f 52 3f 9b 39 60 be 44 1f a0 bd
       0.18210348 0.82152575 -0.21896975 -0.078184634
000140 03 52 84 3e 10 6a 1e 3d 7c 38 79 3e fc ab d9 3d
       0.2584382 0.038675368 0.24337953 0.106285065
000150 c0 40 2c 3f 8c 7c 68 3d 8e 00 72 3f ce bc fd 3d
       0.672863 0.056759402 0.94532096 0.12389527
000160 46 a6 86 3e be 0a fd 3d 1e 9c 9c 3e 4f 79 3c bc
       0.26298732 0.123555645 0.30587858 -0.011503532
000170 c2 6c b4 3e 29 0c af bd a1 e1 72 3e f7 fa 4f be
       0.35239226 -0.08547241 0.23718883 -0.20310579
000180 7b 1c 0a 3e fa 56 4a be 7f b9 3f bf 14 83 6b bd
       0.13487427 -0.19759741 -0.7489242 -0.057498053
000190 c9 70 ed bc 60 59 ef 3d 06 b5 81 bd 27 4d e3 bc
       -0.028984444 0.11686969 -0.063333556 -0.02774675
0001a0 e4 e9 bb 3e ad 49 0d 3e c8 17 be be 1f e1 40 bc
       0.36701882 0.13797636 -0.3712752 -0.011772423
0001b0 7d 5c 32 bb e6 bc 53 be cd 87 c4 bd 6f 92 ca bc
       -0.0027215772 -0.20677528 -0.095962144 -0.024728028
0001c0 49 cc 88 bc ce a4 aa be af 7c 59 bd fa fa c3 3e
       -0.016698973 -0.3332886 -0.053097423 0.38277417
0001d0 7f 3c 56 bd 21 d7 95 bd c6 ff 4a bf 98 2e d5 3d
       -0.052303787 -0.07316423 -0.7929653 0.10409278
0001e0 53 1f 2d 3d 88 a5 1c bd 64 cd 78 3d bf 95 b6 3d
       0.0422662 -0.0382438 0.06074275 0.089152806
0001f0 2d e7 39 3f c6 86 85 3d 75 e9 48 3f 93 f8 06 3e
       0.7261837 0.065198466 0.7848123 0.13180761
000200 9c 7d 4e bd 91 16 43 3e f1 8f fc 3c 13 22 d8 bc
       -0.05041276 0.19051577 0.030830355 -0.026383435
000210 31 64 98 be bd ce 54 bd e5 c9 0d be fe 53 39 be
       -0.2976394 -0.051954973 -0.13846548 -0.18098447
000220 de 18 00 be e5 db a5 be f5 4d 81 bf ee b1 0a 3e
       -0.12509486 -0.3239433 -1.0101916 0.13544437
000230 bb 57 6f 3c cc 31 5b bd 1f 0c e7 3d 59 df 18 3e
       0.014608319 -0.053514287 0.11281609 0.1492895
000240 e6 aa 2f be e7 ac 90 3f a1 99 38 3d 01 7f 14 3e
       -0.17155036 1.1302766 0.045068387 0.14501573
000250 20 14 84 bc 80 8c 4c 3e cf 29 8b bb 87 58 2d be
       -0.016122878 0.19975471 -0.0042469273 -0.16928302
000260 1d 75 30 3d d7 fb 5c bf 84 57 6f 3b de ce 76 3d
       0.043080438 -0.8632178 0.003652067 0.060255878
000270 af 70 47 be 62 de dd bd 7b 87 f6 be a2 c6 24 3e
       -0.19476579 -0.10833432 -0.48150238 0.16091397
000280 58 09 2a c1 e4 4a f1 3d ad 62 96 3e fb 3e e1 bc
       -10.627281 0.117818624 0.2937216 -0.027495852
000290 a2 7b e9 bc 0a b2 0a bc c9 20 99 3d 28 54 b5 3d
       -0.028501336 -0.008465299 0.074769564 0.08853942
0002a0 7a 25 f5 c0 ad 6d 1c be ac 4c 91 bd 65 d1 2a 3e
       -7.660825 -0.15276213 -0.07094702 0.1668144
0002b0 f1 9d a0 3d c7 ad 7a 3d 03 ca 1a 3d 49 54 c9 bc
       0.07842625 0.061200883 0.03779031 -0.024576323
0002c0 22 b1 8d bd 91 f4 82 bf 5f 30 63 bf c0 c9 af bc
       -0.06918551 -1.0230886 -0.88745683 -0.021458507
0002d0 99 7c ab 3d 50 6a 08 3e 72 04 31 bd 8f 28 68 be
       0.083733745 0.13321805 -0.04321713 -0.22671722
0002e0 55 05 c2 be 95 6c 19 bd 34 90 f8 be 88 07 0d be
       -0.37894693 -0.037457068 -0.48547518 -0.13772404
0002f0 35 58 d3 bd 63 dc 73 3d 02 85 da 3e 01 21 2d be
       -0.103195585 0.05953635 0.42679602 -0.16907121
000300 a4 61 b2 bd 65 d6 00 3e d8 08 06 3e 9c 12 3a 3d
       -0.0871003 0.12581785 0.13089311 0.045427904
000310 4c 0c 2e be 5d 7b 1c be d0 89 f5 be 58 f8 f2 3d
       -0.16996878 -0.15281434 -0.47956705 0.11863774

encoder.3.bias f4 [10]
000000 bf 57 15 3e 7d 7d 83 3b 69 fa ce 3e 93 15 65 3d
       0.14584254 0.004012762 0.40425423 0.055928778
000010 63 e4 d7 3e fc a5 92 3e 89 ab 7a 3e 0e bf 16 3d
       0.42166433 0.2864226 0.24479498 0.036803298
000020 4a 7b 25 3e cd 1c c7 3e
       0.16160312 0.3888916

encoder.5.weight f4 [5, 10]
000000 59 66 36 3e 59 5c 12 3f f1 de ce 3f bb 8c 10 c0
       0.1781248 0.5717216 1.6161786 -2.2585895
000010 0e bf 31 3f 52 94 6b be 19 1b 1b be 76 4b f0 bd
       0.6943215 -0.23005798 -0.15147056 -0.11733143
000020 68 f9 2d 3f 28 0d 6c 3f 05 a2 b0 3d 74 b7 7c 3f
       0.6795869 0.92207575 0.08624653 0.9871743
000030 f9 dc 9e bd 2c 28 be 3d bd aa 87 3e 35 ad 2b 3f
       -0.07756991 0.09285006 0.2649745 0.6706117
000040 8c 20 7e 3e 27 af 85 be 03 5b e1 3d 8c e5 a0 bd
       0.24817103 -0.26110193 0.11003687 -0.078562826
000050 ac 23 a3 3e d9 a4 c3 3f a5 7a a8 3f 80 ff ea 3d
       0.31863153 1.5284683 1.3162428 0.11474514
000060 23 35 c7 be 89 64 cb 3e c3 a1 88 bd c1 7c 32 be
       -0.38907728 0.3972514 -0.066714786 -0.17430402
000070 97 07 41 40 f5 c8 44 3f 0f 94 96 3e 97 bd 14 bf
       3.0160882 0.76869136 0.29409835 -0.5810179
000080 4d 93 8b 3f 83 ae 16 3f 5b a4 43 3e a3 09 9a be
       1.0904328 0.58860034 0.19105665 -0.30085477
000090 70 ef 5f 3f 75 a0 9a bd a6 df c4 3f cf ec 65 bd
       0.8747473 -0.07550136 1.5380752 -0.05613404
0000a0 95 55 75 bf ea 22 f6 3f 3c cc 1d 3f 48 60 b6 3e
       -0.9583371 1.9229405 0.6163976 0.35620332
0000b0 e8 d4 29 3e 34 f1 e5 be 6c 35 f9 bd 14 85 58 be
       0.16585124 -0.44910586 -0.121683925 -0.21144515
0000c0 4e 0a 93 be bd 03 f4 bd
       -0.287188 -0.119147755

encoder.5.bias f4 [5]
000000 3b 3c ad bd ad 18 35 be dc 11 47 be fc a4 20 bd
       -0.08458754 -0.17685194 -0.19440407 -0.03921984
000010 3d 29 17 3f
       0.590473

decoder.0.weight f4 [10, 5]
000000 8c 66 c2 be 3e 4b 56 3e 13 61 02 be 70 23 b4 3c
       -0.37968862 0.2092714 -0.12732343 0.021989554
000010 83 6a 37 3d b5 63 ec bc fc bc 36 bf f3 9e dc be
       0.044779312 -0.028856138 -0.7138212 -0.4309002
000020 d2 a2 1c 3f 9f e9 85 bf 32 ae 54 3d f8 15 a1 be
       0.61185944 -1.046192 0.051923938 -0.31462073
000030 53 a6 5b 3f 36 7f 9b 3e 91 ae f8 be 30 b5 9f be
       0.85800666 0.30370492 -0.48570684 -0.31192923
000040 86 e4 db be 76 a6 a6 3e dc d5 c9 bd f0 1f c4 be
       -0.42947787 0.32548875 -0.098552436 -0.38305616
000050 42 1d 96 be 57 49 a4 3f 06 94 49 3e a0 51 58 3f
       -0.29319197 1.2834882 0.19685373 0.8449955
000060 f4 73 17 bf 41 6a 14 3f dd c7 2b 3f d7 83 17 bf
       -0.59161305 0.5797463 0.6710184 -0.59185547
000070 83 60 88 bd 66 df d9 3c e4 1b b2 3c 8b 10 a3 be
       -0.06659033 0.026595782 0.021741815 -0.3184856
000080 88 f8 2b 3f cc c1 e5 bd 51 98 a8 3e 48 8b 68 3f
       0.67176104 -0.112186044 0.32928708 0.90837526
000090 67 19 2e be 7d 7b 1f 3f 31 e3 a4 3e 64 73 47 bf
       -0.17001878 0.62297803 0.32204583 -0.7791045
0000a0 78 42 d6 3d 48 2e a4 be f0 16 f4 bc 5a 30 c4 be
       0.10461897 -0.3206656 -0.029796094 -0.3831814
0000b0 2e 67 94 be 1f ad d8 3e ee 47 c3 3f c8 c5 a0 3e
       -0.2898497 0.4231958 1.5256326 0.31400895
0000c0 81 c0 a9 be 5b 21 ac bf
       -0.3315468 -1.3447679

decoder.0.bias f4 [10]
000000 0d 01 db be 7a 6b 39 3f 7b 3b 15 bf c2 1c ab be
       -0.4277424 0.7242962 -0.58293885 -0.33420378
000010 26 4b 84 3e 49 54 64 3e 99 96 64 be 76 87 e5 be
       0.25838584 0.22297777 -0.22323073 -0.4482991
000020 67 89 b0 be 6b e4 35 3f
       -0.3447983 0.71051663

decoder.2.weight f4 [20, 10]
000000 42 0c 68 be b8 2e b4 3d be 61 25 3e e8 52 ae 3d
       -0.22660926 0.087979734 0.16150567 0.08511907
000010 12 a7 00 be ab 06 92 be 3a b1 04 be e0 c4 b1 bc
       -0.12563732 -0.28520712 -0.12958232 -0.021700323
000020 ec 16 cb 3d 57 74 12 be 11 0d b2 3d 97 96 83 3b
       0.099164814 -0.14302193 0.086938985 0.0040157544
000030 5b 47 c4 3d f8 32 71 be bc 69 37 3e 34 6b c7 3e
       0.095839225 -0.235546 0.17911428 0.38948977
000040 df e8 85 bd 9f 78 96 3e 84 fc b9 3d 8e 24 2b bf
       -0.06538557 0.29388902 0.09081367 -0.66852653
000050 74 f9 27 3e 41 f1 ea be 1d 4f a9 3e 90 3f 80 bd
       0.16403753 -0.45887187 0.3306817 -0.062621236
000060 80 84 a1 3e 77 d5 8c bf 41 a8 90 3d 60 32 05 3f
       0.31546402 -1.1002644 0.07063342 0.5202999
000070 d6 9e 7e 3e 4f 73 0c 3e 0d 78 72 be c0 4f 21 be
       0.24865279 0.13715862 -0.23678608 -0.15753078
000080 3b 7f 1e c0 c0 2c 2d be 4b 60 82 be 2d c5 64 3f
       -2.4765155 -0.16911602 -0.2546409 0.89363366
000090 33 a5 e6 be 1e 16 3b bf 68 51 fa bd fb 17 12 bd
       -0.45047912 -0.73080623 -0.12222558 -0.0356674
0000a0 7c 39 e5 3d c5 47 d6 bc 02 11 8d bd 2e a0 83 be
       0.11192605 -0.02615727 -0.068880096 -0.25708145
0000b0 63 21 78 be 5b a2 04 bf e8 ef 19 3d bb 48 c8 be
       -0.24231486 -0.51810235 0.037582308 -0.3911799
0000c0 c0 e6 ee 3c 17 30 5b 3f 60 d4 3d 3d ba 19 8c 3f
       0.029162765 0.85620254 0.046345115 1.0945351
0000d0 ad 85 37 be 22 26 59 be 9b f2 f3 3e 0b 72 45 be
       -0.17922087 -0.21205953 0.4764603 -0.19281785
0000e0 cb b0 2f bf e8 cf 54 bd ad ad 40 be 18 19 f6 3e
       -0.6862914 -0.051956087 -0.18816252 0.4806602
0000f0 61 d6 97 3e 14 c6 69 bd 36 96 22 bf b4 35 90 be
       0.29655746 -0.057073668 -0.63510454 -0.28165972
000100 ab db c6 be 7d 9d f1 3d a8 cf 96 bc be 80 05 3f
       -0.38839468 0.11797617 -0.018409565 0.5214957
000110 59 ab 80 3e 77 e7 8b 3e e7 77 69 bc 6c ea 76 be
       0.25130728 0.2732503 -0.014249778 -0.24112862
000120 3d e8 83 3e a0 18 00 3e 47 a6 07 3f 0d f9 54 bf
       0.2576312 0.12509394 0.52988094 -0.8319252
000130 e4 f9 df 3e 84 f0 84 bf 48 45 3d 3d 54 00 a2 3e
       0.4374534 -1.03859 0.04620865 0.31640875
000140 27 da 92 3e 12 19 04 40 24 c5 32 be 65 24 90 3e
       0.28682062 2.0640302 -0.17458016 0.28152767
000150 8a 18 ec bd 06 34 d4 bd ae 27 59 3e c6 ac c1 3c
       -0.11528118 -0.10361485 0.21206543 0.023641955
000160 98 69 a9 3d 86 24 68 3b 7f 51 82 3d 87 5c 8d be
       0.082720935 0.003542216 0.063632004 -0.27609655
000170 27 6a 56 3e 0d 7f 8c 3e e7 3b 18 3f d9 2a 56 bf
       0.20938931 0.27440682 0.59466404 -0.8365913
000180 44 3d 83 be 05 77 f0 be 81 ff 9b 3e 0f 10 fa be
       -0.2563268 -0.46965805 0.30468372 -0.48840377
000190 d2 4c 10 3e 78 41 2b 3e 85 ca 64 c0 16 22 48 3e
       0.14091805 0.16724193 -3.5748608 0.19544253
0001a0 cb e5 5f be c3 03 38 3f 71 c3 af be 1f 64 2d bf
       -0.21865003 0.7188074 -0.34328797 -0.677309
0001b0 83 bc 32 3e 2a 63 86 3c 7c 51 ae 3d ba e6 f5 bd
       0.17454724 0.016404707 0.08511636 -0.12006898
0001c0 f7 86 99 be bc dd 82 be 2e 16 57 be 02 30 36 be
       -0.29985783 -0.25559795 -0.21004555 -0.17791751
0001d0 88 15 66 be ca df 67 3e a0 8e 61 bd f7 0a 88 be
       -0.22469151 0.22643963 -0.05506766 -0.26570866
0001e0 b6 36 a8 bd 0c 38 e5 c0 21 79 b8 be 46 e7 24 3e
       -0.0821356 -7.1630917 -0.36029914 0.16103849
0001f0 20 29 3a be ec 69 17 3e 1a 54 21 3f bf e3 b5 3b
       -0.1817975 0.147865 0.63018954 0.005550831
000200 4a 4f 75 3e 0d ec 0b be 30 5c e2 3c e4 e8 0b bd
       0.23956028 -0.13664265 0.027631849 -0.03415765
000210 c6 79 13 3f fc fc e1 3d 33 c3 65 be bf e2 2a 3f
       0.57607687 0.11034581 -0.22437744 0.6675224
000220 63 96 23 be ab 5c ff 3c 65 c9 ff 3d 9a 00 e1 3e
       -0.15975337 0.031172117 0.12489585 0.4394577
000230 e9 be f8 3d 95 5c 3f 3d 6b b8 e1 bb 9c e5 9c 3d
       0.12145788 0.046719152 -0.0068884394 0.07660982
000240 ac b8 85 3e 0f 48 f0 3e ba 73 35 bd 6f d2 ce 3e
       0.26117456 0.46929976 -0.04429982 0.40394923
000250 04 65 a2 3d d7 47 51 bf 9d 0f 81 be c8 e6 12 bf
       0.079294235 -0.81750244 -0.25207224 -0.57383394
000260 e3 da 91 be 9c 7a cf 3d 3d e1 cd 3e e1 4a 0f 3e
       -0.2848731 0.10130808 0.40210906 0.13993408
000270 35 63 5d 3d a2 a6 1c be 54 b2 d5 3d 04 5b bb 3e
       0.05404969 -0.1529794 0.10434404 0.36592877
000280 19 7a 5a be 2e b1 03 40 fc a2 a1 3f 28 f4 8a be
       -0.21335639 2.0576892 1.2627864 -0.271394
000290 ff 25 96 be 55 f8 77 3e 63 bd 1a be 02 f7 9e be
       -0.29325864 0.24215825 -0.15111308 -0.31047827
0002a0 af 82 99 3e 04 2d 51 bd 17 ba 93 be 83 29 10 3e
       0.29982516 -0.05106832 -0.28852913 0.14078335
0002b0 df db c1 3e 42 c9 71 be 3d 24 2e bf 7f a8 0c 3f
       0.3786306 -0.2361193 -0.68024045 0.54944605
0002c0 45 0c b0 3d f1 ab b4 3e ed 0b 71 be 11 7f c3 3d
       0.0859609 0.3528743 -0.23539706 0.0954572
0002d0 06 71 f5 bd bd 8a 29 be 20 12 5c 3e d8 ab 9f be
       -0.11984448 -0.1655683 0.21491289 -0.31185794
0002e0 8b c8 11 3e 79 10 f4 be f0 3f 8b 3c fa 85 a0 3e
       0.14236657 -0.47668818 0.016998261 0.31352216
0002f0 d0 b2 d3 bc 48 4d 9b 3d ff d2 94 3e 14 da d2 3d
       -0.0258421 0.075830996 0.29067227 0.10295501
000300 0e 9b 4e 3e cf 18 89 3e a4 7c 64 be a4 68 04 3e
       0.20176336 0.2677674 -0.22313172 0.12930542
000310 ac 0e 9d be 9c 42 5d be f1 a9 9f 3e c8 15 80 3d
       -0.30675256 -0.2160744 0.31184343 0.062541544

decoder.2.bias f4 [20]
000000 22 27 b7 bd 83 0c 6a bd e2 06 32 bf 56 a4 d2 3e
       -0.08943011 -0.05714084 -0.6954175 0.41141003
000010 77 50 ec 3d 30 d3 c3 be 6d 5c a6 be 1f c4 20 be
       0.11538785 -0.3824706 -0.3249239 -0.15699814
000020 e0 cf 4d be fc 98 2c 3f 37 18 a4 3e 53 4a 98 be
       -0.2009883 0.67420936 0.32049724 -0.29744205
000030 0f da de bc 1e 60 17 bf a1 5e f5 bd 59 02 c4 be
       -0.027203588 -0.5913104 -0.1198094 -0.3828304
000040 a1 3e 81 bc 8a 7d ad be 2c 54 e9 bd 5e 18 3c be
       -0.015776934 -0.3388484 -0.11393008 -0.1836867

decoder.5.weight f4 [29, 20]
000000 d8 d9 8f bd c7 ea f1 3c f7 5b 1f 3f fe 77 3a bd
       -0.07023972 0.029530896 0.622497 -0.04552459
000010 0e fe e3 bd 7a e2 44 3d 21 67 0a 3d 7a 08 2e bf
       -0.111324415 0.048067547 0.033789758 -0.67981684
000020 47 ba 50 be 4e ea 47 be f4 80 b5 bc 20 4e 6b 3d
       -0.20383559 -0.19522974 -0.022156216 0.057447553
000030 79 47 8c be 6f dc 93 3d 29 90 dc 3c cc 3a ab be
       -0.2739828 0.07219779 0.02692421 -0.33443296
000040 01 ea 18 be 21 e2 a7 bd ae dd 11 be f7 2f 28 be
       -0.14933015 -0.081974275 -0.1424472 -0.16424547
000050 17 3d f6 bd 72 58 3a 3b ac 82 35 bd 43 e2 cd 38
       -0.12023371 0.0028434065 -0.04431407 9.817306e-05
000060 f8 d7 af 3c 7e f9 c6 bc fb a1 4b bb 73 d0 a4 3e
       0.021465287 -0.024288889 -0.003107189 0.32190284
000070 f5 28 c5 bc f7 9b 72 bd 6c ed 83 bc f4 c7 ba 3d
       -0.024067381 -0.05923077 -0.016104423 0.09120169
000080 1e 93 a2 bc 01 ea 53 bb 45 58 b1 bb fd 59 00 3c
       -0.019845542 -0.0032335522 -0.005412134 0.007833955
000090 1b 12 e2 3b e2 34 b7 bb 0d 35 b5 3c 90 15 53 3e
       0.006899131 -0.005591021 0.022120023 0.20613694
0000a0 3e 1e 42 3e 6b 1b 34 3c ec 02 5b 3d 4e fa 14 3d
       0.18956849 0.010992865 0.053469583 0.03637152
0000b0 12 af af 3e 02 e5 1c bd a6 bc 9c 3c 2f 1c 8a bf
       0.34313256 -0.038304336 0.019132923 -1.0789851
0000c0 74 49 8a bd 6f f1 8d be d6 9d 98 bd 5a 40 30 be
       -0.06752291 -0.27723262 -0.0745198 -0.17212048
0000d0 a2 de 8f 3d 79 7d 77 be 10 a6 24 3b 88 74 89 3e
       0.07024886 -0.24168958 0.0025123395 0.2684672
0000e0 d3 db 6c 3e 96 2e 3c bd 66 1b da bc c7 2f 53 be
       0.23130731 -0.045942865 -0.026624393 -0.20623694
0000f0 f8 e2 24 3e 28 cf ed 3b a2 71 3f 3f 48 dd 79 3d
       0.16102207 0.007257361 0.74782765 0.061002046
000100 d9 da b7 3e 7c e8 08 be 4b ef dc be d4 5b 9c 3f
       0.35909155 -0.13369936 -0.43151316 1.2215524
000110 8e a5 74 be d3 08 9c bf 70 26 4c bb fa ec b6 bd
       -0.23891279 -1.2190193 -0.003115084 -0.089319184
000120 30 8d 5c 3d da 8c b2 3d 39 19 22 bd 54 96 81 bd
       0.053845584 0.087182716 -0.039574835 -0.06327501
000130 7f 7c c5 3e 1c 18 e4 3a 18 7a 08 3f 44 b7 10 3e
       0.38571545 0.0017402205 0.533113 0.1413241
000140 62 3a 9c bd 51 44 1a bb b5 04 c9 3b a2 33 4e bb
       -0.07628323 -0.0023539255 0.0061345943 -0.003146388
000150 27 68 49 3c 5c 51 0f bc 1b 28 d1 bb 26 2c 37 be
       0.012292898 -0.008747425 -0.006382955 -0.17887935
000160 67 48 a3 bc 0b 46 59 3d a6 f4 6f 3b 20 73 55 3e
       -0.019931985 0.053045314 0.0036614328 0.20844698
000170 44 f8 8b 3b d5 eb 11 3d 75 60 4d bb 65 b4 96 bc
       0.004271539 0.035625298 -0.003133801 -0.018396566
000180 92 71 27 3c 00 3b a8 3b 19 21 2a 3c 8c 8c ff 3d
       0.010219948 0.0051339865 0.010383868 0.12477979
000190 38 e1 5d 3d f2 bd c7 bb 45 dd 84 3c ab e9 ae 3b
       0.054169863 -0.0060956413 0.01621879 0.005337914
0001a0 2b b5 38 3b e6 a8 09 bc 21 41 44 bc cc 4c 4b be
       0.0028184156 -0.008402085 -0.011978419 -0.19853514
0001b0 c7 47 89 bc 47 cf 51 3e 84 1e 11 bc 44 62 5f be
       -0.016757859 0.20489226 -0.008857373 -0.21814829
0001c0 91 08 9f 3d a3 bc 93 3d 8d ea 20 bc 1e 0b b5 bc
       0.07765306 0.07213714 -0.009821546 -0.022100028
0001d0 b7 14 5f 3d b2 d4 4f 3c 8a 1c c6 3c 10 c7 9a 3d
       0.054463115 0.012684988 0.02418353 0.075574994
0001e0 b8 9d b3 3c 88 60 4a b8 f3 fc b3 bb 78 7a 9c 3b
       0.021925792 -4.8250455e-05 -0.0054928004 0.0047753416
0001f0 17 0a 20 bc 01 6a 91 3b b1 9b 43 3b b0 46 6b be
       -0.009768031 0.0044376855 0.0029847438 -0.22976184
000200 d3 90 c5 bb ba 4b fa bc d2 3e b3 3a a8 11 89 3d
       -0.0060292273 -0.030553687 0.0013675338 0.06692821
000210 8f 51 8d bc 34 ce 91 bb 07 af b2 3b 0d 95 bd bb
       -0.017250804 -0.00444963 0.005452994 -0.0057855905
000220 54 a0 3e b8 3c 53 05 3b 81 92 10 3b 34 f8 e3 3d
       -4.5448847e-05 0.00203438 0.002205998 0.11131325
000230 d8 77 00 be 97 49 e8 bb 7b 38 9f bc 13 72 a2 3b
       -0.12545717 -0.0070888507 -0.019436112 0.0049574464
000240 3d b0 43 bd 97 53 ae ba 93 e4 50 bc 3b 3b b7 3d
       -0.047775496 -0.0013300058 -0.012749809 0.08946844
000250 0f 24 db 3b 97 e1 27 3d 3b 4d b5 bb 10 c9 ec bd
       0.006687648 0.040986624 -0.005532888 -0.11561787
000260 52 72 fa 3c 45 cf 21 3c b6 16 34 bb c1 21 6c bc
       0.03057209 0.009876077 -0.0027479357 -0.014412344
000270 95 cb b3 3c 19 cc 11 3c 24 56 61 3b 76 22 1f 3e
       0.021947661 0.008898758 0.003438362 0.1554049
000280 7c 20 6b bd 07 0f f5 3d 32 6b ec be 51 ca 6a 3d
       -0.057404026 0.11965757 -0.46175534 0.05732185
000290 ce 56 b8 3f 6a 98 a3 bd 13 d6 95 bd 04 40 bb be
       1.4401491 -0.07988055 -0.07316222 -0.36572278
0002a0 9a 52 fd bc 8b e7 7e be 84 22 a1 3d d8 b7 60 be
       -0.030923177 -0.24893014 0.078679115 -0.21945131
0002b0 9a ea 6b bc 02 99 76 bc 1a 22 a2 3d e3 cb b8 bd
       -0.014399195 -0.015051128 0.079166606 -0.09023263
0002c0 2d 9c 09 3e b6 dc 0c 3d 9a 65 ea 3d 68 3f 4e 3e
       0.13438483 0.034390174 0.1144516 0.20141375
0002d0 6c 00 1b bd c4 5f 1c bc 8e 2a 8f 3e 74 66 32 bc
       -0.0378422 -0.009544317 0.27962154 -0.010888685
0002e0 83 f6 19 be 37 5b 2e 3d fa af 30 3d fc c4 2c bf
       -0.15035443 0.042567458 0.043136574 -0.67488074
0002f0 e8 7c 81 bb e3 d4 dc 3d a2 00 30 bd cd bd 25 be
       -0.0039516576 0.107827924 -0.042969353 -0.16185685
000300 a2 e7 df bc ff 09 ad bc 3a 42 f9 ba c7 61 2c 3d
       -0.02733213 -0.02112293 -0.001901693 0.042085435
000310 91 b6 18 bd 6a 0e 6d bc ca 89 78 bd c0 06 fe 3c
       -0.037283484 -0.014468769 -0.06067828 0.031009078
000320 86 41 31 3e f4 d3 fe bd 0c c2 0e 3e a1 60 84 3b
       0.17310151 -0.124427706 0.1394121 0.0040398394
000330 a4 27 5f 3f b3 23 78 3f fb 77 77 be db ac 84 3e
       0.8716986 0.9692947 -0.24166863 0.25913128
000340 94 1c b1 be 65 3c d8 3d fa e3 5b bc 94 1a 06 3e
       -0.34592116 0.10558394 -0.013421053 0.13096076
000350 f5 24 e7 3e cb df 50 bd dc b7 80 bd 62 3b d9 3f
       0.45145383 -0.050994676 -0.062850684 1.6971247
000360 98 e9 ca be df 0a c7 be 62 f1 b7 bd 6c 96 19 3e
       -0.39631343 -0.3887548 -0.08981587 0.14998788
000370 02 6d 92 bd 13 04 49 be f9 a2 80 be c7 4f 02 3d
       -0.07149698 -0.1963046 -0.25124338 0.031814363
000380 e8 48 04 c0 c9 02 33 3e ad 7e b9 bd 64 13 8a bf
       -2.0669498 0.17481531 -0.090573646 -1.0787168
000390 12 4f a0 bd a2 e6 97 be c9 be 0f 3d 44 9a a7 3d
       -0.078275815 -0.29668146 0.035094056 0.08183721
0003a0 e3 e7 39 3d 35 4b 60 3d 2a 03 23 be 0c 7b 16 3e
       0.04538716 0.054759223 -0.15919176 0.14695376
0003b0 57 7e ae 3d f3 13 22 bc 10 80 ca 3d 80 c5 fb 3d
       0.08520191 -0.009892452 0.09887707 0.122935295
0003c0 8c 1d 8d bd 15 ef 49 bf 28 c7 05 3d ff 52 78 bb
       -0.06890401 -0.78880435 0.032660633 -0.0037891266
0003d0 5a 9f 06 40 22 6a b5 be c5 27 71 3e 95 59 ca 3d
       2.103476 -0.35432535 0.23550327 0.09880368
0003e0 43 c4 02 be fb 6a 32 3d f6 84 06 ba f4 1b 18 3e
       -0.1277018 0.043559056 -0.0005131507 0.14854413
0003f0 e5 1d 11 be 40 88 ad 3d 97 1f 20 bf 8b 4d f3 be
       -0.1417156 0.08473253 -0.625482 -0.47520098

decoder.5.bias f4 [29]
000000 0e 90 4c 40 a1 63 9c 3f c3 17 1c 40 77 e5 90 bf
       3.1962924 1.2217904 2.4389503 -1.1320027
000010 9f 48 97 3f e6 4f 86 bf 03 73 88 bf aa b3 a5 3f
       1.1819037 -1.0493133 -1.0660099 1.2945454
000020 71 a0 4f 3e 47 ba f0 3e 42 c7 70 bf 5d de 6d 3f
       0.20276047 0.47017118 -0.94054043 0.92917424
000030 24 dc 1e bc e8 4f 15 3f 05 a6 d6 be 22 4f 45 be
       -0.00969604 0.5832505 -0.41923538 -0.19268468
000040 49 69 7c 3f 44 ea 1a 3f c7 8a 89 3e 68 1a a5 3e
       0.9859815 0.6051371 0.2686369 0.3224671
000050 eb 78 7e 3e 9a 5e 0c 3d 83 73 30 3f cc c3 24 be
       0.24850814 0.034269907 0.68926257 -0.16090316
000060 f3 3b 0e 3f 4a 92 f9 be 9e 99 94 bf f4 d0 48 bf
       0.55560225 -0.48744422 -1.160938 -0.7844384
000070 31 7f bb c0
       -5.8592763
