aeacus/weights/ae.pth (torch, 10945 bytes, 12 tensors)

encoder.0.weight f4 [20, 29]
0.11808249 0.09150602 -0.0829693 -0.21120863 0.113803685 0.08664572 -0.009625365 0.08253894
0.07663662 0.11456372 -0.21336307 -0.040480178 -0.17494877 0.073355064 0.09796301 -0.042165093
-0.073850065 -0.20939772 0.0035661252 -0.1633477 -0.111737296 0.05224905 -0.0015077497 -0.1315852
0.0719164 -0.089057975 0.03383229 0.058054946 0.0851837 -0.052615594 0.061010107 0.095090784
-0.16013347 0.025104301 -0.1615727 0.122057915 0.15579413 -0.18744898 0.043857817 -0.1392226
0.080821514 0.09493102 0.02018239 0.02686512 0.13359137 -0.031772677 -0.078316376 0.0094348155
-0.076413825 0.15199289 -0.17778046 -0.028459677 -0.05071946 -0.113550626 -0.011524924 -0.1630333
0.106017634 0.07603472 0.30099717 -0.09132471 0.08508599 -0.0016472263 -0.08817813 0.1453394
0.19589049 -0.016668364 0.1978779 0.076185435 -0.10222702 0.1866804 0.0531168 -0.045208413
-0.07357153 0.16118078 0.19128874 0.16072033 -0.016502405 0.08693057 0.15103585 -0.007991083
-0.07173607 -0.32293016 0.18459284 0.08777497 0.16789153 0.24308929 -0.18646769 0.027771538
0.02977715 0.030383125 -0.12280319 0.18022859 0.025266774 -0.05584411 0.043957252 0.21148492
0.2286383 0.08193079 -0.053025205 0.14572358 0.025114272 0.15235664 0.09405244 0.066204935
-0.047511157 0.037741095 0.026674466 0.0134590035 0.04775014 -0.0555786 -0.021644998 -0.046931587
0.22157246 -0.032269746 0.077260084 -0.25132933 -0.13161302 0.05694814 -0.14911386 0.072196856
-0.02683729 -0.17606883 0.12349114 0.058408894 0.10354724 -0.18312447 -0.16283768 -0.036862325
-0.19550593 -0.032871015 -0.18071963 -0.05469204 -0.03610346 -0.051045466 0.15931976 -0.087902464
0.058075406 0.10100956 0.049071092 0.13479313 -0.06323294 -0.009691964 -0.16792686 0.15193298
0.088958055 0.1850892 0.013777619 0.2324745 -0.16097277 0.17155011 0.20123406 -0.042095114
0.19685552 -0.08541911 0.16358608 -0.08333983 0.22207998 0.08723488 0.21270949 -0.19825442
-0.15290591 0.18554464 0.07358405 -0.0656225 0.07714393 0.19904198 0.19717006 0.23477384
-0.47776157 -0.04190206 0.15804192 -0.02640452 0.11085114 -0.8260126 -0.097424656 -0.19212574
-0.11965741 -0.054618966 0.10756991 0.0682285 0.021588642 0.041127224 -0.14712216 0.09922337
-0.1845644 0.016896231 -0.18852527 -0.18201177 0.003977376 0.13661583 -0.090649046 -0.20981057
-0.086864606 -0.020130672 -0.08460969 -0.15582632 0.12550159 0.123322584 -0.05226566 0.102183685
0.08588074 0.06268792 -0.1586522 -0.15864873 0.028362239 -0.07738232 -0.019864425 -0.02265936
-0.026855754 0.042930692 -0.012849744 0.01737703 0.06938639 0.06589249 -0.07618497 0.038173556
-0.1876306 0.24861908 -0.10428184 -0.18220684 0.08019491 0.11959695 -0.12702647 -0.08074237
0.17839079 0.034007967 0.6526409 -0.012682691 0.16250768 -0.11973443 -0.17161827 0.41100988
-0.2705254 -0.20503059 -0.106177635 0.2956346 0.09501127 0.11938241 0.16908886 -0.058051657
-0.05870006 0.105481766 0.086275786 0.062858306 0.08918452 -0.056760076 0.1202536 0.07063249
0.038927425 -0.18998921 -0.06107506 -0.18523525 0.08217896 0.11613966 0.1845072 0.27111566
00000000: 3cd5 f13d 8267 bb3d cfeb a9bd 1347 58be
00000010: e811 e93d 5073 b13d b5b3 1dbc 2d0a a93d
00000020: a9f3 9c3d 62a0 ea3d d97b 5abe 8bce 25bd
00000030: c525 33be 2e3b 963d d5a0 c83d 4eb5 2cbd
00000040: b43e 97bd 5b6c 56be a7b5 693b 9f44 27be
00000050: 86d6 e4bd 1a03 563d af9f c5ba 45be 06be
00000060: e848 933d 0764 b6bd ba93 0a3d 06cb 6d3d
00000070: cb74 ae3d 7383 57bd bce5 793d f5be c23d
00000080: 07fa 23be 89a7 cd3c 5073 25be 80f9 f93d
00000090: 7f88 1f3e a0f2 3fbe 41a4 333d 5f90 0ebe
000000a0: c085 a53d 326b c23d 8a55 a53c 3d14 dc3c
000000b0: 2dcc 083e 1124 02bd 5664 a0bd 7c94 1a3c
000000c0: da7e 9cbd 06a4 1b3e 150c 36be 4524 e9bc
000000d0: 35bf 4fbd 3b8d e8bd 09d3 3cbc 34f2 26be
000000e0: c61f d93d 17b8 9b3d 4d1c 9a3e 7308 bbbd
000000f0: 9041 ae3d bee7 d7ba bc96 b4bd dad3 143e
00000100: 8497 483e 188c 88bc 81a0 4a3e 1c07 9c3d
00000110: 665c d1bd 2629 3f3e 0091 593d 752c 39bd
00000120: acac 96bd 930c 253e 32e1 433e df93 243e
00000130: 0d30 87bc a808 b23d 24a9 1a3e 08ed 02bc
00000140: 5cea 92bd 1a57 a5be e805 3d3e 5dc3 b33d
00000150: c2eb 2b3e 66ec 783e 63f1 3ebe 2381 e33c
00000160: 36ef f33c 08e6 f83c 3d80 fbbd d88d 383e
00000170: 44fc ce3c cbbc 64bd 850c 343d 818f 583e
00000180: 2920 6a3e 54cb a73d f530 59bd 9038 153e
00000190: 72bc cd3c 6103 1c3e 919e c03d 7496 873d
000001a0: 0f9b 42bd 6896 1a3d 6984 da3c 2783 5c3c
000001b0: a795 433d 63a6 63bd da50 b1bc 563b 40bd
000001c0: e4e3 623e 482d 04bd 893a 9e3d 3dae 80be
000001d0: 90c5 06be 7442 693d 4eb1 18be f2db 933d
000001e0: e0d9 dbbc 634b 34be ece8 fc3d 2a3e 6f3d
000001f0: 9310 d43d fb84 3bbe ecbe 26be f3fc 16bd
00000200: b532 48be c2a3 06bd 910e 39be c304 60bd
00000210: 39e1 13bd 0d15 51bd b824 233e 3506 b4bd
00000220: 7ae0 6d3d 1ade ce3d c5fe 483d 3607 0a3e
00000230: 4680 81bd 0bcb 1ebc 05f5 2bbe 5294 1b3e
00000240: a42f b63d 0688 3d3e 86bb 613c cc0d 6e3e
00000250: 0cd6 24be d5aa 2f3e 4d10 4e3e ed6b 2cbd
00000260: 7e94 493e 37f0 aebd 1c83 273e 13ae aabd
00000270: ef68 633e 33a8 b23d 84d0 593e 3503 4bbe
00000280: 5e93 1cbe 6aff 3d3e 3cb3 963d 1765 86bd
00000290: a3fd 9d3d a9d1 4b3e f3e6 493e 8e68 703e
000002a0: 2a9d f4be 7fa1 2bbd bed5 213e 4b4e d8bc
000002b0: ec05 e33d 9075 53bf 9486 c7bd 9cbc 44be
000002c0: f20e f5bd 23b8 5fbd 9d4d dc3d 62bb 8b3d
000002d0: aada b03c 0575 283d 31a7 16be 9f35 cb3d
000002e0: 73fe 3cbe f769 8a3c c50c 41be 4b61 3abe
000002f0: a654 823b 05e5 0b3e 35a6 b9bd 95d8 56be
00000300: 12e6 b1bd 14e9 a4bc d847 adbd ef90 1fbe
00000310: 7d83 003e 8d90 fc3d 8414 56bd ae45 d13d
00000320: 3ee2 af3d 8662 803d b975 22be d074 22be
00000330: ed57 e83c 9f7a 9ebd b8ba a2bc 1fa0 b9bc
00000340: 9900 dcbc 18d8 2f3d bc87 52bc 465a 8e3c
00000350: 741a 8e3d a4f2 863d de06 9cbd e05b 1c3d
00000360: 3c22 40be 0096 7e3e b891 d5bd 6e94 3abe
00000370: 3b3d a43d 3fef f43d 3a13 02be 415c a5bd
00000380: 13ac 363e f04b 0b3d 7913 273f 10cb 4fbc
00000390: 6a68 263e 5337 f5bd b3bc 2fbe e36f d23e
000003a0: 4e82 8abe 8af3 51be a973 d9bd 6b5d 973e
000003b0: 4595 c23d c47e f43d a125 2d3e 93c7 6dbd
000003c0: 796f 70bd d306 d83d 5cb1 b03d dbbb 803d
000003d0: 60a6 b63d 417d 68bd 8547 f63d c4a7 903d
000003e0: 5d72 1f3d 888c 42be d829 7abd 4fae 3dbe
000003f0: 714d a83d a1da ed3d 75ef 3c3e accf 8a3e

encoder.0.bias f4 [20]
-0.13918455 -0.13614692 0.15494867 0.18506676 0.052415572 -0.012346817 -0.03725705 0.15660837
0.03693076 -0.060711376 -0.04732147 -0.1649015 0.09652566 0.043152876 -0.069929525 0.12425409
-0.1316712 -0.13016784 0.10109189 0.07750719
00000000: 6586 0ebe 196a 0bbe ddaa 1e3e 2482 3d3e
00000010: b6b1 563d 4e4a 4abc d99a 18bd f25d 203e
00000020: b544 173d 7eac 78bd 28d4 41bd f0db 28be
00000030: 3faf c53d 12c1 303d 3637 8fbd ee78 fe3d
00000040: d1d4 06be b84a 05be 4409 cf3d 17bc 9e3d

encoder.3.weight f4 [10, 20]
0.110369265 0.013394122 0.029989796 -0.08886142 0.059878975 0.067172855 -0.022297993 -0.85272706
-0.12204789 0.95355314 0.14858133 -0.047924563 0.13584995 -0.13177222 -0.18511572 -0.31976807
0.15089849 -0.43018863 0.18166243 0.1916157 -0.07398823 -0.11534112 -0.21914743 0.11111185
0.20408808 0.12385542 0.09775871 -0.28092217 -0.1979241 0.049629536 0.056468498 0.17673206
-0.053148434 -0.23342326 0.065452516 0.03337107 0.16185766 0.10175837 -0.07528685 0.044679284
-0.16293032 0.089005195 0.108507484 0.027113408 -0.067079365 0.18558146 0.023730319 -0.34030136
-0.8306853 0.61431384 -0.22193119 0.20363611 0.26813534 -0.16800533 -0.09269813 -0.5204947
0.10763651 -0.856715 0.078936905 0.040537562 0.09613151 0.10684321 0.3695314 -0.016969826
0.17056742 -0.44729146 0.17502707 -0.42972335 -0.39886603 0.48894316 -0.26147646 -0.21747269
-0.09898321 -0.0024091087 0.124546856 -0.13300271 0.07907069 -0.36553383 -0.103712276 -0.07631795
-0.10473137 0.18266022 -0.28415796 -0.070769206 0.06986171 -0.3196551 -0.03801155 -0.11884647
-0.045106433 0.28389838 -0.10535936 -0.044051617 0.21581933 0.24973907 -0.22171009 0.007959417
-0.20487365 -0.17481546 -0.07745227 0.0662488 -0.13183491 0.1839063 -0.070472576 -0.13991413
0.06538597 0.45428294 0.022924647 -0.37602633 -0.25697824 0.57660484 -0.26007074 -0.19044769
-0.040307153 -0.00016710395 -0.211675 -0.08996166 -0.18891355 -0.26565188 -0.11831314 -0.15130576
-0.15706225 -0.027044889 -0.090984724 -0.06104131 0.13646497 0.13955015 0.14789045 -0.0154968975
0.022913279 0.03075294 0.09787517 -0.02232635 -0.20256385 0.012668888 -0.16390656 0.007119744
-0.10836397 -0.054971352 -0.1857772 -0.13093087 0.04236355 0.13924071 -0.007369859 0.15679653
-0.21023388 0.11113102 0.08633724 -0.95881265 -0.23739442 1.2271864 0.15106888 -0.15168308
-0.08303706 0.105215795 0.06211856 -0.8013257 -0.19743796 -0.7786863 -0.050015096 -0.17978597
0.011307721 0.013144384 0.029037187 0.18327674 -0.02986924 0.1987992 0.19045234 0.088007055
-0.60101694 0.26355892 0.17523119 0.10213548 -0.12174694 0.05024185 -0.011991128 -0.2847157
0.21898136 -0.8740041 0.2690373 0.18618332 -0.03237503 0.04255647 0.096196696 0.27785525
-0.13273315 0.07464447 -0.14164129 -0.41770434 -0.83674777 0.5190269 -0.19612725 -0.07990837
0.14463791 0.15671848 -0.035852388 -0.47211885 0.12681267 -0.9283748 0.16301289 -0.17252538
00000000: 4809 e23d 0573 5b3c 29ad f53c fafc b5bd
00000010: a843 753d ec91 893d 48aa b6bc 524c 5abf
00000020: 3ff4 f9bd 0f1c 743f b425 183e 8c4c 44bd
00000030: 401c 0b3e 4cef 06be fa8e 3dbe a4b8 a3be
00000040: 2285 1a3e af41 dcbe b705 3a3e e836 443e
00000050: 2487 97bd f737 ecbd 2f68 60be 9c8e e33d
00000060: 77fc 503e e9a7 fd3d b835 c83d 08d5 8fbe
00000070: 9eac 4abe 5748 4b3d 834b 673d 40f9 343e
00000080: 2cb2 59bd 8206 6fbe f80b 863d 1ab0 083d
00000090: 04be 253e b166 d03d fe2f 9abd a001 373d
000000a0: 35d7 26be 5b48 b63d 2c39 de3d f01c de3c
000000b0: e860 89bd 1109 3e3e 1666 c23c fb3b aebe
000000c0: cba7 54bf ac43 1d3f ee41 63be fc85 503e
000000d0: 0949 893e 9709 2cbe 84d8 bdbd 243f 05bf
000000e0: 8870 dc3d ad51 5bbf aca9 a13d b70a 263d
000000f0: 99e0 c43d 9dd0 da3d 3833 bd3e 4e04 8bbc
00000100: 3aa9 2e3e 6303 e5be 4c3a 333e b304 dcbe
00000110: 2b38 ccbe c256 fa3e 3ee0 85be 29b1 5ebe
00000120: b6b7 cabd 23e2 1dbb 6c12 ff3d dd31 08be
00000130: d0ef a13d 4027 bbbe 1a67 d4bd 964c 9cbd
00000140: 677d d6bd 480b 3b3e 277d 91be 72ef 90bd
00000150: a813 8f3d d5a9 a3be 00b2 1bbd c765 f3bd
00000160: 86c1 38bd 215b 913e a6c6 d7bd 786f 34bd
00000170: beff 5c3e 99bb 7f3e f807 63be 3768 023c
00000180: 66ca 51be d302 33be 4c9f 9ebd 73ad 873d
00000190: bbff 06be ef51 3c3e ed53 90bd a645 0fbe
000001a0: 14e9 853d c697 e83e 78cc bb3c 8686 c0be
000001b0: a792 83be 609c 133f fe27 85be b804 43be
000001c0: 1d19 25bd a038 2fb9 55c1 58be d23d b8bd
000001d0: 8e72 41be 8603 88be 294e f2bd e6ef 1abe
000001e0: edd4 20be 3e8d ddbc 3356 babd 7406 7abd
000001f0: 79bd 0b3e 3ce6 0e3e 9870 173e b3e6 7dbc
00000200: a1b4 bb3c 97ed fb3c c772 c83d c0e5 b6bc
00000210: e66c 4fbe 2b91 4f3c 1fd7 27be be4c e93b
00000220: eeed ddbd a429 61bd 613c 3ebe be12 06be
00000230: 6785 2d3d 1e95 0e3e dc7e f1bb 458f 203e
00000240: 8d47 57be a998 e33d 94d1 b03d bf74 75bf
00000250: 8617 73be 7214 9d3f cdb1 1a3e cf52 1bbe
00000260: 560f aabd 617b d73d 0870 7e3d ae23 4dbf
00000270: 2d2d 4abe fc57 47bf a1dc 4cbd d019 38be
00000280: 0544 393c 8b5b 573c 65df ed3c e6ac 3b3e
00000290: 56b0 f4bc 0492 4b3e f005 433e 0b3d b43d
000002a0: 3fdc 19bf 32f1 863e ce6f 333e 682c d13d
000002b0: 7656 f9bd 66ca 4d3d 7076 44bc 42c6 91be
000002c0: a63c 603e bcbe 5fbf 42bf 893e d7a6 3e3e
000002d0: ae9b 04bd b14f 2e3d c602 c53d 0b43 8e3e
000002e0: 33eb 07be 33df 983d 6a0a 11be 58dd d5be
000002f0: 1a35 56bf f2de 043f 95d5 48be 00a7 a3bd
00000300: f61b 143e cf7a 203e f4d9 12bd 90b9 f1be
00000310: 2edb 013e f9a9 6dbf daec 263e 7eaa 30be

encoder.3.bias f4 [10]
-0.058738615 0.04951264 0.229394 0.45646432 0.1776456 0.021260465 -0.04200368 0.22150382
-0.04749591 0.1491907
00000000: e797 70bd c4cd 4a3d 43e6 6a3e b1b5 e93e
00000010: bae8 353e 6d2a ae3c 0d0c 2cbd e6d1 623e
00000020: 128b 42bd 72c5 183e

encoder.5.weight f4 [5, 10]
0.2134005 0.17254823 0.2355294 0.4106704 0.5989786 0.6098542 0.37931687 0.19376616
0.089795575 0.2342042 -0.11931319 0.11922711 0.06466693 0.63488865 0.39680806 0.5905531
-0.0946122 0.2029493 0.3612465 0.31809023 -0.101586685 0.10125478 -0.024302451 0.24541348
0.4828695 0.40617293 0.006684578 -0.1658575 0.29456744 -0.0083522685 0.76597214 0.22914971
0.23476584 0.84955204 1.2917217 1.2904915 0.080231346 0.47004765 0.26483458 0.16261709
0.021619972 -0.012374241 0.22301395 0.09739129 0.63598967 0.4477295 -0.0801526 -0.123288654
0.03729142 0.09088927
00000000: a985 5a3e 7cb0 303e 9e2e 713e 6443 d23e
00000010: a956 193f 681f 1c3f d235 c23e a36a 463e
00000020: bee6 b73d 3ad3 6f3e 795a f4bd 582d f43d
00000030: 1870 843d 1088 223f 6d2a cb3e 7d2e 173f
00000040: 0bc4 c1bd f1d1 4f3e 4df5 b83e b9dc a23e
00000050: ae0c d0bd ab5e cf3d ef15 c7bc ac4d 7b3e
00000060: ac3a f73e e6f5 cf3e 4e0a db3b 8cd6 29be
00000070: 8bd1 963e f4d7 08bc c016 443f 39a6 6a3e
00000080: 7566 703e 3e7c 593f 2357 a53f d32e a53f
00000090: 5550 a43d 16aa f03e 6698 873e 1885 263e
000000a0: 5e1c b13c 54bd 4abc c55d 643e 1675 c73d
000000b0: 38d0 223f cd3c e53e 0c27 a4bd c37e fcbd
000000c0: e3be 183d 2724 ba3d

encoder.5.bias f4 [5]
0.40095714 0.35183144 0.5060417 -0.28639278 0.2992197
00000000: 414a cd3e 4023 b43e f38b 013f 13a2 92be
00000010: 5333 993e

decoder.0.weight f4 [10, 5]
-0.28839487 -0.026126087 -0.24192934 0.061959684 -0.4071747 0.441045 0.45002705 -0.06478316
0.40173173 0.45133224 0.35100442 0.039580375 -0.40033203 -0.18093848 -0.1370484 0.54894495
0.47550035 0.38715145 0.3313078 0.40799278 -0.4379541 -0.11071083 -8.568168e-05 -0.127244
-0.13257647 -0.13766629 0.38335165 -0.4888814 0.5481482 0.3292394 -0.30877018 0.4776102
0.5229328 -0.51800644 0.52295476 -0.0439364 -0.0064605176 -0.4458696 0.08987296 -0.2672429
0.32358694 0.11693482 0.14529328 0.23198198 0.17221688 0.17626145 -0.28865084 0.14953445
-0.3692417 0.4632318
00000000: 7ea8 93be 6006 d6bc 53bc 77be 70c9 7d3d
00000010: 3479 d0be a6d0 e13e f269 e63e 09ad 84bd
00000020: c8af cd3e 0515 e73e dab6 b33e 081f 223d
00000030: 52f8 ccbe f047 39be 6a56 0cbe a887 0c3f
00000040: c874 f33e b738 c63e 2da1 a93e 6ee4 d03e
00000050: 853b e0be 5cbc e2bd 00b0 b3b8 404c 02be
00000060: 20c2 07be 64f8 0cbe ab46 c43e aa4e fabe
00000070: 7153 0c3f 1192 a83e 2017 9ebe 5389 f43e
00000080: edde 053f 129c 04bf 5de0 053f a8f6 33bd
00000090: c0b2 d3bb 0549 e4be 500f b83d 10d4 88be
000000a0: 30ad a53e 867b ef3d c3c7 143e af8c 6d3e
000000b0: 9f59 303e e27d 343e 0bca 93be 8f1f 193e
000000c0: 400d bdbe b82c ed3e

decoder.0.bias f4 [10]
0.11246455 0.2687951 -0.18084484 -0.22468035 0.0073043406 -0.4310541 0.0297281 -0.24264415
-0.063646294 0.34921625
00000000: d053 e63d 839f 893e 642f 39be 9b12 66be
00000010: 4059 ef3b 1fb3 dcbe 5888 f33c b577 78be
00000020: fd58 82bd 79cc b23e

decoder.2.weight f4 [20, 10]
-0.0015505552 0.023323089 0.051544964 -0.20913287 0.19724467 -0.1841857 -0.08689903 0.2151089
-0.18150361 -0.18365765 0.22602066 0.18018328 -0.19574855 0.33745438 0.18819985 -0.3126646
-0.14710744 0.17977357 0.22993661 0.08291931 -0.049784243 0.15413967 0.04100263 0.3436557
0.0077733696 0.09390452 -0.28527123 0.15017882 0.21604946 -0.41030264 0.2591444 0.0345345
-0.03463766 -0.014994845 -0.0318909 0.20135139 -0.13101004 -0.20678344 -0.19155864 -0.08004841
0.014500141 -0.24688971 -0.17903915 -0.1908038 -0.26111722 -0.030336827 -0.10585646 0.28978834
-0.20809649 -0.17101729 -0.2005303 0.25837025 -0.16426732 0.29028553 -0.23707172 0.11933655
0.11510951 0.254199 0.06668521 0.24739319 0.3009663 0.36967713 0.26587042 0.08735486
-0.087141395 -0.5285213 0.22672103 -0.20283546 0.3650881 -0.01812044 -0.23073228 0.13600722
0.023801327 0.17151286 -0.07306658 0.18208031 -0.0058292914 -0.09239364 -0.09965349 -0.16676417
0.009826481 0.17235789 -0.08446771 -0.30442032 -0.12765233 -0.19838355 -0.1359305 -0.18489377
-0.24979289 0.23789844 -0.20266715 -0.00647049 0.2494891 -0.08290537 0.058611065 -0.30831566
-0.22093347 0.15631884 -0.2855117 -0.00465473 0.18782184 0.023334652 0.09661606 -0.15039419
0.15393412 0.15823159 0.14935213 -0.048372418 -0.21908695 0.041121095 0.167505 0.0557217
0.07233703 -0.045467395 0.187094 -0.7850439 0.31742862 0.20325068 0.24257283 0.36380124
-0.18436413 0.05698788 -0.27098906 -0.16721684 0.11026189 -0.1602886 0.037908018 -0.032763243
0.23347786 -0.13697276 0.2507454 -0.05381894 0.29318294 0.08792649 -0.14133067 -0.50065446
0.23643817 0.23818925 0.2021441 0.4241017 0.28338417 -0.2128073 -0.078575164 -0.13240139
-0.2565944 -0.2496325 0.2996662 0.043431938 -0.21967861 -0.090181485 -0.23354724 0.1457769
0.051345438 0.20163628 0.088045895 0.5349758 -0.22141069 -0.020578682 -0.073955715 -0.43076575
0.05294758 -0.18955195 -0.31209674 0.23929952 0.16645393 -0.4008835 0.20774715 0.08781573
0.2966147 0.4808535 0.25758258 0.3569024 0.24992481 0.045866687 0.24062607 -0.23060217
0.076460905 0.24040648 -0.27260914 0.14952077 -0.17456144 -0.36018446 -0.035259634 0.18466496
-0.10460232 0.17337142 -0.22899577 0.17493287 0.08900709 -0.1940883 -0.20160027 0.27821076
-0.11993961 0.3511843 0.2237049 -0.13839367 -0.009471645 -0.06785157 0.18202311 0.32093427
00000000: 003c cbba 1010 bf3c d020 533d ed26 56be
00000010: 82fa 493e 2d9b 3cbe 1ef8 b1bd 8245 5c3e
00000020: 15dc 39be c010 3cbe f671 673e f781 383e
00000030: 4f72 48be d2c6 ac3e 76b7 403e 9315 a0be
00000040: 55a3 16be 9016 383e 8174 6b3e 99d1 a93d
00000050: 90ea 4bbd cad6 1d3e 60f2 273d a4f3 af3e
00000060: c0b7 fe3b 0351 c03d 120f 92be 7ac8 193e
00000070: 123c 5d3e 3013 d2be 93ae 843e 0c74 0d3d
00000080: 38e0 0dbd f0ac 75bc 08a0 02bd 0f2f 4e3e
00000090: 7f27 06be 0abf 53be f327 44be 6cf0 a3bd
000000a0: 0092 6d3c a8d0 7cbe 0a56 37be 1262 43be
000000b0: 28b1 85be f084 f8bc 46cb d8bd 235f 943e
000000c0: 3f17 55be 281f 2fbe d157 4dbe 1b49 843e
000000d0: b135 28be 4ea0 943e eec2 72be b966 f43d
000000e0: 89be eb3d 5f26 823e 4192 883d a454 7d3e
000000f0: 4118 9a3e 5246 bd3e 2b20 883e 1be7 b23d
00000100: 3077 b2bd 2c4d 07bf 8f29 683e 19b4 4fbe
00000110: d4ec ba3e 5171 94bc 1545 6cbe 7a45 0b3e
00000120: 00fb c23c 11a1 2f3e eea3 95bd 4373 3a3e
00000130: a403 bfbb e038 bdbd 2117 ccbd 3ac4 2abe
00000140: 40ff 203c 967e 303e 68fd acbd fbdc 9bbe
00000150: 4bb7 02be 0f25 4bbe 5d31 0bbe cb54 3dbe
00000160: b5c9 7fbe a69b 733e fa87 4fbe 6706 d4bb
00000170: 127a 7f3e 4aca a9bd 2812 703d 8ddb 9dbe
00000180: 623c 62be 0c12 203e 972e 92be b586 98bb
00000190: 5e54 403e 5028 bf3c a4de c53d ef00 1abe
000001a0: e8a0 1d3e 7607 223e c4ef 183e 2822 46bd
000001b0: 5458 60be 986e 283d 6e86 2b3e 703c 643d
000001c0: 7025 943d 053c 3abd 9295 3f3e a3f8 48bf
000001d0: 0186 a23e f220 503e 0365 783e 2844 ba3e
000001e0: f3c9 3cbe 206c 693d 14bf 8abe e43a 2bbe
000001f0: fcd0 e13d b222 24be 7045 1b3d c032 06bd
00000200: d214 6f3e 9642 0cbe b361 803e 4071 5cbd
00000210: 131c 963e ce12 b43d fdb8 10be e42a 00bf
00000220: d91c 723e e2e7 733e ddfe 4e3e dc23 d93e
00000230: bb17 913e 28ea 59be 04ec a0bd 3b94 07be
00000240: 5760 83be a99f 7fbe d96d 993e b0e5 313d
00000250: 6ef3 60be 12b1 b8bd 0227 6fbe 8a46 153e
00000260: 984f 523d be79 4e3e 6851 b43d 2df4 083f
00000270: 7cb9 62be a094 a8bc 1876 97bd 548d dcbe
00000280: 90df 583d e819 42be 25cb 9fbe ef0a 753e
00000290: e672 2a3e 9a40 cdbe abbb 543e bcd8 b33d
000002a0: e2dd 973e 6e32 f63e dde1 833e e9bb b63e
000002b0: 4aec 7f3e b5de 3b3d ae66 763e fa22 6cbe
000002c0: 8997 9c3d 1e2d 763e 6d93 8bbe f91b 193e
000002d0: 3cc0 32be 196a b8be 686c 10bd d018 3d3e
000002e0: be39 d6bd 4788 313e de7d 6abe 9a21 333e
000002f0: 5949 b63d 15bf 46be 4d70 4ebe a471 8e3e
00000300: e6a2 f5bd 6ece b33e e612 653e 12b7 0dbe
00000310: f52e 1bbc c4f5 8abd 4464 3a3e 7f51 a43e

decoder.2.bias f4 [20]
-0.2104145 0.3693965 -0.22112465 0.009221669 0.049313486 0.15372361 0.22906177 0.15055713
-0.16704625 0.20971887 -0.30838832 0.1702372 -0.117300496 0.17091683 -0.2634804 -0.3881461
0.20846339 0.33901334 0.22734977 -0.03013159
00000000: e676 57be 8a21 bd3e 806e 62be 7c16 173c
00000010: f0fc 493d b969 1d3e 2b8f 6a3e a62b 1a3e
00000020: 2c0e 2bbe 8bc0 563e 13e5 9dbe a952 2e3e
00000030: 3e3b f0bd d204 2f3e e7e6 86be 16bb c6be
00000040: 6d77 553e 2893 ad3e 61ce 683e 86d6 f6bc

decoder.5.weight f4 [29, 20]
0.022136107 0.2603132 0.44272164 -0.11906132 -0.14645419 0.28726032 0.2864061 0.5059632
0.028591901 -0.07979806 -0.02181834 0.47159377 0.19413784 0.33153057 -0.087425604 -0.14082618
0.39709467 0.17039892 -0.17568377 0.2770147 0.20368075 0.037443373 0.060205456 0.015214135
0.17296863 0.031793997 0.036495242 0.07240038 0.06742418 -0.08343342 0.211328 0.11238477
0.025421783 0.10612933 -0.09768064 0.029654443 0.08432143 0.0599256 0.12560993 0.036357597
0.12612656 0.1102588 0.16156004 0.24777618 -0.09563039 0.10222506 0.11305058 0.22257814
-0.17506562 0.051519264 -0.039392322 0.31572998 -0.046351895 0.24534006 -0.06525257 0.009167505
0.24767192 0.18189776 -0.07828393 0.1100103 -0.13511908 -0.061777078 -0.14215936 0.17518453
0.16754246 -0.058885455 -0.061601207 -0.13866499 0.18124297 -0.14873181 -0.027545974 -0.10370507
-0.06833859 -0.11580701 0.04098445 -0.16715598 -0.11268377 -0.084943905 0.044906173 -0.06728441
-0.15569276 0.05074397 0.069243 -0.0122052245 -0.14692189 0.046095897 0.051200587 0.09835971
-0.1638114 -0.0727814 -0.07892153 0.17775062 0.016732857 0.1556895 0.21250108 0.08178068
0.12655094 0.09041646 -0.04087066 0.050528925 -0.049897224 -0.051163323 -0.07518925 -0.08296945
-0.16059086 -0.04656362 -0.050555114 -0.099912785 0.07902336 -0.2562207 0.0953244 -0.16584316
-0.053477228 -0.1501191 0.0017612427 -0.034196384 -0.11930764 -0.087869816 -0.087890215 -0.051854003
-0.09494494 -0.05813397 -0.07878751 -0.083113864 0.15261927 -0.053411122 -0.05947368 -0.11157371
0.059767485 0.102309406 0.18005458 -0.17932123 -0.21193302 -0.17659493 0.08794814 -0.07242627
-0.1445989 -0.107517116 -0.21622369 -0.058154903 -0.17181127 0.083146684 0.11421617 -0.110161886
-0.05433832 0.07668936 0.08445877 0.1632495 -0.063644946 0.21352898 0.041730314 0.26221052
0.07392529 0.25343287 0.042966127 0.09751709 0.19374196 0.13560657 -0.058093242 0.08261641
-0.052036658 -0.002131279 0.000116934636 -0.0025581229 -0.15743539 -0.0048902496 -0.0011865336 -0.00711455
-0.1057673 0.0022853364 0.02612926 -0.012541643 0.008266583 -0.0066177836 0.039159358 -0.034446914
-0.0098935105 -0.0020084158 -0.009394063 -0.004372774 0.11514464 0.0010401575 -0.0019499927 0.12725973
-0.13682881 -0.0010307853 0.0018422167 -0.0033803196 0.18542036 0.08667211 -0.20902567 0.007892306
0.15899178 0.0064888042 -0.026715323 0.0031305926 0.0049071503 0.00311685 0.09639667 -0.00019912752
0.13462725 -0.035201967 -0.074803665 -0.21622571 -0.04334709 -0.032327984 -0.03349945 -0.083878666
-0.07449703 -0.124420285 0.2080242 -0.06249705 -0.04137124 -0.06573461 0.11788139 -0.105550885
-0.06307385 -0.05340306 -0.051386498 -0.037950475 0.19722608 0.042044345 0.059744302 -0.011527488
-0.04132563 0.03530136 0.038685087 0.07782584 0.20528936 -0.12199256 0.13370305 0.12953846
-0.13524365 0.110109955 0.08412129 0.03917125 0.09004052 0.06477267 -0.008616726 0.03937869
0.12904292 -0.0037402213 -0.024685362 -0.03703708 -0.11769078 -0.0048215473 -0.0057549253 -0.011932596
0.16515765 -0.07247507 0.13759255 0.002480316 -0.1167957 0.0019521519 -0.12931807 0.08397646
00000000: c856 b53c c647 853e 69ac e23e 6cd6 f3bd
00000010: 16f8 15be c913 933e d2a3 923e ce86 013f
00000020: 9039 ea3c 2a6d a3bd 60bc b2bc bd74 f13e
00000030: 12cc 463e 60be a93e 320c b3bd bd34 10be
00000040: fe4f cb3e 0e7d 2e3e 72e6 33be dfd4 8d3e
00000050: b091 503e 395e 193d ff99 763d b544 793c
00000060: b01e 313e 6c3a 023d 097c 153d a746 943d
00000070: b015 8a3d 24df aabd 5e66 583e fc29 e63d
00000080: 5841 d03c 565a d93d ca0c c8bd e0ed f23c
00000090: b7b0 ac3d 8c74 753d e49f 003e b4eb 143d
000000a0: 5227 013e 5ecf e13d ff6f 253e 0ab9 7d3e
000000b0: ded9 c3bd 5f5b d13d 1087 e73d 86eb 633e
000000c0: 6744 33be dd05 533d d859 21bd 5ca7 a13e
000000d0: 7cdb 3dbd 6d3a 7b3e 24a3 85bd 4e33 163c
000000e0: b59d 7d3e 6843 3a3e 5353 a0bd 154d e13d
000000f0: a85c 0abe f609 7dbd 3992 11be 9363 333e
00000100: 4090 2b3e e031 71bd 8c51 7cbd 32fe 0dbe
00000110: c297 393e 274d 18be 18a8 e1bc 5363 d4bd
00000120: 1af5 8bbd 3a2c edbd 50df 273d f02a 2bbe
00000130: c0c6 e6bd 12f7 adbd 89ef 373d 69cc 89bd
00000140: ec6d 1fbe e9d8 4f3d 46cf 8d3d 6cf8 47bc
00000150: b172 16be 0dcf 3c3d b5b7 513d d170 c93d
00000160: 2dbe 27be 6a0e 95bd 9ca1 a1bd 4204 363e
00000170: 5813 893c 116d 1f3e e299 593e a17c a73d
00000180: 9296 013e 442c b93d fe67 27bd 6bf7 4e3d
00000190: 0861 4cbd a290 51bd d2fc 99bd e3eb a9bd
000001a0: ee71 24be 7fb9 3ebd e112 4fbd 139f ccbd
000001b0: 00d7 a13d 5c2f 83be 7039 c33d cad2 29be
000001c0: f00a 5bbd d2b8 19be 80d9 e63a 8211 0cbd
000001d0: 9057 f4bd 17f5 b3bd c9ff b3bd dd64 54bd
000001e0: 7e72 c2bd e31d 6ebd 595b a1bd 9a37 aabd
000001f0: 3a48 1c3e 9fc5 5abd ac9a 73bd c280 e4bd
00000200: c0ce 743d 9887 d13d 3a60 383e fc9f 37be
00000210: f804 59be 4dd5 34be 281e b43d 3954 94bd
00000220: bc11 14be ef31 dcbd be69 5dbe d633 6ebd
00000230: 4bef 2fbe cf48 aa3d 2bea e93d 8e9c e1bd
00000240: dc91 5ebd 500f 9d3d b8f8 ac3d e02a 273e
00000250: 4858 82bd 57a7 5a3e 68ed 2a3d 7540 863e
00000260: 2466 973d f4c1 813e 40fd 2f3d 0ab7 c73d
00000270: 4b64 463e 73dc 0a3e 2ef3 6dbd cb32 a93d
00000280: 6424 55bd eeac 0bbb ce3a f538 2ea6 27bb
00000290: be36 21be 633e a0bb 7685 9bba 2c21 e9bb
000002a0: 879c d8bd 95c5 153b 080d d63c 777b 4dbc
000002b0: 9070 073c fed9 d8bb 9065 203d 3518 0dbd
000002c0: 6418 22bc a09f 03bb 8ee9 19bc 7d49 8fbb
000002d0: f4d0 eb3d e555 883a e696 ffba 6050 023e
000002e0: da1c 0cbe 6a1b 87ba 8976 f13a 5a88 5dbb
000002f0: d6de 3d3e 2681 b13d d30a 56be bb4e 013c
00000300: bece 223e 09a0 d43b 18da dabc a12a 4d3b
00000310: 29cc a03b 1144 4c3b 9e6b c53d e3cc 50b9
00000320: badb 093e f02f 10bd aa32 99bd 466a 5dbe
00000330: b88c 31bd 596a 04bd b836 09bd 94c8 abbd
00000340: e691 98bd 10d0 febd 4c04 553e e8fc 7fbd
00000350: e474 29bd de9f 86bd cc6b f13d 102b d8bd
00000360: dd2c 81bd 2bbd 5abd a67a 52bd f571 1bbd
00000370: a2f5 493e b136 2c3d 71b6 743d cadd 3cbc
00000380: 1045 29bd 2998 103d 4174 1e3d 2763 9f3d
00000390: 6037 523e 3cd7 f9bd 74e9 083e bba5 043e
000003a0: 507d 0abe 5481 e13d c847 ac3d 0872 203d
000003b0: 2a67 b83d 89a7 843d 2b2d 0dbc 8d4b 213d
000003c0: d423 043e 801e 75bb f538 cabc 31b4 17bd
000003d0: dd07 f1bd 12fe 9dbb d093 bcbb ef80 43bc
000003e0: 161f 293e cf6d 94bd 10e5 0c3e cc8c 223b
000003f0: 9532 efbd 59df ff3a f56b 04be dafb ab3d

decoder.5.bias f4 [29]
0.039441418 0.5392834 0.15681115 -0.2508882 0.45264864 -0.4051181 -0.17147979 0.15810074
-0.11093917 0.021150455 -0.413169 0.30303004 -0.15816803 0.4415784 -0.39283425 -0.13667862
0.25553066 0.3495148 0.2116478 0.30917564 0.24798661 0.033811655 0.18001823 0.05247045
0.2581286 -0.25065178 -0.29660073 -0.33294824 -0.095475934
00000000: 538d 213d 7a0e 0a3f 1a93 203e 6b74 80be
00000010: 90c1 e73e a46b cfbe 6698 2fbe 29e5 213e
00000020: 1334 e3bd b843 ad3c e38a d3be c126 9b3e
00000030: cdf6 21be 9016 e23e 9221 c9be 7bf5 0bbe
00000040: ead4 823e 9bf3 b23e 33ba 583e 454c 9e3e
00000050: 34f0 7d3e 177e 0a3d b356 383e 41eb 563d
00000060: 6f29 843e 6e55 80be 0ddc 97be 3178 aabe
00000070: e388 c3bd
