aeacus/weights/latent_with_vae.pth (torch, 11991 bytes, 5 tensors)

layers.0.weight f4 [64, 5]
0	0x3f023eca	0.5087706
1	0xbf117c89	-0.5683065
2	0xbf315b44	-0.69279885
3	0x3f553f46	0.8329967
4	0xbdbedd95	-0.09319607
5	0x3ddc3a63	0.10753324
6	0xbcaff4d8	-0.021479055
7	0xbe8afbe3	-0.271453
8	0xbcf3261b	-0.029681256
9	0xbed68673	-0.41899452
10	0xbd8fa1bb	-0.070132695
11	0xbf899636	-1.0748966
12	0x3f2e5a5b	0.6810662
13	0x3ea2bbb1	0.31783822
14	0xbf6d6c4f	-0.9274339
15	0xbd050243	-0.03247286
16	0x3f245c12	0.6420299
17	0xbfb73c26	-1.4315231
18	0xbe8d0791	-0.27544835
19	0x3eaf97d2	0.34295517
20	0x3e2ea5c3	0.1705542
21	0xbced56b5	-0.02897201
22	0x3f69bd98	0.9130492
23	0xbd1adb2c	-0.037806675
24	0x3f3d7ec5	0.7402156
25	0xbe2d78fd	-0.16940685
26	0xbebc7703	-0.3680955
27	0x3ed1bc94	0.40964186
28	0xbec95602	-0.3932343
29	0xbd5c3b66	-0.053767584
30	0x3eff46c2	0.4985867
31	0x3e352fb5	0.1769398
32	0xbecc0506	-0.39847583
33	0xbf188a2b	-0.5958583
34	0xbf5e71eb	-0.86892575
35	0xbf479d41	-0.77974325
36	0xbf14eece	-0.5817689
37	0xbe32d2b0	-0.17463183
38	0x3f87b613	1.060244
39	0xbe1e1e97	-0.15441357
40	0x3ec92597	0.3928649
41	0xbf3c4e41	-0.73556906
42	0xbf201bb4	-0.6254227
43	0xbe51b81a	-0.20480385
44	0x3f1952ce	0.59891975
45	0xbf02eea2	-0.51145375
46	0x3eeae44d	0.45877305
47	0x3f502ca9	0.81318146
48	0xbf9517cb	-1.1647886
49	0x3dc1052c	0.094248146
50	0x3f60d31b	0.8782212
51	0xbe11000a	-0.14160171
52	0x3c1bb707	0.009504086
53	0xbecdf09a	-0.40222627
54	0x3da9045d	0.08252785
55	0xbda5f972	-0.081042185
56	0x3f460397	0.7734923
57	0xbfe12f65	-1.7592589
58	0xbefdbca9	-0.49558
59	0x3f5628cd	0.8365601
60	0xbec26c7a	-0.37973386
61	0xbe87b774	-0.2650715
62	0xbe6f0530	-0.23341823
63	0xbde412d0	-0.11136401
64	0xbe9729be	-0.29524034
65	0xbf4efb62	-0.8085233
66	0x3f2327f6	0.6373285
67	0x3e3cd422	0.18440297
68	0x3f7d436e	0.98931015
69	0x3ea1da5e	0.31611913
70	0xbe1cc9e2	-0.15311387
71	0xbc09a180	-0.008400321
72	0xbe0171a2	-0.12641004
73	0xbe99d3e2	-0.30044466
74	0xbdff6730	-0.12470853
75	0x3f6aa5bc	0.9165914
76	0x3f48aebf	0.7839164
77	0xbee63983	-0.44965753
78	0xbeea2961	-0.45734695
79	0xbf1b873f	-0.60753244
80	0xbe8219a6	-0.25410193
81	0x3dd653e4	0.104652196
82	0x3eabf421	0.33584693
83	0xbf499b92	-0.78753006
84	0xbf5f569f	-0.8724155
85	0x3cabc220	0.02096659
86	0xbe471102	-0.19440082
87	0xbed7769d	-0.42082682
88	0xbe56179e	-0.20907447
89	0x3ecb370c	0.39690435
90	0x3dcedf4b	0.101011835
91	0xbe8736aa	-0.26408893
92	0xbf58ea1a	-0.8473221
93	0xbe35d053	-0.1775525
94	0x3f9128fd	1.1340634
95	0xbe64b872	-0.22335985
96	0xbec74870	-0.38922453
97	0xbed8f49c	-0.42374122
98	0x3e579798	0.21053922
99	0xbdf90bdc	-0.12160465
100	0x3e897ec2	0.2685452
101	0xbf1c0772	-0.6094886
102	0xbf0d73f5	-0.5525506
103	0x3f77d6c3	0.96812075
104	0x3e1ed33c	0.15510267
105	0xbda75eb4	-0.0817236
106	0x3c2e1fc0	0.010627687
107	0xbdbcca74	-0.09218302
108	0xbe9f29b8	-0.31086516
109	0xbe2eb968	-0.17062914
110	0x3d79a183	0.060945045
111	0xbe7227dd	-0.23648019
112	0xbadd3c6c	-0.0016878969
113	0xbe412eb1	-0.18865468
114	0x3dadb8a7	0.08482485
115	0x3e43e13d	0.1912889
116	0xbf3f064f	-0.74619
117	0xbe998a57	-0.29988357
118	0xbea3bc9e	-0.3197984
119	0x3e5971b3	0.21234779
120	0xbe28dfad	-0.16491576
121	0xbe823b3d	-0.2543582
122	0xbf480c65	-0.7814391
123	0xbf4ae927	-0.7926201
124	0x3f833160	1.0249443
125	0x3e6f23cd	0.233535
126	0xbf14d5b8	-0.5813861
127	0xbe778ad0	-0.24174047
128	0xbd9c3661	-0.076275595
129	0xbe571b3f	-0.21006487
130	0xbe93f643	-0.2889882
131	0x3fc0f7d7	1.5075635
132	0x3f5ad6c4	0.85483956
133	0xbdeda3d0	-0.116035104
134	0xbea80ed4	-0.32823813
135	0x3d8f9840	0.07011461
136	0xbed1fc28	-0.41012692
137	0xbe1809fa	-0.14847556
138	0x3e26144c	0.1621868
139	0x3e75d158	0.2400564
140	0x3e32c009	0.17456068
141	0xbdba1a93	-0.090871
142	0xbd8fbcb2	-0.07018413
143	0xbf485cf6	-0.7826685
144	0xbc660daf	-0.014041348
145	0xbdcb18a6	-0.09916811
146	0xbe2974d4	-0.16548473
147	0xbc8544ba	-0.016268123
148	0x3e851f4b	0.26000437
149	0xbefbb62a	-0.49162418
150	0x3ef5f8f2	0.48041493
151	0xbfc61fec	-1.5478492
152	0x3e69654c	0.22792548
153	0xbf331440	-0.69952774
154	0x3f00ca6c	0.5030887
155	0x3eea8970	0.45807981
156	0x3e9e46af	0.30913302
157	0xbeab7dcc	-0.33494413
158	0xbf03a70d	-0.51426774
159	0xbed51f4f	-0.4162545
160	0xbe1814ba	-0.14851657
161	0x3cd8c5f0	0.026461571
162	0xbe94c21a	-0.29054338
163	0x3e1a2a4c	0.15055197
164	0x3e3e53bc	0.1858663
165	0x3df0ba00	0.11754227
166	0xbe461811	-0.19345118
167	0xbd633240	-0.055467844
168	0x3e03fdf0	0.12889838
169	0xbf19d145	-0.60084945
170	0xbe288426	-0.1645666
171	0xbebbd650	-0.36686945
172	0xbeac803b	-0.33691582
173	0xbeab0dbe	-0.33408922
174	0x3e0cef00	0.13763046
175	0xbf3abce3	-0.7294447
176	0x3f75c164	0.95998216
177	0x3e9d89fb	0.30769333
178	0x3f05b27e	0.5222548
179	0x3d7ea109	0.062165294
180	0xbe7d7734	-0.24752504
181	0xbf79cf1b	-0.9758164
182	0x3ea2ae38	0.31773543
183	0xbf2f6240	-0.6850929
184	0x3e074330	0.13209224
185	0xbe569cc3	-0.20958237
186	0xbece00e2	-0.4023505
187	0xbeeab09a	-0.4583786
188	0x3f6cc2db	0.92484826
189	0xbf7b961a	-0.9827591
190	0xbe167562	-0.14693215
191	0xbee61d9f	-0.44944474
192	0xbfb193f0	-1.3873272
193	0xbccfa0a2	-0.02534515
194	0xbe81317c	-0.25233066
195	0xbe07ec9f	-0.13273858
196	0x3f95e2c3	1.1709827
197	0x3eed578a	0.4635585
198	0xbf866515	-1.0499598
199	0x3ee9bd9a	0.45652467
200	0xbeb5c4c9	-0.35501698
201	0x3ff04ab7	1.8772801
202	0x3f0ead1b	0.5573289
203	0xbf796ef9	-0.97434956
204	0xbec7939a	-0.389798
205	0xbea32bac	-0.31869256
206	0xbe717fc5	-0.23583896
207	0xbeb6094a	-0.35553962
208	0xbe10121c	-0.14069408
209	0xbee4b8b1	-0.44672158
210	0xbd441910	-0.047875464
211	0x3ec0c026	0.37646598
212	0xbed02ad8	-0.40657687
213	0xbe6e9433	-0.23298721
214	0xbda89364	-0.082312375
215	0xbd95e318	-0.07318705
216	0xbe68fc0d	-0.227524
217	0xbedf441d	-0.43606654
218	0xbe3402b8	-0.17579162
219	0xbe43867a	-0.19094267
220	0x3c393293	0.011303562
221	0xbf27c708	-0.6553807
222	0xbec68162	-0.38770586
223	0x3eff6ad5	0.49886194
224	0xbf87bcc9	-1.0604488
225	0xbdb7a161	-0.089663275
226	0x3ed4ae8a	0.41539413
227	0xbf88cd6d	-1.0687691
228	0xbeddebab	-0.43343863
229	0x3f10a7c8	0.56506014
230	0x3dbd27b0	0.092360854
231	0xbb5a2f00	-0.0033292174
232	0xbede1368	-0.4337418
233	0xbea4990c	-0.32148015
234	0x3d1bc1b0	0.03802651
235	0xbf2df56a	-0.679526
236	0xbef34b09	-0.47518185
237	0x3ec6db64	0.38839257
238	0x3f661c91	0.8988734
239	0xbe84594d	-0.2584938
240	0xbed2e911	-0.4119344
241	0x3df0aa80	0.1175127
242	0xbc3c8fc0	-0.011508882
243	0xbe7b3428	-0.24531615
244	0xbee06b04	-0.43831646
245	0xbf48c5d3	-0.78426856
246	0xbeb9bd61	-0.36277297
247	0xbe27c628	-0.16384184
248	0x3f6060c9	0.8764768
249	0x3f353eec	0.70799136
250	0xbe896510	-0.26834917
251	0x3febf831	1.8435117
252	0x3f3d995b	0.74062127
253	0xbf618be1	-0.88104063
254	0xbd83231a	-0.064031795
255	0xbdcdd8fe	-0.100511536

layers.0.bias f4 [64]
0	0xbeea6ee1	-0.4578772
1	0x3d0432fb	0.03227518
2	0x3edcf347	0.43154356
3	0x3f235c73	0.6381294
4	0xbf171d15	-0.5902875
5	0xbf187de8	-0.5956712
6	0x3f1ce96e	0.61293685
7	0x3ee1a02d	0.44067517
8	0x3e3d0adc	0.18461174
9	0x3edb2713	0.4280325
10	0xbf4f507b	-0.8098218
11	0x3ed3fdc3	0.41404542
12	0x3ecaff84	0.39648068
13	0xbdb22b19	-0.086996265
14	0xbe9faf56	-0.31188458
15	0xbec9ff84	-0.39452755
16	0x3f84f814	1.0388207
17	0xbecfd59f	-0.40592667
18	0xbead2dbe	-0.3382396
19	0xbd390c98	-0.045178026
20	0xbee9b15f	-0.45643136
21	0xbe38ef0a	-0.18059936
22	0xbe2f041d	-0.17091413
23	0xbdbbdf01	-0.09173394
24	0x3ee863c9	0.4538863
25	0xbdd88f53	-0.10574212
26	0xbed6dc8f	-0.41965148
27	0xbec5e868	-0.38653874
28	0xbe570d69	-0.2100121
29	0x3d3d1a7c	0.046167836
30	0xbe80213b	-0.25025353
31	0xbe3cba83	-0.18430524
32	0xbe81609c	-0.2526902
33	0xbaedc089	-0.0018139045
34	0xbd16a3f8	-0.036777467
35	0xbde20df9	-0.11037821
36	0x3f20b475	0.62775356
37	0x3f13a556	0.5767416
38	0x3f0441e8	0.51663065
39	0x3ce420d2	0.027847681
40	0x3eb7dd12	0.3591085
41	0xbdbaa870	-0.09114158
42	0xbcc9b210	-0.02462104
43	0xbec9fe1b	-0.3945168
44	0x3f25c482	0.6475297
45	0x3f16faf3	0.5897667
46	0xbdaa7808	-0.083236754
47	0x3e233046	0.15936384
48	0xbe91dbda	-0.28488046
49	0xbe3ba546	-0.18324766
50	0x3ca17711	0.019710096
51	0x3ebf6ca5	0.37387577
52	0xbefd6a9c	-0.494954
53	0x3eab52d6	0.33461636
54	0xbe979d7d	-0.29612342
55	0x3d06cc13	0.032909464
56	0xbde68554	-0.11255899
57	0xbd361ed4	-0.044462994
58	0xbf0c5878	-0.5482249
59	0x3eed8a0b	0.4639438
60	0x3ee2d10c	0.44300115
61	0xbe810ea1	-0.25206473
62	0x3ebbe586	0.3669855
63	0xbf0b4a7e	-0.5441054

layers.2.weight f4 [32, 64]
0	0xbf2c35b7	-0.6726946
1	0xbdc458d8	-0.09587258
2	0x3e94d0a5	0.29065433
3	0x3f266c24	0.6500876
4	0x3e5889f1	0.2114637
5	0x3d914279	0.07092757
6	0xbe1cba15	-0.1530536
7	0xbdd37797	-0.10325544
8	0x3e333353	0.17500047
9	0x3df0f63a	0.11765714
10	0x3fb98f8c	1.4496932
11	0x40069f30	2.103466
12	0xbdb19ea6	-0.08672838
13	0x3e9aa0f8	0.30200934
14	0xbd8bc11e	-0.068239436
15	0xbe36dfd9	-0.17858829
16	0xc0a6eeb7	-5.21664
17	0xbdc3048a	-0.0952235
18	0x3f8fd226	1.1236007
19	0xbda3b2d4	-0.07993093
20	0xbe2f7d47	-0.17137633
21	0x3cbb3ef0	0.02285716
22	0x3d2b69cb	0.04184894
23	0x3d978f55	0.07400385
24	0x3edd4b7c	0.43221653
25	0xbd2ced96	-0.042218767
26	0xbea3c722	-0.31987864
27	0x3dd0ee7a	0.10201736
28	0x3d4aff4b	0.049559873
29	0x3defa3a4	0.11701134
30	0x3fbc42ef	1.4707927
31	0xbde4cf53	-0.111723565
32	0xbdcc7370	-0.099829555
33	0x3d98a0fd	0.07452581
34	0xbdbce330	-0.0922302
35	0x3e2b78d6	0.16745314
36	0x3f23cf2c	0.63987994
37	0xbfc0f647	-1.5075158
38	0x4085043d	4.1567674
39	0xbe0e4a8e	-0.13895628
40	0xbeb28097	-0.3486373
41	0x3d9807ac	0.07423338
42	0xbde209fa	-0.11037059
43	0xbddbff20	-0.107420206
44	0xc0361f95	-2.8456776
45	0xbeae45d7	-0.3403766
46	0xbdaf9cf2	-0.08574857
47	0xbe2ff1fe	-0.17182156
48	0xbd896b28	-0.067098916
49	0x3fb6e3a1	1.4288217
50	0x3e9d6a4d	0.30745164
51	0x3fd4c892	1.6623709
52	0x3fc771fb	1.5581659
53	0x3db6ab8e	0.0891944
54	0x3d9b6d1b	0.075891696
55	0xbea34f7a	-0.31896573
56	0xbdf62e4a	-0.12020548
57	0x3c7a5938	0.0152800605
58	0x3eb21bc0	0.34786797
59	0x3e8e7db2	0.27830273
60	0xbe046d6b	-0.12932365
61	0x3da43787	0.080184035
62	0x3f23faf2	0.6405479
63	0x3e36b7a8	0.17843497
64	0xbf700aa1	-0.9376622
65	0xbd147220	-0.03624165
66	0x3f8706ae	1.0548913
67	0xc18c2aab	-17.520834
68	0x3e90c99c	0.28278816
69	0x3ef1b386	0.47207278
70	0x3f0edd83	0.5580675
71	0x40052d0c	2.0808744
72	0xbf6ee3d3	-0.9331638
73	0xbd8cfa75	-0.068837084
74	0x403a9673	2.9154327
75	0xc0a0c63a	-5.0241976
76	0xbdaadb24	-0.08342579
77	0x3fb20b59	1.3909713
78	0xbd322374	-0.043490842
79	0x408a770e	4.327033
80	0x3e9599ce	0.29218906
81	0xbd711a90	-0.058863223
82	0xbea7465b	-0.32670864
83	0xbd3a5080	-0.045486927
84	0x3d2b3142	0.041795023
85	0xbc656bb0	-0.0140027255
86	0xbc1ec5f0	-0.009690747
87	0xbe16ddcf	-0.14733051
88	0xbfbc5268	-1.4712648
89	0x3dde0f95	0.10842816
90	0x3e869773	0.26287422
91	0x3d6549a4	0.055978432
92	0xbe1a4009	-0.1506349
93	0x3dd72019	0.10504169
94	0x3fb6c1a7	1.4277848
95	0x3da5dec8	0.08099133
96	0x3da56d2a	0.08077462
97	0x3e38e00c	0.18054217
98	0x3d046780	0.032325268
99	0xbd33daab	-0.04390971
100	0x3f9a5604	1.20575
101	0x40982c38	4.755398
102	0xbf60bbf4	-0.87786794
103	0xbeb314f1	-0.34976915
104	0x3eafc70b	0.34331545
105	0x3c9049b8	0.017613277
106	0x3d8b56ac	0.06803641
107	0xbdf65590	-0.120280385
108	0x3f06dd8a	0.5268179
109	0xbf62abb1	-0.8854323
110	0x3da88d76	0.082301065
111	0x3fd09b25	1.6297346
112	0x3d97e222	0.07416178
113	0xbe1f665b	-0.1556639
114	0x3e849652	0.25895935
115	0xbf2bc09f	-0.6709079
116	0x40a0cc9f	5.024978
117	0xbf16ca08	-0.58902025
118	0x3e9b9231	0.30384973
119	0xc006e624	-2.1077967
120	0xbd01f4d0	-0.031727612
121	0x3d8adb9d	0.06780169
122	0x3e03a264	0.12854916
123	0x3f15b4b6	0.5847887
124	0x3f5e9f31	0.86961657
125	0x3dcc0a32	0.09962882
126	0x40047804	2.0698252
127	0x3d9f9c48	0.0779348
128	0x3f4588b2	0.77161705
129	0x3c52e160	0.012871116
130	0xbd846513	-0.06464591
131	0x3fb25ab8	1.3933935
132	0x3ea5b169	0.32361916
133	0x3ddb8377	0.10718434
134	0x3edbb501	0.42911533
135	0xbe82d745	-0.25554863
136	0x3e146cfc	0.14494699
137	0x3e2151c6	0.1575385
138	0x3fc0d932	1.5066283
139	0xc1044f9a	-8.269434
140	0xbdf089aa	-0.11745007
141	0x3ea5e675	0.32402387
142	0x3dde40d6	0.1085221
143	0x40b58a7c	5.673155
144	0x3fa80bf3	1.3128647
145	0x3cf01f40	0.029311776
146	0x3df73e98	0.12072486
147	0x3de6ddf4	0.11272803
148	0x3f00c653	0.5030262
149	0xbbe6d400	-0.0070443153
150	0xbe0482f2	-0.12940577
151	0x3d898d51	0.06716407
152	0xbff15874	-1.8855119
153	0xbd81faa9	-0.06346638
154	0xbe6ebe8f	-0.2331488
155	0xbdeaf514	-0.11472526
156	0x3e5a7161	0.21332313
157	0xbd2d0fa4	-0.042251244
158	0x3f130595	0.5743039
159	0x3f1b83e7	0.6074814
160	0xbd618fd8	-0.05506882
161	0x3d2531ca	0.040330686
162	0x3d9b9072	0.0759591
163	0x3e9328f6	0.28742188
164	0x3f0b9cd1	0.5453616
165	0x3e5de247	0.21668349
166	0x40578b28	3.3678684
167	0x3e4db1b5	0.20087321
168	0xbe5134cc	-0.20430297
169	0xbdf50b0c	-0.11964998
170	0x3d981920	0.07426667
171	0x3d277d4c	0.040890977
172	0x3dd01d0b	0.101617895
173	0xbf2e79f1	-0.6815482
174	0x3d6e21a4	0.05813755
175	0x3df9f03d	0.12204025
176	0xbdb33958	-0.08751172
177	0x3f749708	0.95542955
178	0x3f5b8525	0.8575004
179	0x3fd4afde	1.661617
180	0x4082330f	4.0687327
181	0x3ec59daa	0.3859685
182	0xbb8e0465	-0.00433402
183	0x3f65805d	0.8964899
184	0x3db05b9a	0.086112216
185	0x3c1b972a	0.00949649
186	0x3e2f9328	0.1714598
187	0xbe75f1e5	-0.24018057
188	0xbe757754	-0.23971301
189	0xbd06ece5	-0.032940764
190	0xbf0606c5	-0.5235408
191	0x3e03ee21	0.12883808
192	0x3feaeb08	1.8352976
193	0xbda199d3	-0.07890668
194	0xbeff7cd9	-0.4989994
195	0x3ffa9def	1.9579448
196	0x3e964759	0.2935131
197	0x3ece40fb	0.4028395
198	0x3e85ee85	0.26158538
199	0xbe9e5b1d	-0.3092889
200	0xbe4fa48c	-0.20277613
201	0x3e21fed9	0.15819873
202	0x400aca48	2.1685963
203	0xc0eb9d84	-7.362978
204	0xbdc5afd8	-0.0965268
205	0x3f07fe0a	0.5312201
206	0xbc575900	-0.013143778
207	0x409e63ad	4.9496675
208	0x409bd2aa	4.869466
209	0xbcf980d8	-0.030456945
210	0x3d279ffc	0.040924057
211	0x3d7950e4	0.06086816
212	0x3f8afa6d	1.0857674
213	0xbdd1cc64	-0.102440625
214	0x3d91f9b8	0.07127708
215	0x3cc02203	0.023453718
216	0xbec4302b	-0.38318
217	0xbd1e1f5d	-0.03860413
218	0xbde90d9b	-0.11379548
219	0x3d496208	0.049165756
220	0x3e8f8ec8	0.2803862
221	0x3dd7966c	0.105267376
222	0xc03d10e3	-2.9541557
223	0x3ee72c07	0.45150778
224	0x3dc221de	0.09479116
225	0x3d0a8d98	0.03382644
226	0xbd751c24	-0.05984129
227	0x3e7697c5	0.24081333
228	0x3f404162	0.75099766
229	0x3fb2b08b	1.3960127
230	0x405b9ac8	3.431322
231	0x3f3aab01	0.7291718
232	0xbe7ed735	-0.24886782
233	0x3cdb6d18	0.026785418
234	0xbd881684	-0.066449195
235	0x3de01838	0.10942119
236	0x3f006297	0.50150436
237	0xbf97b0ac	-1.1850791
238	0xbdffd758	-0.124922454
239	0x3ec79533	0.38981017
240	0xbd84c764	-0.06483343
241	0x3facaeed	1.3490883
242	0x3fb68373	1.4258865
243	0x3fbe58d2	1.4870856
244	0x408dfdb5	4.43722
245	0x3e3a109e	0.18170401
246	0xbdaf9950	-0.08574164
247	0x3f629a63	0.88516825
248	0x3d5fc3f0	0.05463022
249	0x3d20d7c1	0.03926826
250	0xbcc31762	-0.02381486
251	0xbf2be4f0	-0.67146206
252	0xbda99dcc	-0.082820505
253	0xbe9c2c67	-0.30502626
254	0x3f2da72d	0.67833215
255	0xbd833cf2	-0.06408109

layers.2.bias f4 [32]
0	0xbe60889d	-0.21927114
1	0xbeab7127	-0.33484766
2	0xbd23caca	-0.039988317
3	0xbe295d7f	-0.16539572
4	0x3ed91c72	0.42404515
5	0x3d045638	0.032308787
6	0xbe02852f	-0.12746118
7	0xbe9875bd	-0.29777327
8	0xbe013337	-0.12617193
9	0x3dca1115	0.098665394
10	0x3f4985a3	0.7871954
11	0xbc441992	-0.011968987
12	0x3ec3666d	0.38164082
13	0x3ebd0336	0.36916512
14	0xbd7cd57b	-0.06172703
15	0xbe9076c6	-0.28215617
16	0xbd1bab93	-0.038005423
17	0xbe04ce30	-0.1296928
18	0xbe0824fe	-0.13295361
19	0xbef21429	-0.47281006
20	0x3cda5fb0	0.026656955
21	0x3f09f6a3	0.5389196
22	0x3d39506d	0.045242716
23	0x3e0feed1	0.14055945
24	0xbd3a3f5c	-0.04547058
25	0xbe810342	-0.25197798
26	0x3ccba4f6	0.024858933
27	0x3f61cd7f	0.8820419
28	0x3e06671a	0.13125268
29	0xbdc7c979	-0.09755225
30	0xbe874ac9	-0.26424244
31	0x3f2f6282	0.68509686

layers.4.weight f4 [1, 32]
0	0xbd1ae06e	-0.03781169
1	0x40128a3a	2.2896867
2	0xbf06666f	-0.5250005
3	0xbfdd1b23	-1.7273906
4	0x3fbafb2c	1.4607902
5	0x3b919331	0.0044425954
6	0xbc1acd59	-0.009448373
7	0xbfddca0c	-1.7327285
8	0x3cb0d1d2	0.021584425
9	0xbf4a1480	-0.7893753
10	0x3fa79fe5	1.3095671
11	0xbe7316d5	-0.23739178
12	0xbfb677fd	-1.4255368
13	0x3fe2694c	1.7688384
14	0xbd9dc261	-0.077030905
15	0xbeafc846	-0.34332484
16	0xbea0a0b6	-0.31372613
17	0xc0240fcb	-2.563464
18	0x3e4a5167	0.19757615
19	0xc057544c	-3.36452
20	0x3dacfd5f	0.08446764
21	0x3f941e60	1.157177
22	0xbf2f29fa	-0.68423426
23	0xbf906b19	-1.1282684
24	0x3deddd8a	0.11614521
25	0xbe3dc2bf	-0.18531321
26	0xbf79fbc4	-0.9764979
27	0x3fab6cee	1.3392618
28	0xbf5edeb0	-0.87058544
29	0x3c952f18	0.018210933
30	0xc14b5020	-12.707062
31	0x3fa8c1de	1.3184164
