aeacus/weights/latent.pth (torch, 11991 bytes, 5 tensors)

layers.0.weight f4 [64, 5]
-0.9593247 1.3195517 0.52309704 0.1310554 0.39841405 -0.0081170425 -0.032187205 -0.25838876
0.19454697 0.0059266235 0.3384268 -1.2563987 -0.5077484 0.4294282 1.0060356 -0.23974136
-0.29587245 0.011188537 -0.19162604 -0.16388535 -0.15482289 0.26717192 -0.31793672 0.09479076
-0.12081942 0.18812613 -1.3671016 -0.13148959 0.3848397 0.91362685 -0.24131763 -0.40227598
-0.054956466 -0.07350427 0.1034652 0.30478394 -0.3180121 -0.4150449 -0.14283013 -0.27954334
0.6482795 -1.6089289 -0.29106554 -0.27909848 0.7583304 -0.20676678 0.35319698 0.069722995
-1.7103277 0.37576723 -0.17553902 0.77637005 -0.59339106 -0.4238174 -0.53278506 -0.3520662
0.0066226423 -0.027482241 -0.39084595 -0.25509793 -0.015542954 -0.41993356 -0.40863648 -0.4122702
-0.17665789 -0.14401504 -0.2858942 0.028458783 -0.14551759 0.116382614 -0.6379809 -0.89284015
0.21892878 0.9943761 0.42163113 0.3318172 -1.8052377 0.23596369 0.39708897 0.5635953
-0.05294687 -0.73707616 -0.4292405 0.233621 0.54130006 0.06283516 -0.4412878 -0.28835738
-0.06426096 0.31582713 -0.7083781 1.4682331 0.07581101 -0.021035157 -0.53016174 -0.38193136
0.010060132 -0.3401814 -0.25908417 0.116256356 0.1611166 -1.3749124 -0.86900115 1.1310217
-0.32508516 0.10948648 -0.5202493 1.2487512 0.39965326 -0.63679296 -0.46733633 -0.57951057
0.89766365 0.045431823 -0.37170804 0.44891417 -0.7496383 -0.74788827 0.23186633 0.11778882
-1.1000773 0.22633295 0.19750519 0.7607814 0.000103493745 -1.0627465 -0.5157649 0.034800913
0.69981396 0.74874 0.95507663 0.23142712 -0.042274125 -0.47131872 -0.45340946 -0.11804177
-0.8463879 0.352913 -0.3839033 -0.16601504 -1.0055143 -0.34726617 0.35813525 0.17532757
1.0996836 -1.62336 1.1463225 0.6405867 0.41616634 -0.33242145 -0.27417916 0.9046498
0.013386865 -0.6557694 0.16542597 0.08226192 -0.43280238 -0.27397 0.13147134 -0.3958028
-0.0600037 -0.7419128 1.3251845 0.5590253 -0.5039835 0.18227974 -0.68038106 -1.1729703
-0.0013716186 1.2925326 -0.32649857 0.0023207664 -0.28030294 0.05989611 -0.32464063 0.06997007
0.41294026 -0.1747601 -0.30604035 -0.17467165 -0.071243376 1.1362859 -0.4610387 0.78161037
-1.3864704 -0.36899224 -0.41778147 -0.27672657 -0.2302919 0.24498051 -0.11333442 0.12939131
-0.41301835 -0.2217799 -0.36309367 -0.3721871 0.21570152 -0.28168 -0.42466965 -0.39879388
-0.052542627 -0.20523776 -0.3444758 -0.2784512 -0.054412544 0.097446635 -0.47803003 1.038631
0.34949607 -0.4977456 0.819125 -0.20424649 0.40684614 -0.17825755 0.03384109 0.043312576
-0.113002844 -0.1929169 -0.3816825 0.114276096 -0.15056221 0.80697566 0.7249086 -0.82518435
0.14348178 0.14425135 -0.30969936 -0.39763975 -0.36700967 -0.44452336 0.069403864 -0.81155837
-0.517957 0.784618 -1.1509743 0.26290417 1.5014775 -0.37267378 0.63588357 -0.2917358
-0.000459224 -0.43048128 -0.048002094 -0.23603217 0.16346574 -0.06281718 0.34391952 -1.1382912
-0.31383035 0.76739424 0.99528044 0.020218397 -0.5541107 -0.4748289 -0.19395137 -0.1584962
00000000: 4e96 75bf 12e7 a83f b0e9 053f 6333 063e
00000010: edfc cb3e 58fd 04bc bbd6 03bd 884b 84be
00000020: 5237 473e 1f34 c23b 4746 ad3e acd1 a0bf
00000030: cdfb 01bf 03de db3e c6c5 803f c27e 75be
00000040: 987c 97be 2050 373c 9e39 44be 90d1 27be
00000050: e489 1ebe c2ca 883e 9ac8 a2be a821 c23d
00000060: 2c70 f7bd 23a4 403e 2ffd aebf 35a5 06be
00000070: b609 c53e 73e3 693f f81b 77be 1ef7 cdbe
00000080: 081a 61bd 6889 96bd 90e5 d33d a40c 9c3e
00000090: 7bd2 a2be c480 d4be 1042 12be 4e20 8fbe
000000a0: a5f5 253f 62f1 cdbf 8b06 95be ffe5 8ebe
000000b0: f121 423f acba 53be 3cd6 b43e eeca 8e3d
000000c0: 05ec dabf 9064 c03e 80c0 33be 30c0 463f
000000d0: 7ae8 17bf 98fe d8be 9a64 08bf 0542 b4be
000000e0: c002 d93b 7022 e1bc f61c c8be 329c 82be
000000f0: e0a7 7ebc 8801 d7be cd38 d1be 1415 d3be
00000100: cee5 34be ae78 13be b960 92be 6522 e93c
00000110: 9002 15be 025a ee3d b752 23bf 2c91 64bf
00000120: de2e 603e 6f8f 7e3f 09e0 d73e f2e3 a93e
00000130: 0712 e7bf 77a0 713e 3f4f cb3e c847 103f
00000140: d1de 58bd 06b1 3cbf 69c5 dbbe 583a 6f3e
00000150: a492 0a3f b8af 803d 79f0 e1be 94a3 93be
00000160: 409b 83bd 18b4 a13e 4458 35bf 10ef bb3f
00000170: ce42 9b3d ec51 acbc aeb8 07bf 828c c3be
00000180: 40d3 243c 422c aebe aea6 84be d017 ee3d
00000190: c0fb 243e 21fd afbf dc76 5ebf 52c5 903f
000001a0: 9071 a6be 733a e03d 0f2f 05bf 14d7 9f3f
000001b0: 5a9f cc3e dd04 23bf b546 efbe ce5a 14bf
000001c0: 49cd 653f b816 3a3d 8450 bebe 14d8 e53e
000001d0: 4ce8 3fbf 9b75 3fbf 5e6e 6d3e 443b f13d
000001e0: 55cf 8cbf d3c3 673e cd3e 4a3e 92c2 423f
000001f0: c80a d938 1408 88bf 2b09 04bf 678b 0e3d
00000200: 0227 333f 6dad 3f3f e77f 743f 3bfb 6c3e
00000210: a227 2dbd b050 f1be 4925 e8be e2bf f1bd
00000220: e1ac 58bf 03b1 b43e f98e c4be d9ff 29be
00000230: b1b4 80bf dfcc b1be 815d b73e 1289 333e
00000240: 6fc2 8c3f 43ca cfbf b2ba 923f 7dfd 233f
00000250: c113 d53e 2533 aabe 3661 8cbe 2197 673f
00000260: 9554 5b3c 81e0 27bf 6d65 293e f078 a83d
00000270: 4698 ddbe cc45 8cbe 6ca0 063e aaa6 cabe
00000280: 71c6 75bd ffed 3dbf a59f a93f 481c 0f3f
00000290: 1005 01bf 8aa7 3a3e 742d 2ebf e423 96bf
000002a0: e2c7 b3ba b571 a53f d22a a7be 0018 183b
000002b0: de83 8fbe a055 753d 4c37 a6be 784c 8f3d
000002c0: e86c d33e 50f4 32be 52b1 9cbe 20dd 32be
000002d0: 0ce8 91bd d171 913f 440d ecbe 9e17 483f
000002e0: dd77 b1bf 8dec bcbe 74e7 d5be 1baf 8dbe
000002f0: a4d1 6bbe 2cdc 7a3e e01b e8bd 287f 043e
00000300: 2477 d3be 451a 63be 6ae7 b9be 4f8f bebe
00000310: dce0 5c3e 5c38 90be 4d6e d9be b62e ccbe
00000320: f036 57bd d929 52be 225f b0be 2891 8ebe
00000330: b0df 5ebd 1a92 c73d 5ac0 f4be dcf1 843f
00000340: 26f1 b23e 83d8 febe 2db2 513f fe25 51be
00000350: 234e d03e 2689 36be f49c 0a3d 8768 313d
00000360: 096e e7bd 028c 45be e36b c3be 9609 ea3d
00000370: fb2c 1abe f595 4e3f 9c93 393f 483f 53bf
00000380: e3ec 123e a0b6 133e ea90 9ebe 7097 cbbe
00000390: b1e8 bbbe 9198 e3be 9d23 8e3d 4ac2 4fbf
000003a0: d498 04bf badc 483f 2053 93bf 609b 863e
000003b0: 6a30 c03f 19cf bebe 44c9 223f 655e 95be
000003c0: 00c4 f0b9 0b68 dcbe d89d 44bd 6bb2 71be
000003d0: 9063 273e 4ba6 80bd 3816 b03e 87b3 91bf
000003e0: 5fae a0be f373 443f b3ca 7e3f 0da1 a53c
000003f0: 33da 0dbf c61c f3be 309b 46be d44c 22be

layers.0.bias f4 [64]
-0.7802797 -0.21195629 -0.6669267 -0.4266214 -0.2535632 -0.57302046 -0.0488908 -0.2764889
-0.28530294 0.100412756 1.0741814 0.083722174 0.09427124 0.034168538 0.028807452 -0.26605403
-0.34025255 -0.4001933 0.73364097 -0.3025991 -0.07965843 -0.3820477 0.42401984 0.07606629
0.27699196 0.46854284 -0.63176054 0.69554937 0.11184001 0.34526062 0.43860385 -0.36897942
-0.6129153 -0.0060421117 -0.23357816 -0.1262677 0.390602 -0.41771728 0.2070632 0.3753103
0.042011797 -0.34621385 -0.9181775 -0.032122895 -0.8310763 0.0008108318 0.61239344 -0.6743037
-0.32108036 0.5326715 -0.2154824 -0.92866683 -0.11697156 -0.2830238 0.8906504 0.71401966
-0.24292313 -0.3648993 -0.47419956 0.7982944 0.13320383 -0.4458406 -0.9025272 -0.74339825
00000000: 69c0 47bf 120b 59be b5bb 2abf 1f6e dabe
00000010: 09d3 81be 78b1 12bf b841 48bd f48f 8dbe
00000020: 3a13 92be 34a5 cd3d c77e 893f 8876 ab3d
00000030: 4811 c13d 4ff4 0b3d 9bfd eb3c 3c38 88be
00000040: 9535 aebe 23e6 ccbe e5cf 3b3f 45ee 9abe
00000050: f523 a3bd c29b c3be 2119 d93e a5c8 9b3d
00000060: e4d1 8d3e d9e4 ef3e 0fbb 21bf 860f 323f
00000070: 600c e53d 00c6 b03e af90 e03e dfea bcbe
00000080: 04e8 1cbf e8fc c5bb 1d2f 6fbe 524c 01be
00000090: fcfc c73e 0adf d5be 6008 543e ac28 c03e
000000a0: 9014 2c3d f142 b1be ae0d 6bbf 4c93 03bd
000000b0: 6bc1 54bf 008e 543a d1c5 1c3f 2b9f 2cbf
000000c0: a564 a4be 295d 083f 6ba7 5cbe 1cbd 6dbf
000000d0: c98e efbd 7fe8 90be aa01 643f fec9 363f
000000e0: d7c0 78be 15d4 babe 49ca f2be 065d 4c3f
000000f0: 9666 083e 3845 e4be 060c 67bf 594f 3ebf

layers.2.weight f4 [32, 64]
-0.6685727 0.018090859 0.5508698 0.09935416 0.06731935 -0.05986774 -0.01678598 -0.051430672
0.92544115 -0.35283428 -0.5416846 -0.007331088 0.08003135 0.10337414 -2.4982889 0.2073882
-1.7598839 0.09617174 -2.52428 0.02353464 -0.49124417 -0.6412002 -2.0088813 0.28870347
-0.14613332 -9.91523 0.18164359 -0.56225634 -1.3760184 -0.0026111752 0.3141827 -0.049298048
-8.393829 0.77968174 0.02470167 -0.06826362 0.58856386 0.07625836 -0.111766085 0.10927741
0.01752901 0.26846826 0.7078833 -0.027407082 -2.281249 0.040640295 0.083760925 -0.55144566
-0.058708593 0.6014979 0.34918177 -7.139652 0.45925212 0.31912157 -0.12537302 -3.0662768
0.055959046 0.040954813 -1.3727714 -0.32676518 -0.1053986 -0.0066950023 -3.2710824 0.07505623
-0.8044122 0.030645372 3.2805257 0.010077 0.12149224 -0.61956567 0.05780591 -0.002142176
-0.5805119 0.07978591 0.38531336 -0.124540254 0.050336033 0.055772174 -0.053955767 -1.0310693
0.7533975 0.11108543 1.0823822 0.02731973 5.0039964 1.1426287 0.6930087 -0.046846893
0.44345623 -0.3460482 3.216666 -0.2431533 0.040299594 -2.7982259 0.23362602 -0.081441686
-0.5556572 -0.29893458 -0.12160978 -0.010051325 -0.2021823 0.06611827 0.07483056 -0.0424197
0.07602526 0.6243156 -0.7565539 0.0029918053 0.05800514 -0.0806918 -0.62207675 0.2486855
-0.015757859 0.46312204 -0.032944255 -3.8254647 -0.3557417 -0.24715666 0.7038452 11.18339
-0.08130701 0.08716296 1.3451555 1.4556704 -0.43320355 0.121853575 -0.55474234 -1.3741345
-0.051609416 0.070751324 0.039984018 0.0600529 -0.05513446 -0.12639391 0.0016629547 0.095291674
0.031606454 -0.013208136 -0.06365059 -0.067584395 -0.12303728 -0.062805444 -0.07258667 0.06863132
0.029099613 0.07576917 -0.10154694 0.010870904 -0.05475828 0.06908311 -0.013446442 -0.13767496
-0.120356716 -0.12326552 0.019014737 -0.100492194 -0.009859001 -0.058715835 -0.021134103 0.02836378
-0.12678374 -0.04385946 0.08139981 0.09840399 0.08477938 0.027031317 0.12193625 -0.07676835
-0.109573394 -0.08890823 -0.027773825 -0.015890032 0.036838353 -0.025769413 0.07652572 -0.11140993
0.06641388 -0.14431019 -0.11012679 -0.12340376 -0.034469478 -0.12172155 0.05446374 -0.068627834
-0.07535094 0.068563536 0.06297059 0.04527606 -0.08618961 0.051355854 -0.0009109301 -0.08362705
-1.1551799 0.071468756 -0.9958019 -0.055902973 -0.12037447 -0.43445894 0.061417654 -0.107004255
0.16815805 0.40964556 0.11102 -0.11162314 -0.060389012 -0.092347056 -0.022622349 0.18498358
-1.6466384 -0.06539963 -0.011053608 -0.016710669 -1.8121605 -0.91405827 0.35660243 0.40953135
0.23690225 -0.8584071 -5.787338 0.31989583 -0.24296278 -0.114290796 -0.3870514 0.03421168
-2.3578236 -0.17760228 -0.08536175 0.09153408 0.71920955 0.009088218 0.028304234 -0.11548185
0.107074395 -0.021734715 0.9406694 0.008442512 -0.70714295 0.030546397 0.77767813 -0.21601054
-0.06614116 -0.64531684 0.5485551 -6.1876593 0.21613668 0.1281231 0.26642174 -4.971473
0.015248135 -0.12349196 -1.4529687 0.406869 0.22600637 0.08404413 -3.02938 -0.14428858
00000000: 9527 2bbf 4833 943c ce05 0d3f 327a cb3d
00000010: bade 893d e037 75bd c082 89bc f8a8 52bd
00000020: b6e9 6c3f b2a6 b4be d8ab 0abf a039 f0bb
00000030: 7ae7 a33d d2b5 d33d f7e3 1fc0 935d 543e
00000040: e043 e1bf b0f5 c43d ce8d 21c0 b8cb c03c
00000050: 5b84 fbbe b225 24bf 8391 00c0 f1d0 933e
00000060: f9a3 15be c8a4 1ec1 c700 3a3e 08f0 0fbf
00000070: 5f21 b0bf 4020 2bbb 8edc a03e c0ec 49bd
00000080: 204d 06c1 3999 473f 285b ca3c cccd 8bbd
00000090: 1fac 163f 582d 9c3d 9ee5 e4bd d6cc df3d
000000a0: 0099 8f3c ac74 893e d737 353f d184 e0bc
000000b0: fcff 11c0 7076 263d d98a ab3d 8b2b 0dbf
000000c0: 6c78 70bd c4fb 193f f4c7 b23e 0778 e4c0
000000d0: 1823 eb3e e763 a33e c961 00be e13d 44c0
000000e0: 5035 653d 3cc0 273d f9b6 afbf c44d a7be
000000f0: 39db d7bd c061 dbbb 6a59 51c0 15b7 993d
00000100: f5ed 4dbf 010c fb3c 22f4 5140 001a 253c
00000110: ecd0 f83d db9b 1ebf e4c5 6c3d c063 0cbb
00000120: 6e9c 14bf cc66 a33d cb47 c53e f60e ffbd
00000130: 282d 4e3d 5d71 643d b900 5dbd 14fa 83bf
00000140: a9de 403f c280 e33d 808b 8a3f a0cd df3c
00000150: bd20 a040 a841 923f 0569 313f 87e2 3fbd
00000160: b20c e33e 3b2d b1be dbdd 4d40 2efd 78be
00000170: 3011 253d 2216 33c0 a93b 6f3e e6ca a6bd
00000180: 8d3f 0ebf f40d 99be 8c0e f9bd 50ae 24bc
00000190: e008 4fbe 0469 873d c440 993d 48c0 2dbd
000001a0: 22b3 9b3d 26d3 1f3f 84ad 41bf 2a12 443b
000001b0: cc96 6d3d be41 a5bd 6c40 1fbf 69a7 7e3e
000001c0: a016 81bc 551e ed3e 8ef0 06bd 6ad4 74c0
000001d0: c723 b6be a316 7dbe 332f 343f 2aef 3241
000001e0: 4a84 a6bd 7e82 b23d 0e2e ac3f 6853 ba3f
000001f0: dbcc ddbe 5e8e f93d 9803 0ebf a4e3 afbf
00000200: 6564 53bd 12e6 903d 48c6 233d 08fa 753d
00000210: acd4 61bd 686d 01be 80f7 d93a 4828 c33d
00000220: c575 013d f066 58bc 3e5b 82bd b069 8abd
00000230: f8fa fbbd 24a0 80bd 52a8 94bd 948e 8c3d
00000240: 5062 ee3c de2c 9b3d d8f7 cfbd e01b 323c
00000250: 384a 60bd 727b 8d3d 774e 5cbc aafa 0cbe
00000260: 957d f6bd a272 fcbd cbc4 9b3c dace cdbd
00000270: a687 21bc 0480 70bd 6d21 adbc 285b e83c
00000280: 99d3 01be faa5 33bd f2b4 a63d 0888 c93d
00000290: d0a0 ad3d c870 dd3c b6b9 f93d ba38 9dbd
000002a0: 0468 e0bd 8515 b6bd ef85 e3bc d02b 82bc
000002b0: d0e3 163d 601a d3bc 84b9 9c3d e42a e4bd
000002c0: 0004 883d 0dc6 13be 288a e1bd 1cbb fcbd
000002d0: de2f 0dbd 2649 f9bd 5f15 5f3d c08c 8cbd
000002e0: 9851 9abd 0a6b 8c3d baf6 803d 6473 393d
000002f0: 2e84 b0bd 845a 523d 7ccb 6eba a944 abbd
00000300: efdc 93bf 365e 923d e0ec 7ebf 84fa 64bd
00000310: e486 f6bd 6771 debe 1491 7b3d 0c25 dbbd
00000320: a031 2c3e 10bd d13e 745e e33d ac9a e4bd
00000330: 785a 77bd 7420 bdbd 8152 b9bc 566c 3d3e
00000340: 0cc5 d2bf 3ef0 85bd 311a 35bc d0e4 88bc
00000350: e0f4 e7bf b9ff 69bf 9894 b63e 18ae d13e
00000360: 8196 723e 91c0 5bbf df31 b9c0 63c9 a33e
00000370: 3ccb 78be 4b11 eabd 9a2b c6be 8c21 0c3d
00000380: 95e6 16c0 5fdd 35be 24d2 aebd 3876 bb3d
00000390: 1e1e 383f c0e6 143c 48de e73c c081 ecbd
000003a0: d249 db3d 000d b2bc b6cf 703f 7652 0a3c
000003b0: 5207 35bf 703c fa3c ea15 473f de31 5dbe
000003c0: 0475 87bd 7c33 25bf 1b6e 0c3f 4e01 c6c0
000003d0: ef52 5d3e b432 033e 6e68 883e 4f16 9fc0
000003e0: 50d3 793c 5ae9 fcbd e1fa b9bf 2251 d03e
000003f0: 376e 673e 541f ac3d 5de1 41c0 63c0 13be

layers.2.bias f4 [32]
0.24723506 0.04537942 0.043018296 0.46135697 0.657459 -0.69648427 0.03885511 -0.22104283
0.043560665 0.44260043 -0.2571646 -0.06240983 -0.4349595 1.1557646 -0.15495397 -0.18519746
0.07492964 0.45979804 -0.25774837 0.049274545 0.013986346 0.18546465 -0.62561053 -0.066795334
-0.5243789 0.15747094 -0.22059517 -0.045261364 -0.0053424533 -0.021750601 0.66673654 -0.6873504
00000000: 302b 7d3e c5df 393d f433 303d fb36 ec3e
00000010: 3c4f 283f cb4c 32bf 8926 1f3d 0d59 62be
00000020: ab6c 323d 869c e23e 14ab 83be 73a1 7fbd
00000030: 03b3 debe 18f0 933f 41ac 1ebe 67a4 3dbe
00000040: b674 993d a66a eb3e 98f7 83be 1bd4 493d
00000050: fd26 653c 72ea 3d3e 0328 20bf fecb 88bd
00000060: b23d 06bf 1040 213e b3e3 61be fb63 39bd
00000070: bf0f afbb 512e b2bc 3faf 2a3f 32f6 2fbf

layers.4.weight f4 [1, 32]
3.616243 -9.558923 0.12075008 1.126973 2.4169328 -4.9818254 0.008735352 -1.9117728
2.3824003 -1.9240372 -9.715677 0.12645273 3.95453 2.375596 -4.5441074 -0.80072516
-4.985844 0.99230987 -1.3644487 -0.0655269 -1.8169713 -3.8047059 -3.5645037 -0.15000044
4.644106 -2.510452 -3.2995808 4.362815 -2.9545228 -2.7718527 1.3839779 -3.0305998
00000000: 8670 6740 59f1 18c1 d14b f73d a740 903f
00000010: 07af 1a40 1d6b 9fc0 b91e 0f3c f9b4 f4bf
00000020: 3f79 1840 da46 f6bf 6a73 1bc1 d37c 013e
00000030: 0517 7d40 c409 1840 5469 91c0 53fc 4cbf
00000040: 098c 9fc0 0508 7e3f 41a6 aebf f832 86bd
00000050: 8492 e8bf 4d80 73c0 d420 64c0 b799 19be
00000060: 849c 9440 3fab 20c0 552c 53c0 2e9c 8b40
00000070: e716 3dc0 0966 31c0 3026 b13f 59f5 41c0
