aeacus/weights/smote_with_vae.pth (torch, 11991 bytes, 5 tensors)

layers.0.weight f4 [64, 5]
-0.6919452 1.0228039 -0.013323822 0.40674776 -0.07784142 0.27805063 -1.1041912 -0.92465216
0.43823162 0.10253762 -0.05355543 -0.24871264 -0.3175866 -0.057667553 0.045338392 -1.3357688
0.046008635 0.2241572 0.36618903 0.15187815 0.1576073 0.77170444 -0.0031320285 -0.6421355
-0.6964064 -1.2893515 0.083451 0.2629436 0.41276228 0.3905558 0.26353857 -0.5123261
-0.7959573 0.2987042 0.78756565 -0.120735556 0.33041316 -0.39173144 -0.021931589 0.11340934
-0.5543969 0.647808 0.76508504 0.52468705 -0.46100295 -0.025614142 0.07237792 -0.1798718
-0.33128586 -0.16692963 -0.86541605 -1.1549964 0.2870393 0.61754656 0.6801643 -1.0293944
0.86262244 0.24405944 -0.6516123 0.06671563 0.5218335 -1.0998299 -0.6700437 0.5583952
0.25533077 0.9862084 0.50346255 -0.7193146 -0.9715888 -0.30074054 -0.18172711 0.08190811
-0.33723208 -0.19668776 -0.040375262 -0.1815147 0.26476568 -0.15879813 0.023742102 0.040774666
0.02470053 -1.2369192 0.49396083 -0.0193516 0.24366808 0.21872105 0.7316052 -0.22695993
-1.0536127 0.5828882 -0.12410024 -0.13391247 -0.16806334 -0.042951345 -0.15187201 -0.14706296
0.036926568 -0.22371006 -0.10394275 -0.24051203 0.3838045 -0.6643012 0.64459044 0.42600343
-1.0741537 1.0341666 -0.099534206 0.25161666 -0.6085559 -0.12218167 0.5923708 0.031238716
-0.6114196 -0.28645957 -0.09106587 0.87457716 -0.45343634 -0.46525133 0.14834692 -0.04375394
-0.19762845 -0.16587657 0.99587125 0.5563559 -0.56695116 -0.6016941 0.8591087 0.02392952
0.5958535 -0.68822753 0.7513613 0.08020686 -0.076088764 -0.2678385 -0.44546953 -0.6702831
0.75921726 -0.27443868 0.83226883 0.7065055 -0.23354219 0.20144793 0.43912864 -0.53149515
-0.67384714 0.5010493 -1.0293133 0.71177024 -0.09720653 -0.22286393 0.46767876 1.5356445
-0.37221158 0.16690154 -0.37517223 -0.022288926 1.9845501 -0.26449242 0.43395507 -0.8033724
-0.04413692 1.609982 -0.028299564 -0.14101301 0.17771712 -0.46830353 1.4209242 0.5767681
-1.3321403 -1.1156794 -0.4395758 -0.15325913 -0.12719595 -0.4468042 -0.21364518 -0.068147525
1.9369078 -0.18488593 0.11377889 -0.9855957 0.10785579 -0.9481435 -0.5567882 0.11652226
1.2220191 -0.030046016 -0.43972144 -0.33574504 -0.11915001 0.24228966 -0.9191728 0.92919564
0.15380868 -0.16500175 0.029718833 -0.25360957 0.73480916 -0.6848501 0.3027558 -0.123358116
-0.349375 -0.22036943 -0.37748206 0.35480767 -0.36711377 0.2502897 -1.1674224 -0.35717526
0.76881176 1.0337356 -0.2713929 0.056064904 -0.33273345 -0.30885994 -0.39283913 0.73621935
-0.31796426 0.18927799 -0.6833477 -1.3635882 -0.43890256 -0.10779032 -0.20546925 -0.28171134
-0.18177328 -0.45343354 0.38956234 0.44599253 -1.0772761 -0.46501946 -0.7618779 0.099702366
-0.86340463 -0.13404047 0.65576375 0.272914 -0.39040884 -0.38444114 0.27015954 -0.38017687
-0.95660853 -0.0018985108 0.43299785 -0.90577376 0.95632243 0.19196086 -0.052083835 -0.26281023
-0.3203997 -0.2393882 -0.45370394 -0.5944346 -0.9596274 0.26414216 1.3462228 -0.054792188
00000000: 5223 31bf 3deb 823f 294c 5abc 3e41 d03e
00000010: 536b 9fbd a75c 8e3e 2356 8dbf 01b6 6cbf
00000020: e55f e03e 3eff d13d f05c 5bbd 87ae 7ebe
00000030: b69a a2be d034 6cbd c0b4 393d 79fa aabf
00000040: 8d73 3c3d 7789 653e 217d bb3e f285 1b3e
00000050: cf63 213e 6c8e 453f b842 4dbb fe62 24bf
00000060: b147 32bf 7809 a5bf 5ce8 aa3d 8ba0 863e
00000070: 9455 d33e eef6 c73e 87ee 863e ce27 03bf
00000080: dcc3 4bbf c2ef 983e e79d 493f 3444 f7bd
00000090: ea2b a93e 0691 c8be e0a9 b3bc 2843 e83d
000000a0: f5ec 0dbf bfd6 253f 9ddc 433f e451 063f
000000b0: 9408 ecbe c0d4 d1bc e03a 943d 5030 38be
000000c0: 4d9e a9be 9aef 2abe e88b 5dbf ecd6 93bf
000000d0: d1f6 923e 8817 1e3f 3f1f 2e3f 32c3 83bf
000000e0: d3d4 5c3f b8ea 793e 10d0 26bf 34a2 883d
000000f0: e196 053f 3ac7 8cbf fc87 2bbf fdf2 0e3f
00000100: b7ba 823e 2778 7c3f ece2 003f 0025 38bf
00000110: 0bba 78bf aafa 99be ac16 3abe 70bf a73d
00000120: afa9 acbe 8468 49be 8860 25bd fdde 39be
00000130: 5e8f 873e fa9b 22be cc7e c23c 5603 273d
00000140: c458 ca3c 5e53 9ebf 6fe8 fc3e 3f87 9ebc
00000150: 2084 793e 69f8 5f3e 7a4a 3b3f 2f68 68be
00000160: c8dc 86bf 2938 153f 4428 febd 5a20 09be
00000170: cc18 2cbe c0ed 2fbd 5684 1bbe ac97 16be
00000180: 5040 173d 4014 65be f0df d4bd c948 76be
00000190: 0682 c43e a50f 2abf e103 253f 1f1d da3e
000001a0: de7d 89bf 925f 843f 97d8 cbbd e6d3 803e
000001b0: 52ca 1bbf 623a fabd 9da5 173f 56e8 ff3c
000001c0: ff85 1cbf d4aa 92be be80 babd 4ae4 5f3f
000001d0: cf28 e8be 6c35 eebe 41e8 173e 5537 33bd
000001e0: 1d5f 4abe 8cdb 29be 6bf1 7e3f 576d 0e3f
000001f0: b623 11bf a008 1abf 8cee 5b3f d707 c43c
00000200: db89 183f ae2f 30bf 3759 403f 7f43 a43d
00000210: 6dd4 9bbd 2122 89be 9514 e4be ac97 2bbf
00000220: 105c 423f 3a83 8cbe 920f 553f 8bdd 343f
00000230: af25 6fbe 5e48 4e3e 78d5 e03e 1110 08bf
00000240: 3f81 2cbf c444 003f 8ac0 83bf 9336 363f
00000250: 3814 c7bd 7136 64be 9773 ef3e 0090 c43f
00000260: 8492 bebe 3de8 2a3e 9316 c0be 4497 b6bc
00000270: bd05 fe3f 8d6b 87be 5c2f de3e d0a9 4dbf
00000280: eac8 34bd e413 ce3f 7dd4 e7bc b765 10be
00000290: 7afb 353e 7bc5 efbe d8e0 b53f 13a7 133f
000002a0: 9383 aabf 95ce 8ebf 1410 e1be f6ef 1cbe
000002b0: a83f 02be 85c3 e4be cdc5 5abe ee90 8bbd
000002c0: 98ec f73f bd52 3dbe e804 e93d 0050 7cbf
000002d0: 7fe3 dc3d 88b9 72bf ac89 0ebf 39a3 ee3d
000002e0: 1f6b 9c3f 1023 f6bc 2b23 e1be c6e6 abbe
000002f0: ec04 f4bd c81a 783e e94e 6bbf c4df 6d3f
00000300: 0680 1d3e 38f6 28be e974 f33c 1dd9 81be
00000310: 741c 3c3f 5652 2fbf cf02 9b3e 2ea3 fcbd
00000320: 48e1 b2be 86a8 61be 5445 c1be 5aa9 b53e
00000330: 56f6 bbbe f925 803e 196e 95bf addf b6be
00000340: d9d0 443f 7351 843f 03f4 8abe 50a4 653d
00000350: 0a5c aabe e422 9ebe 3622 c9be df78 3c3f
00000360: 36cc a2be 17d2 413e e0ef 2ebf 0f8a aebf
00000370: d6b7 e0be 2cc1 dcbd 8866 52be 783c 90be
00000380: c622 3abe 7128 e8be b774 c73e 2259 e43e
00000390: 2fe4 89bf 0817 eebe 6e0a 43bf c130 cc3d
000003a0: 1608 5dbf e841 09be 22e0 273f 62bb 8b3e
000003b0: abe3 c7be 78d5 c4be 5a52 8a3e 8ba6 c2be
000003c0: 4ce4 74bf 74d7 f8ba e5b1 dd3e cae0 67bf
000003d0: 8cd1 743f 6391 443e dc55 55bd 108f 86be
000003e0: 6e0b a4be 2e22 75be e24b e8be de2c 18bf
000003f0: 24aa 75bf a43d 873e 0751 ac3f c66d 60bd

layers.0.bias f4 [64]
0.17148626 0.41999018 -0.18262744 0.7404246 0.9249006 0.34117293 -0.27160126 -0.04679829
-0.8414161 -0.14271364 0.21642207 -0.574453 -0.66667545 0.097381696 0.017294466 -0.21849687
-0.30241024 -0.220449 -0.28962636 -0.3052538 -0.4017174 -1.417703 -0.112098366 -0.16303521
-0.81632555 0.5160501 -0.4543443 -0.5785911 0.8415986 -0.64219 -0.49324122 0.008124969
-0.4957776 0.94833565 -0.11612433 0.24208535 -0.4468898 -0.0972749 0.5065953 0.67122805
0.006576687 -0.83407426 0.092075646 0.18869175 -0.15470693 1.1275966 0.9545975 -0.42687342
0.053388484 -0.077628486 0.13032512 -0.6267343 -0.2918679 -0.29243723 0.67885107 0.79630613
0.17289996 0.65766096 0.89160866 -0.030138372 -1.0651312 0.72970396 0.9815513 0.6723457
00000000: 189a 2f3e f408 d73e b002 3bbe 778c 3d3f
00000010: 49c6 6c3f 38ae ae3e 520f 8bbe 90af 3fbd
00000020: 0c67 57bf 8623 12be bf9d 5d3e 5a0f 13bf
00000030: 3eab 2abf 0e70 c73d 20ad 8d3c a5bd 5fbe
00000040: 84d5 9abe 62bd 61be e849 94be 3a4a 9cbe
00000050: e7ad cdbe 4b77 b5bf d493 e5bd b4f2 26be
00000060: b6fa 50bf dc1b 043f d19f e8be 8c1e 14bf
00000070: 0173 573f 9066 24bf 1d8a fcbe 971e 053c
00000080: 90d6 fdbe 20c6 723f 98d2 edbd 39e5 773e
00000090: bdce e4be 1038 c7bd 3bb0 013f 9ad5 2b3f
000000a0: 4081 d73b e485 55bf 2892 bc3d 6938 413e
000000b0: 7e6b 1ebe 1655 903f 8060 743f 278f dabe
000000c0: e2ad 5a3d affb 9ebd f373 053e a971 20bf
000000d0: b66f 95be 55ba 95be 2fc9 2d3f b8da 4b3f
000000e0: b00c 313e 785c 283f 7740 643f bfe4 f6bc
000000f0: 3856 88bf e1cd 3a3f f246 7b3f d91e 2c3f

layers.2.weight f4 [32, 64]
-0.163996 -0.08628835 0.0757124 -0.15076783 -0.10273802 0.0050727474 0.03950234 -0.030072436
-0.0466471 -0.08942549 0.050720382 -0.08508856 0.0012763288 -0.14606647 0.091477916 -0.08212461
-0.13257204 -0.12310033 0.10800162 -0.029736057 -0.124821104 0.0857454 0.005686368 -0.0055958615
-0.13035282 -0.127349 -0.09622581 0.008885321 -0.027984852 -0.018285593 -0.0039116144 -0.034520432
-0.0058345543 -0.050030064 -0.04485391 -0.18304586 -0.08542332 0.08719069 0.0693547 -0.17462091
-0.06389834 -0.13489854 -0.12479295 0.022051599 0.058094725 -0.13208994 0.032333862 -0.07164587
0.061196707 0.086611375 -0.073475145 -0.05649028 -0.15228917 0.026412854 -0.15262997 -0.14365943
-0.028554335 -0.018414846 -0.10020651 -0.15768631 -0.14337473 -0.16099368 0.0026533515 0.027203329
-0.39502516 0.1905745 0.10032755 0.54343486 0.5368085 -0.93523324 -0.09684966 0.10198122
0.28002873 -0.105816394 0.072203636 -5.7784424 2.3225157 0.1392607 -0.121334404 0.046681717
-0.2460982 0.21006306 -0.076918885 -0.08714518 -0.03053774 2.7977173 -0.3851686 -0.5027926
-0.7821922 -0.09287083 -0.587628 -0.82304573 0.2723597 0.26360166 0.48309493 -0.55828637
0.48121512 -0.737511 -0.058517262 0.80224 -0.54674375 0.0029487014 -0.00690624 -0.31561005
0.062417835 0.28764346 0.08138025 0.2593782 0.039035186 0.39615294 1.6170009 -0.114039555
-0.8495153 -0.0041718013 -0.49710867 0.12889527 0.8727385 -0.5330513 1.1775409 1.0199368
0.119972914 0.3182959 0.34588253 1.7362387 0.16152081 -0.25969082 -0.16843817 -0.005052543
-0.09535043 -0.1007746 0.004833102 -0.066702604 -0.10790788 -0.02830175 -0.011473349 0.06531906
-0.055986624 0.057334468 -0.0054440303 0.02826001 0.02048254 0.07333659 -0.036129594 -0.09166472
-0.14748788 -0.06689039 0.09086549 -0.04767528 0.041966382 -0.08384961 -0.13750339 0.059938584
-0.07754893 -0.08740947 -0.07117482 0.06502 0.06315565 -0.09222188 -0.16772734 0.06224865
-0.07341454 -0.033548158 0.09547208 -0.15038948 0.07172258 0.0757404 -0.10421711 0.08265998
0.107093304 -0.1408376 -0.081964836 -0.14517333 -0.047055125 -0.10267149 0.08077121 0.054305658
-0.023860797 0.030658528 -0.05129154 0.023543097 -0.09890522 -0.12030847 -0.0809412 -0.057301115
-0.096484974 -0.042602897 0.048733637 0.11455784 -0.10184715 -0.07955348 -0.04336551 -0.025444103
-0.5536056 0.5063858 -0.10113135 0.91372913 -0.4326106 0.46405888 -0.15677853 -0.10703024
-0.5963902 -0.08395076 0.8254469 -0.7194799 -0.241537 0.982201 0.11317426 0.042691294
0.22063011 1.1671348 0.11169532 0.040839344 0.27432045 -2.522292 -0.13029252 0.33680958
-0.23128913 -0.1006334 0.6231797 -0.7666817 -0.19920775 0.3201344 0.37873757 0.64896476
0.13514368 -2.8895066 0.05519657 -0.38377914 -0.4349861 0.019011185 -1.0388006 0.10607354
-0.039829478 -0.46401197 0.039602563 -0.043649767 -0.111751854 -0.5484145 -3.6679678 -0.082926035
0.062737025 0.036376223 -1.7991239 -0.21032713 0.8286643 0.34174293 -3.4313133 0.438121
-0.0696965 0.14656933 -2.316859 -0.31384057 -0.5014727 0.1422174 -0.5640047 -0.0046223593
00000000: 91ee 27be f2b7 b0bd 1a0f 9b3d e262 1abe
00000010: 5068 d2bd 4a39 a63b 35cd 213d 785a f6bc
00000020: 0811 3fbd b624 b7bd 2dc0 4f3d e942 aebd
00000030: 7d4a a73a 7392 15be c658 bb3d f330 a8bd
00000040: f7c0 07be 071c fcbd f42f dd3d 0899 f3bc
00000050: 35a2 ffbd 499b af3d b654 ba3b 7d5d b7bb
00000060: 367b 05be c767 02be 0a12 c5bd bd93 113c
00000070: 7d40 e5bc abcb 95bc 002d 80bb 4c65 0dbd
00000080: ca2f bfbb 53ec 4cbd bcb8 37bd 6070 3bbe
00000090: 6cf2 aebd 0891 b23d d609 8e3d d3cf 32be
000000a0: 22dd 82bd d822 0abe 7293 ffbd 8ea5 b43c
000000b0: bcf4 6d3d 9642 07be 8370 043d 12bb 92bd
000000c0: 66a9 7a3d 4e61 b13d 237a 96bd 5a62 67bd
000000d0: b1f1 1bbe c55f d83c 084b 1cbe 751b 13be
000000e0: c8ea e9bc bbda 96bc 1239 cdbd 8578 21be
000000f0: d3d0 12be 87db 24be dae3 2d3b 84d9 de3c
00000100: bd40 cabe f625 433e 8878 cd3d 8c1e 0b3f
00000110: 486c 093f 726b 6fbf 1d59 c6bd 88db d03d
00000120: ed5f 8f3e 44b6 d8bd 80df 933d 00e9 b8c0
00000130: 19a4 1440 5b9a 0e3e 2c7e f8bd 5435 3f3d
00000140: 2b01 7cbe c51a 573e a687 9dbd 2c79 b2bd
00000150: 482a fabc cd0d 3340 d234 c5be 04b7 00bf
00000160: bf3d 48bf 1033 bebd ca6e 16bf 20b3 52bf
00000170: bb72 8b3e ccf6 863e 3858 f73e dbeb 0ebf
00000180: d461 f63e 85cd 3cbf ccaf 6fbd 9a5f 4d3f
00000190: 66f7 0bbf 003f 413b bd4d e2bb a497 a1be
000001a0: d8a9 7f3d 0146 933e b0aa a63d 38cd 843e
000001b0: 5ce3 1f3d 8fd4 ca3e e3f9 ce3f 928d e9bd
000001c0: d679 59bf 9bb3 88bb 0785 febe 1ffd 033e
000001d0: ca6b 5f3f 0d76 08bf a9b9 963f 4a8d 823f
000001e0: 5cb4 f53d aef7 a23e 8417 b13e 123d de3f
000001f0: b665 253e 32f6 84be 0e7b 2cbe cd8f a5bb
00000200: 1647 c3bd ea62 cebd 005f 9e3b 609b 88bd
00000210: cefe dcbd 12d9 e7bc b7fa 3bbc 00c6 853d
00000220: 3b52 65bd 8cd7 6a3d d663 b2bb 8981 e73c
00000230: 00cb a73c 7e31 963d a0fc 13bd b6ba bbbd
00000240: 1007 17be d4fd 88bd b017 ba3d 2847 43bd
00000250: f1e4 2b3d 58b9 abbd b0cd 0cbe 2982 753d
00000260: f9d1 9ebd bc03 b3bd 1bc4 91bd 3529 853d
00000270: c057 813d d3de bcbd b7c0 2bbe 71f8 7e3d
00000280: 5d5a 96bd cb69 09bd de86 c33d b3ff 19be
00000290: 4ae3 923d c81d 9b3d c86f d5bd a349 a93d
000002a0: bc53 db3d bb37 10be 2edd a7bd 51a8 14be
000002b0: e0bc 40bd 6e45 d2bd 606b a53d 9c6f 5e3d
000002c0: b877 c3bc 9827 fb3c 1417 52bd 74dd c03c
000002d0: d28e cabd 4a64 f6bd 80c4 a5bd 93b4 6abd
000002e0: ea99 c5bd 6080 2ebd ec9c 473d 4d9d ea3d
000002f0: 3d95 d0bd efec a2bd 08a0 31bd 2770 d0bc
00000300: 19b9 0dbf 80a2 013f f41d cfbd 27ea 693f
00000310: 237f ddbe 2099 ed3e 8d8a 20be ac32 dbbd
00000320: 07ad 18bf 60ee abbd 7d50 533f d62f 38bf
00000330: 7a55 77be 8671 7b3f e8c7 e73d 11dd 2e3d
00000340: dcec 613e ac64 953f 84c0 e43d 2847 273d
00000350: bb73 8c3e 3b6d 21c0 676b 05be 4e72 ac3e
00000360: 0fd7 6cbe e218 cebd b488 1f3f 4045 44bf
00000370: 1efd 4bbe a8e8 a33e e4e9 c13e 8e22 263f
00000380: 1b63 0a3e aded 38c0 cc15 623d b37e c4be
00000390: 80b6 debe 58bd 9b3c 6bf7 84bf 163d d93d
000003a0: 3c24 23bd fa92 edbe 4c36 223d 19ca 32bd
000003b0: 28de e4bd e564 0cbf fcbf 6ac0 20d5 a9bd
000003c0: 457c 803d 3cff 143d b149 e6bf ff5f 57be
000003d0: 5823 543f eef8 ae3e a39a 5bc0 6551 e03e
000003e0: 0abd 8ebd 4516 163e 6b47 14c0 b6af a0be
000003f0: 8460 00bf 70a1 113e 9d62 10bf 2977 97bb

layers.2.bias f4 [32]
-0.04692016 -0.31158867 -0.0056553097 -0.038698506 -0.48562992 -0.06154801 0.3307712 -0.04342609
-0.25100332 0.019220242 0.21031055 -0.8055287 -0.05062551 0.6575415 0.058246154 0.13104907
-0.05810015 0.039112974 0.2308086 -0.10290812 0.38070923 -0.4907153 0.53096515 -0.4653354
0.095768265 -0.04223818 0.18110488 0.05140367 0.31720382 -0.6716464 -0.44527113 -0.4879967
00000000: 5b2f 40bd 8d88 9fbe 2d50 b9bb 5382 1ebd
00000010: 7ca4 f8be c419 7cbd d85a a93e 8edf 31bd
00000020: 8283 80be c573 9d3c a65b 573e 2137 4ebf
00000030: b25c 4fbd a454 283f 8593 6e3d ba31 063e
00000040: 6cfa 6dbd ed34 203d 1759 6c3e 7ec1 d2bd
00000050: 52ec c23e 093f fbbe 55ed 073f 7140 eebe
00000060: 2722 c43d f101 2dbd 8f73 393e a88c 523d
00000070: 8a68 a23e 05f1 2bbf 94fa e3be b4da f9be

layers.4.weight f4 [1, 32]
-0.021959716 -1.2425084 0.022574464 0.81302816 3.2541406 0.10438218 0.4188844 1.6378798
-1.7643838 -0.097711645 -0.26324975 3.9713488 -0.10528084 -0.83380735 -0.53254277 0.53139216
-2.670801 0.06927558 1.2300959 -0.33641857 -0.22064286 0.9223418 3.0846272 1.4211159
1.751483 0.14813448 2.726249 0.3554896 -0.37160182 2.3143704 1.9567776 -1.4709326
00000000: dde4 b3bc 840a 9fbf 15ee b83c 9d22 503f
00000010: d743 5040 53c6 d53d 0478 d63e 0ca6 d13f
00000020: 54d7 e1bf 0b1d c8bd acc8 86be 942a 7e40
00000030: 7b9d d7bd 6674 55bf b954 08bf 5109 083f
00000040: 67ee 2ac0 5be0 8d3d c873 9d3f 0e3f acbe
00000050: 34f0 61be 981e 6c3f 886a 4540 20e7 b53f
00000060: 9830 e03f 91b0 173e dd7a 2e40 bc02 b63e
00000070: 9842 bebe a51e 1440 b077 fa3f 8547 bcbf
