aeacus/weights/smote.pth (torch, 11991 bytes, 5 tensors)

layers.0.weight f4 [64, 5]
0	0xbee03c78	-0.43796134
1	0xbe897712	-0.26848656
2	0xbf409982	-0.75234234
3	0xbe4a5eb7	-0.19762693
4	0x3f820540	1.0157852
5	0x3e9fa7e0	0.31182766
6	0xbf3d124d	-0.7385605
7	0x3e78db03	0.24302296
8	0xbf61c0f0	-0.88185024
9	0xbdb3062b	-0.08741411
10	0x3f2df7ae	0.67956054
11	0x3ebc0aa3	0.36726865
12	0xbe9019b3	-0.28144607
13	0xbf824f41	-1.0180436
14	0x3f3efa12	0.74600327
15	0xbe644f05	-0.22295769
16	0xbfedc777	-1.8576497
17	0x3f2552b2	0.6457931
18	0x3f06eac1	0.52701956
19	0xbe25f3c4	-0.1620627
20	0x3d79b610	0.060964644
21	0xc014d468	-2.3254642
22	0x3e739e0e	0.23790762
23	0x3c2dd09f	0.010608821
24	0x3f3cb9ad	0.7372082
25	0xbeb9b05a	-0.36267358
26	0xbf08b58b	-0.5340201
27	0x3f895bc3	1.0731128
28	0x3ecf3e9a	0.4047745
29	0xbf1f317e	-0.62184894
30	0x3eca081a	0.39459306
31	0x3d9b4a01	0.075824745
32	0x3f4d98e7	0.80311435
33	0x3d8af090	0.06784165
34	0xbf767ce5	-0.96284324
35	0xbe5be57c	-0.2147426
36	0xbe8fc0cc	-0.2807678
37	0xbadf0900	-0.0017016232
38	0xbe2f94f2	-0.17146662
39	0xbe166b10	-0.14689279
40	0x3f43c6bd	0.76475126
41	0x3e015d83	0.12633328
42	0xbf78e97d	-0.97231275
43	0xbf0ea4cf	-0.5572023
44	0x3f071eb7	0.5278124
45	0x3cf8991e	0.03034645
46	0x3ff4ece2	1.9134791
47	0xbe063526	-0.13106212
48	0x3d826d57	0.06368511
49	0xbf60517e	-0.8762435
50	0xbf9842b8	-1.1895361
51	0x3eb06734	0.34453738
52	0x3ef41fa6	0.47680396
53	0x3f45f9e6	0.7733444
54	0xbe98fc9b	-0.29880223
55	0x3f8fb23c	1.1226268
56	0xbf87ec70	-1.061903
57	0xbeec7385	-0.46181884
58	0xbde56e34	-0.1120266
59	0xbee3cb26	-0.44490927
60	0x3ee670e6	0.4500801
61	0xbe34383e	-0.1759958
62	0xbc3c966c	-0.011510473
63	0x3f3a4730	0.72764874
64	0xbe99d58f	-0.30045745
65	0x3f0630b4	0.52418065
66	0x3f9c6524	1.2218366
67	0xbf42f5b5	-0.7615617
68	0xbf77bcdf	-0.9677257
69	0xbe9cd7dc	-0.30633438
70	0xbc7887a6	-0.01516906
71	0xbf2ed3d8	-0.68292
72	0xbf2109fd	-0.62905866
73	0x3f310950	0.69154835
74	0xbfaf4cfa	-1.3695366
75	0xbeb5232b	-0.35378394
76	0x3f867cec	1.0506873
77	0x3f2e1863	0.6800596
78	0xbd329437	-0.04359838
79	0xbf523e12	-0.8212596
80	0xbf351724	-0.70738435
81	0xbf53bc01	-0.82708746
82	0x3e4f4351	0.20240523
83	0x3ebe3351	0.37148526
84	0x3e6ca872	0.23111132
85	0xbf2d2adf	-0.6764354
86	0x3fab7661	1.3395501
87	0xbf11a2ac	-0.5688884
88	0x3f19d57d	0.6009138
89	0x3edebb66	0.4350235
90	0xbf146b96	-0.57976663
91	0x3fa41d8e	1.2821519
92	0x3eff07fe	0.49810785
93	0xbe874a3d	-0.26423827
94	0x3dbb8df7	0.09157937
95	0xbf24bb77	-0.6434855
96	0x3f7427a0	0.9537296
97	0x3ec0760c	0.37590063
98	0x3e8e1030	0.27746725
99	0xbf44453c	-0.76668143
100	0xbedcc2d0	-0.4311738
101	0x3e5b1342	0.21394065
102	0xbe249a5c	-0.16074508
103	0xbf7cd88b	-0.9876792
104	0xbe50fe44	-0.20409495
105	0xbe5fabe4	-0.21842915
106	0xbf442bd8	-0.766294
107	0xbfaf5653	-1.3698219
108	0x3ecdbea1	0.401845
109	0x3eb96420	0.36209202
110	0x3f837034	1.0268617
111	0xbe6871c3	-0.22699647
112	0x3e826bf0	0.25472975
113	0xbf4af94a	-0.79286635
114	0xbed1bf32	-0.40966183
115	0xbe6887a2	-0.2270799
116	0x3f2a2f4c	0.6647842
117	0xbece1433	-0.40249786
118	0x3f549646	0.830418
119	0xbf97158b	-1.1803449
120	0xbec5e14a	-0.38648444
121	0x3e37eb00	0.17960739
122	0xbece8ec6	-0.40343302
123	0x3de247a8	0.110488236
124	0xbe74d8e6	-0.23910865
125	0x3d822a98	0.0635578
126	0x3ed38ed2	0.413199
127	0xbe965344	-0.29360402
128	0xbde97c80	-0.114006996
129	0xbe5d7b03	-0.21628956
130	0xbed2237d	-0.410427
131	0xbf19516d	-0.5988987
132	0x3ee46bd6	0.44613522
133	0xbfc710db	-1.5552019
134	0x3f1e6383	0.6187059
135	0x3ec77bdf	0.38961694
136	0xbf9df016	-1.2338893
137	0xbf2a3bef	-0.664977
138	0xbdd11b5e	-0.10210298
139	0x3f28de57	0.65964264
140	0x3f6e2ace	0.93034065
141	0x3dba6e0e	0.091030225
142	0x3e146fb1	0.14495732
143	0xbf294e66	-0.6613525
144	0x3d8da9c2	0.06917144
145	0xbf292995	-0.66079074
146	0xbfa3e938	-1.2805548
147	0xbe20311d	-0.15643735
148	0x3edc6f16	0.43053502
149	0x3ee947fa	0.45562726
150	0xbedd2d84	-0.43198788
151	0xbdf68080	-0.12036228
152	0x3e1e93c0	0.1548605
153	0xbebb6146	-0.3659765
154	0xbe5222f6	-0.20521149
155	0xbe83718f	-0.25672576
156	0x3ee9514c	0.45569837
157	0x3d747d62	0.059689887
158	0xbf5027b2	-0.8131057
159	0x3f3c3296	0.7351469
160	0xbf943f28	-1.1581774
161	0x3f15cb1a	0.58513033
162	0xbe0bea71	-0.13663651
163	0x3e8a1d28	0.2697537
164	0x3f4d0c75	0.8009713
165	0xbdfc1db8	-0.12310356
166	0x3dfaf768	0.1225422
167	0xbdddf66c	-0.10838017
168	0xbea552b7	-0.3228967
169	0xbebfe6e5	-0.37480846
170	0xbe4bb4a8	-0.19893134
171	0x3dcb9ca0	0.09941983
172	0xbe91ff87	-0.28515264
173	0x3db89eb8	0.09014648
174	0xbe952e4b	-0.2913688
175	0x3beb6aa3	0.007184343
176	0x3f4afb90	0.79290104
177	0xbea615da	-0.32438546
178	0x3e6f0a42	0.23343757
179	0xbfc1f6a5	-1.5153395
180	0xbe1bd19c	-0.15216678
181	0xbeba3d2b	-0.36374792
182	0x3da344c8	0.07972103
183	0xbe3d6b66	-0.18498
184	0xbdfb48b0	-0.122697234
185	0xbe28c07f	-0.16479681
186	0xbfed3e15	-1.8534571
187	0x3eff8280	0.4990425
188	0xbf4dafab	-0.80346173
189	0x3ee586f8	0.44829535
190	0xbed37bb7	-0.41305324
191	0x3fc96382	1.5733492
192	0xbea9b796	-0.33147877
193	0x3e88c143	0.26709947
194	0x3ed36f4c	0.4129585
195	0x3da00910	0.078142285
196	0xbea800ce	-0.32813114
197	0xbe8d0c54	-0.27548468
198	0x3df60168	0.12011987
199	0xbeaad4b0	-0.33365393
200	0x3d97e890	0.07417405
201	0x3d95e170	0.073183894
202	0xbe314976	-0.1731318
203	0xbee31057	-0.44348404
204	0xbecc3d30	-0.39890432
205	0xbd88c9b4	-0.06679097
206	0xbfe1b570	-1.7633495
207	0x3ea366e1	0.31914428
208	0x3ea70e57	0.32628128
209	0x3f151b6c	0.5824497
210	0xbf5db6da	-0.86607134
211	0x3f86f6b8	1.0544043
212	0xbe9d0cf5	-0.30673948
213	0x3f093738	0.5359988
214	0xbf62ce5f	-0.8859615
215	0xbeb83502	-0.35977942
216	0x3ebd53f8	0.36978126
217	0xbe9d7450	-0.30752802
218	0x3eba8070	0.36426115
219	0xbe61a512	-0.22035626
220	0xbeb67591	-0.3563657
221	0xbd8d5fc4	-0.069030315
222	0xbd9f575c	-0.07780334
223	0xbc242660	-0.010018915
224	0x3dadf9a0	0.08494878
225	0xbfd2ab78	-1.6458578
226	0x3ecce9bf	0.40022084
227	0xbed44901	-0.41461948
228	0x3ed9990a	0.42499572
229	0x3f320b6a	0.69548666
230	0x3f3cfab2	0.7382003
231	0x3fafec46	1.374398
232	0xbea9b1de	-0.33143514
233	0xbce3aba6	-0.02779181
234	0xbf374a22	-0.7159749
235	0xbe05746c	-0.13032693
236	0x3f767c02	0.9628297
237	0xbe4ee689	-0.2020513
238	0x3f93bd70	1.1542187
239	0xbe071063	-0.13189845
240	0x3d183414	0.03715904
241	0xbff28155	-1.8945719
242	0x3c338619	0.010957264
243	0x3dd0ae8c	0.10189542
244	0x3f890552	1.0704749
245	0xbd1cef48	-0.038314134
246	0xbf05e8f4	-0.52308583
247	0x3de142d9	0.10999078
248	0x3e3b528d	0.1829321
249	0x3e3e2781	0.18569757
250	0x3f09b91b	0.53798074
251	0xbf1d0434	-0.6133454
252	0x3e60a845	0.2193919
253	0xbf357686	-0.7088398
254	0xbe42270a	-0.18960205
255	0x3e24ecb4	0.1610592

layers.0.bias f4 [64]
0	0x3f193f8f	0.5986261
1	0x3f159813	0.5843517
2	0xbf6635c0	-0.89925766
3	0xbefebb59	-0.4975231
4	0xbcf48b9e	-0.02985173
5	0xbdfd0ae3	-0.12355592
6	0xbf4d4630	-0.8018522
7	0xbd95fa04	-0.07323077
8	0xbf3141d0	-0.69241047
9	0x3d475c50	0.04867202
10	0xbdf7e19d	-0.12103579
11	0xbeca64a9	-0.39529923
12	0xbf8a8d3a	-1.0824349
13	0x3f38cfe8	0.7219224
14	0x3f3de5ea	0.74178946
15	0x3e944aec	0.2896341
16	0x3f27b328	0.65507746
17	0x3e30907f	0.17242621
18	0xbe459db9	-0.19298448
19	0x3f0abd42	0.54195035
20	0x3fbe44f2	1.486479
21	0x3f5a3197	0.8523192
22	0xbf5f83fc	-0.8731077
23	0x3f37b729	0.71763855
24	0xbed1c5fb	-0.4097136
25	0xbe988325	-0.29787555
26	0x3f4638fa	0.7743069
27	0x3eebdb41	0.46065715
28	0xbf874ece	-1.0570924
29	0x3f39ae04	0.7253115
30	0x3e229ec0	0.15880871
31	0xbfd87f19	-1.6913787
32	0xbd29c41a	-0.041446783
33	0xbd5b3e30	-0.053526103
34	0x3e23c694	0.1599372
35	0x3f35f07f	0.7107009
36	0xbd6ed3a0	-0.05830729
37	0x3f01e889	0.50745445
38	0xbf3affc2	-0.73046505
39	0xbe13e504	-0.14442831
40	0xbee29a89	-0.44258526
41	0xbda0c557	-0.078501396
42	0x3f2cf746	0.6756481
43	0xbe9e2f6a	-0.3089555
44	0xbd324cd8	-0.043530315
45	0x3f23dc76	0.6400827
46	0xbf48e772	-0.7847816
47	0xbf317910	-0.6932535
48	0xbe670eb4	-0.22564203
49	0xbef95fb6	-0.48705834
50	0x3ecbd221	0.39808753
51	0xbe42143e	-0.18953034
52	0x3d26b301	0.040698055
53	0xbed81b61	-0.42208388
54	0x3ea27dc1	0.31736568
55	0x3dd0c69e	0.10194133
56	0x3ec1a6ea	0.37822658
57	0x3ef0e174	0.47047007
58	0xbf3f9eaa	-0.7485148
59	0x3fa5cac9	1.295251
60	0xbf484e63	-0.7824461
61	0xbf7622d1	-0.96146876
62	0x3e4da390	0.20081925
63	0xbe684a37	-0.2268456

layers.2.weight f4 [32, 64]
0	0xbe01131e	-0.12604949
1	0x3ef12175	0.47095838
2	0x3ebcfece	0.3691315
3	0xbe72e0ad	-0.2371852
4	0xbf5a530d	-0.85282975
5	0x3f00511d	0.5012377
6	0x3fd92805	1.6965338
7	0x3d103ac0	0.03521228
8	0x404e116b	3.219813
9	0xbfb41d06	-1.4071357
10	0x3f239d7d	0.63912183
11	0xbfa3e403	-1.2803959
12	0x3fb46dda	1.4096024
13	0xbf449e20	-0.7680378
14	0xc0ed96f0	-7.424675
15	0x3ef0561d	0.469407
16	0xbdc09e17	-0.09405153
17	0x3f6f603a	0.93506205
18	0x3dfb38c0	0.122666836
19	0x3e3db969	0.1852776
20	0x401b014f	2.4219549
21	0x3f16793a	0.5877873
22	0xbfcdb1b8	-1.606986
23	0x3f151280	0.58231354
24	0xbd0db2dc	-0.0345944
25	0xbcdd03b8	-0.026979312
26	0xbe406fa1	-0.18792583
27	0x3ae9150b	0.001778276
28	0x3e991736	0.2990052
29	0x3ea4aefd	0.32164755
30	0x3dab3ef2	0.08361615
31	0xc0daecb6	-6.8413954
32	0xbfc3d93a	-1.5300667
33	0x3c7ca960	0.0154212415
34	0xbdf6d97a	-0.12053199
35	0xbf417aff	-0.755783
36	0x3d724d4c	0.059155747
37	0x3ffc7826	1.9724166
38	0xbe9f819b	-0.3115357
39	0xbc2703c0	-0.010193765
40	0x3d9c0b8c	0.0761939
41	0x3ce056c7	0.027385129
42	0x3f12bcab	0.57319134
43	0x3d820b4c	0.06349811
44	0xbd651168	-0.055924803
45	0xbfc07363	-1.5035213
46	0xbeb66ea7	-0.35631296
47	0x3e57a4ee	0.2105901
48	0xbf82d07d	-1.0219876
49	0xbcd67c3e	-0.02618229
50	0x3d58edd5	0.05296119
51	0xbdc220f8	-0.094789445
52	0x3e4c8853	0.19973879
53	0xbe1292d3	-0.14313821
54	0xbe27428e	-0.16333982
55	0x3dcb6768	0.099318326
56	0xbf05fc2e	-0.5233792
57	0x3e95411c	0.29151237
58	0x3f27df3a	0.6557499
59	0x3f17b9da	0.5926796
60	0xbe326942	-0.17422965
61	0x3e5ad16e	0.21368954
62	0x3e67a243	0.22620492
63	0x3cd49d98	0.025954053
64	0xbf3e40a3	-0.7431738
65	0x3eb22e55	0.34800974
66	0x3eaf94b9	0.34293154
67	0x3ec75030	0.38928366
68	0xbf9c8de0	-1.2230797
69	0xbeb11327	-0.34584925
70	0x3edaf7b5	0.4276711
71	0x3ca888b8	0.020573005
72	0xc02b8419	-2.6799376
73	0xbf891ba3	-1.0711559
74	0x3f19c42c	0.6006496
75	0xbf868fca	-1.0512631
76	0x3f89fc7a	1.0780175
77	0xbfb5f4cb	-1.421533
78	0xc0ca1480	-6.3150024
79	0x3ebce5d4	0.36894095
80	0x3eddcbbb	0.43319497
81	0x3eb579e7	0.35444567
82	0xbd0119e1	-0.03151882
83	0x3eb90c74	0.36142313
84	0x40203ab8	2.503584
85	0xc02300f0	-2.5469322
86	0xbf463c1a	-0.7743546
87	0x3f4bfafc	0.79679847
88	0xbdefe4a2	-0.1171353
89	0x3dde5f28	0.10857993
90	0x3efdbc9c	0.4955796
91	0xbcc9313b	-0.024559608
92	0x3e2bb784	0.16769224
93	0xbdd78032	-0.10522498
94	0xbdbc4ac4	-0.09193948
95	0x3ef49ae1	0.47774413
96	0xbedcd60f	-0.43132064
97	0xbdf4ca9e	-0.11952709
98	0x3da59a26	0.08086042
99	0x3e2f67b6	0.17129406
100	0xbdcaabb2	-0.098960295
101	0x3f92d925	1.1472517
102	0xc06636f5	-3.5971043
103	0x3dc1b798	0.09458846
104	0xbdb247e4	-0.08705118
105	0x3c3596c0	0.011083305
106	0x3fbc0aea	1.4690831
107	0x3cefe418	0.029283568
108	0xbc4f39e0	-0.012648076
109	0x3fd865e9	1.69061
110	0xc06cc782	-3.699677
111	0xbc49c74a	-0.012315581
112	0xbfd79c12	-1.6844504
113	0xbd1a448a	-0.03766302
114	0x3ef597c8	0.47967362
115	0xbdc4fcdc	-0.096185416
116	0xbf0af01f	-0.54272646
117	0x3dada44f	0.08478605
118	0xbe9cbda8	-0.30613446
119	0x3ee375ee	0.4442591
120	0xbf391ee2	-0.7231275
121	0x3f75122b	0.9573085
122	0x3fd87433	1.6910461
123	0x3f6a7a5c	0.91592956
124	0xbf08d207	-0.53445476
125	0xbede56c2	-0.43425566
126	0xbeeaeaf7	-0.4588239
127	0xbdf46ce0	-0.11934829
128	0xbdfa1da4	-0.12212685
129	0xbdfa5d0a	-0.12224777
130	0xbc349f51	-0.011024312
131	0xbbfed150	-0.007776417
132	0xbd344413	-0.044010233
133	0x3dd89946	0.105761096
134	0xbd61c778	-0.05512187
135	0xbd34bc04	-0.04412462
136	0x3d64c46d	0.05585139
137	0xbd9d8ebd	-0.07693241
138	0x3deaf6c2	0.114728466
139	0xbd1598ac	-0.036522552
140	0x3c51f178	0.012813918
141	0x3d3ecfee	0.046585016
142	0xbde554c7	-0.111978106
143	0xbdf8a19f	-0.12140202
144	0x3db38558	0.08765668
145	0x3da431ca	0.08017309
146	0x3c527419	0.012845063
147	0xbda7dc30	-0.08196294
148	0x3d612a65	0.05497207
149	0xbda785fa	-0.08179851
150	0x3daccacc	0.08437118
151	0x3cf53d14	0.02993635
152	0xbd5ef940	-0.054436922
153	0x3da0e002	0.07855226
154	0xbb53c9d6	-0.0032316349
155	0xbe020806	-0.12698373
156	0x3d68b44d	0.056812573
157	0xbc835c78	-0.016035303
158	0xbd940e2a	-0.07229264
159	0x3cf3a992	0.029743943
160	0x3d2030ad	0.03910892
161	0x3d81b514	0.06333366
162	0x3ca8b500	0.02059412
163	0xbdefa167	-0.11700707
164	0x3dc01202	0.09378435
165	0x3cc9db51	0.024640711
166	0x3d67e0e7	0.056610968
167	0x3d3d808c	0.04626517
168	0xbcb42330	-0.021989435
169	0xbd31c781	-0.043403152
170	0x3ce55a81	0.027997257
171	0x3dbc7fca	0.09204061
172	0xbdf21f12	-0.118223324
173	0x3ca2ae3c	0.019858472
174	0xbe0ab25b	-0.135446
175	0xbe09f1d1	-0.13471152
176	0xbdb61969	-0.08891565
177	0x3d3740d3	0.044739556
178	0x3d0073eb	0.031360548
179	0xbda2eab2	-0.07954921
180	0xbcbe5138	-0.023232087
181	0xbc967741	-0.018367412
182	0xbdb0bfb3	-0.08630314
183	0x3d8d3ee5	0.06896762
184	0xbd73998a	-0.059472598
185	0x3d138554	0.036015823
186	0x3b2788f0	0.00255638
187	0x3dc2a3db	0.09503909
188	0xbda04ea9	-0.07827503
189	0xbd0577c0	-0.032584906
190	0xbdef288e	-0.11677657
191	0x3b0718c0	0.0020614117
192	0xc02ae20b	-2.6700466
193	0xbe9e994a	-0.30976325
194	0xbe8b7a02	-0.27241522
195	0x3e10f24e	0.14154932
196	0x3f0200bc	0.5078237
197	0x3e9626a1	0.29326347
198	0x3fd1b4de	1.6383321
199	0x3da5eee2	0.08102204
200	0xbfc9b05e	-1.5756948
201	0xc0418440	-3.023697
202	0x4045e368	3.0920048
203	0xbef62f8a	-0.48083144
204	0xbecbba91	-0.39790776
205	0xbf379ca9	-0.7172342
206	0xc183eeea	-16.491657
207	0xbcc2f247	-0.023797167
208	0xbdcd4e1f	-0.10024666
209	0x3ebf6d13	0.37387905
210	0x3efbcd2d	0.49179974
211	0xbe869ec4	-0.26293004
212	0x3f405cdd	0.751417
213	0x3ee87953	0.45405063
214	0xbf53313d	-0.82497007
215	0xbf3c7274	-0.7361214
216	0x3caf2dc8	0.021384135
217	0xbdd700d0	-0.10498202
218	0x3f28a11d	0.6587084
219	0x3e96557f	0.29362103
220	0x3fa636dc	1.2985492
221	0x3e2bdb1e	0.16782805
222	0x3bb586e0	0.00553976
223	0x3e99b8ba	0.30023748
224	0xbdb9dc54	-0.090752274
225	0xbc628950	-0.013826683
226	0xbdfa755c	-0.12229416
227	0x3f1c8832	0.6114532
228	0xbca203f8	-0.019777283
229	0x3d7bdb2f	0.061488327
230	0xbf9e3a6b	-1.2361578
231	0x3b9fbb40	0.004874617
232	0x3d8a4bec	0.06752762
233	0x3ef61631	0.48063806
234	0x40264cb2	2.598431
235	0xbde11f96	-0.10992353
236	0xbdcc2c3a	-0.09969373
237	0xc0f1f6a6	-7.5613585
238	0xc08832fd	-4.256224
239	0xbee5089c	-0.4473313
240	0x3f5e882c	0.8692653
241	0x3ec558e0	0.3854437
242	0x3ea96703	0.33086404
243	0xbb25b1c0	-0.002528295
244	0x3e7214be	0.23640725
245	0x3fab03c6	1.3360527
246	0x3f414741	0.7549935
247	0xbd86ce39	-0.065823026
248	0xbe58dd39	-0.2117814
249	0xbf970d7e	-1.1800992
250	0xbec82e4c	-0.39097822
251	0xbf647485	-0.89240295
252	0x3f19b61e	0.60043514
253	0x3f4cad56	0.7995199
254	0x3fc40dce	1.5316713
255	0x3cf8aa40	0.030354619

layers.2.bias f4 [32]
0	0x3d8262a0	0.063664675
1	0x3f02f2f2	0.51151955
2	0xbe10e494	-0.14149696
3	0x3e6b97d0	0.2300713
4	0x3f0fb4af	0.56135076
5	0xbec656fd	-0.38738242
6	0x3f390269	0.722693
7	0x3e481a71	0.19541337
8	0x3cce3e7d	0.025176281
9	0x3d81eedf	0.06344389
10	0x3e44b473	0.19209461
11	0x3f10b943	0.56532687
12	0x3f27c69e	0.6553744
13	0x3efa5705	0.48894516
14	0x3e0f2d29	0.13982071
15	0x3f28b1d3	0.6589634
16	0x3f2e50c3	0.6809198
17	0x3d83058f	0.063975446
18	0x3deb4d04	0.11489299
19	0xbdf0f01a	-0.11764546
20	0xbe1487a9	-0.14504875
21	0xba8bfbad	-0.0010679864
22	0x3ecb83e3	0.3974906
23	0x3f16d7f0	0.58923244
24	0xbe05c328	-0.13062727
25	0x3f3a1419	0.72686917
26	0x3e89e6c8	0.26933885
27	0x3e5aca1b	0.2136616
28	0xbc9f1890	-0.019420892
29	0x3c2105fd	0.009828088
30	0xbf3ea4d7	-0.74470276
31	0x3f0af986	0.5428699

layers.4.weight f4 [1, 32]
0	0x3f3c9ee7	0.73679966
1	0x3f8d70d0	1.1050053
2	0xbe215da6	-0.1575838
3	0x3fc9a386	1.5753028
4	0xbec0d546	-0.37662715
5	0x3fea2039	1.8291084
6	0xbeef0453	-0.46682987
7	0x4008b14c	2.1358213
8	0x3f69752e	0.91194427
9	0x40190dc7	2.391466
10	0x3fa86d0c	1.3158278
11	0x3f673c00	0.9032593
12	0xc043624b	-3.0528743
13	0xc05ef2e3	-3.4835746
14	0x3fc105be	1.5079877
15	0xbed91ea9	-0.42406204
16	0x40267e52	2.60146
17	0xbfa6ca12	-1.3030417
18	0x4043801c	3.0546942
19	0xbf13cd95	-0.5773557
20	0x408e1b76	4.440852
21	0xbdb69a10	-0.08916104
22	0xbf53995f	-0.826559
23	0x3faf3a5a	1.3689682
24	0xc0687bc2	-3.6325536
25	0xbefda66b	-0.4954103
26	0x3e65e196	0.22449335
27	0xbf8e9fcc	-1.1142516
28	0xbddb4cad	-0.10707984
29	0xbd8c46b7	-0.06849425
30	0x407840f4	3.8789644
31	0x3f816fcb	1.0112242
