aeacus/weights/SVDD.pth (torch, 8135 bytes, 9 tensors)

layers.0.weight f4 [22, 29]
0.16822682 -0.11169193 0.08798617 -0.05621256 -0.09050874 -0.17424816 0.124461114 0.14172211
0.108648986 0.10885461 0.10952884 0.096198775 0.12738706 -0.052109364 0.13971622 0.06465393
0.06555205 0.16040152 0.06814865 0.022232207 -0.08378083 0.02036512 -0.09483614 -0.0022146476
0.09359003 0.18174478 -0.044196524 0.09368665 -0.15501499 -0.14900608 0.13090955 0.13731909
0.17221424 0.07304637 -0.041004438 0.131449 -0.1756089 -0.09924073 -0.14599723 -0.0930362
0.15602815 0.048869707 -0.038049277 0.070310995 0.15579875 -0.064599335 0.0342429 0.09381479
0.0858421 0.022918535 0.14227635 0.18139777 -0.14175251 0.1284232 0.1151226 0.07432637
-0.07462258 0.10917089 0.09649044 0.07275363 -0.022068392 -0.0444206 -0.03717231 0.16970645
0.016565355 -0.14899527 0.13939816 0.112795494 -0.093360886 0.078210525 -0.12874466 0.07460426
0.05492206 0.09606405 -0.040841613 0.16823326 -0.1652605 -0.054407895 -0.084864154 -0.12727365
-0.1018245 0.03551118 0.017043851 0.072427966 0.0043284334 -0.11069866 0.1582069 -0.17124109
-0.008160632 -0.014648915 0.036955487 0.05221952 0.10448579 0.08493373 -0.057658438 -0.16147389
-0.15226822 -0.13458718 -0.088564456 -0.15072477 0.15107237 0.063270584 -0.13991646 -0.06161603
-0.07641906 0.00873454 -0.13337348 0.08031526 -0.036685765 0.06069754 0.010474444 0.031959582
0.03400016 0.053337265 0.09760466 -0.0027165234 -0.1022243 -0.031519663 0.010205279 -0.1848839
-0.054202538 0.10852363 -0.07241181 0.012841857 0.053580232 -0.06597692 0.1790624 0.07983572
-0.0970605 -0.11383961 0.034225594 0.09503631 0.031466097 0.10944946 -0.1121213 0.14925368
-0.055464793 -0.013961121 0.12296874 0.14259884 0.12874044 -0.047002114 -0.024546912 0.061576385
-0.0021098952 0.14612372 -0.18446012 0.109872766 -0.10577421 -0.005857221 0.02782435 0.0768719
0.020684376 0.17145897 -0.01499603 -0.07396418 0.09025494 0.08855045 0.114580005 0.013268505
-0.1105502 0.032034934 0.007387469 -0.17509365 -0.09506417 0.026141586 0.18009713 0.01199467
0.050123595 -0.17702083 -0.078167684 -0.064695984 -0.06630725 0.119725004 -0.02917278 0.064295456
0.17328607 -0.1327636 0.08203687 -0.08247985 0.17559049 -0.0017823471 0.13116328 0.015080859
-0.14420344 0.045661673 -0.15439062 -0.111190304 -0.034095783 -0.17930068 0.13554515 -0.13574192
0.088291876 0.11391946 -0.089433745 -0.106926076 0.09419949 0.032245044 0.09395199 0.078740835
-0.046854824 -0.06878879 -0.070766985 0.08209643 0.1242665 0.08722577 -0.027568305 0.0014784083
-0.071270466 0.14698422 0.045449346 0.0027859996 0.052717492 -0.18053004 -0.1660014 0.17042467
0.14348924 0.07855498 0.010846597 0.07951728 -0.07272758 -0.17410012 -0.14131641 -0.017000169
0.039086632 -0.060064875 0.18472224 -0.07513919 0.11800998 0.0714491 0.025488833 0.04670912
-0.010434724 0.00076794036 0.09867161 -0.16157502 -0.03207987 -0.12639871 -0.18182203 0.09940117
0.13650596 0.14125213 0.08256812 -0.061617546 -0.06195568 -0.12045091 0.031255715 -0.12085961
-0.0067538023 0.024919545 -0.004048201 0.14627667 0.072286166 0.15924574 0.15887229 -0.15923247
00000000: a743 2c3e bdbe e4bd 1832 b43d 243f 66bd
00000010: a55c b9bd 1c6e 32be 78e5 fe3d 9a1f 113e
00000020: 5c83 de3d 2aef de3d a850 e03d dd03 c53d
00000030: c171 023e a170 55bd c511 0f3e 4869 843d
00000040: 2740 863d 4c40 243e 8591 8b3d 5120 b63c
00000050: 4995 abbd c1d4 a63c 7339 c2bd 9f23 11bb
00000060: 21ac bf3d 4e1b 3a3e 6a07 35bd c9de bf3d
00000070: 40bc 1ebe 0d95 18be 270d 063e 609d 0c3e
00000080: ee58 303e 5699 953d 45f4 27bd 919a 063e
00000090: d2d2 33be b93e cbbd 4c80 15be c389 bebd
000000a0: d8c5 1f3e 9a2b 483d 8fd9 1bbd 36ff 8f3d
000000b0: b589 1f3e a84c 84bd 4842 0c3d f821 c03d
000000c0: fccd af3d a7bf bb3c e4b0 113e 56c0 393e
000000d0: 9227 11be 5f81 033e 66c5 eb3d 6d38 983d
000000e0: b9d3 98bd fd94 df3d c89c c53d dbff 943d
000000f0: c6c8 b4bc 60f2 35bd fe41 18bd 87c7 2d3e
00000100: 11b4 873c 3792 18be 64be 0e3e 5301 e73d
00000110: fe33 bfbd d72c a03d a4d5 03be 1eca 983d
00000120: f4f5 603d 3bbd c43d 8949 27bd 5745 2c3e
00000130: 0c3a 29be d0da 5ebd 42cd adbd 0654 02be
00000140: 5d89 d0bd 2c74 113d 8c9f 8b3c 1d55 943d
00000150: 88d5 8d3b fbb5 e2bd fd00 223e d359 2fbe
00000160: 2cb4 05bc 0102 70bc a35e 173d 23e4 553d
00000170: a5fc d53d bcf1 ad3d 412b 6cbd 6959 25be
00000180: 33ec 1bbe 39d1 09be 4861 b5bd 9857 1abe
00000190: b7b2 1a3e 0294 813d 4346 0fbe 1761 7cbd
000001a0: 9981 9cbd 511b 0f3c 0f93 08be 547c a43d
000001b0: d043 16bd fc9d 783d 019d 2b3c 0de8 023d
000001c0: c043 0b3d 2d78 5a3d f4e4 c73d b307 32bb
000001d0: f95a d1bd c31a 01bd 0b34 273c 3552 3dbe
000001e0: 7b03 5ebd a341 de3d a54c 94bd a766 523c
000001f0: f276 5b3d e81e 87bd 225c 373e e980 a33d
00000200: a8c7 c6bd be24 e9bd 2330 0c3d 66a2 c23d
00000210: 98e2 003d 0a27 e03d da9f e5bd f5d5 183e
00000220: 0d2f 63bd 30bd 64bc 09d7 fb3d 6e05 123e
00000230: 89d4 033e 4a85 40bd 9b16 c9bc 8537 7c3d
00000240: 2b46 0abb 75a1 153e 1de3 3cbe f904 e13d
00000250: 26a0 d8bd eeed bfbb e4ef e33c 046f 9d3d
00000260: 4872 a93c f192 2f3e e9b1 75bc 887a 97bd
00000270: 95d7 b83d f059 b53d eca8 ea3d 2564 593c
00000280: 2568 e2bd 1037 033d 9512 f23b c04b 33be
00000290: 01b1 c2bd e126 d63c 626b 383e 4b85 443c
000002a0: 664e 4d3d f344 35be 6116 a0bd 547f 84bd
000002b0: 18cc 87bd 6232 f53d c1fb eebc 56ad 833d
000002c0: e771 313e 2ef3 07be f202 a83d 32eb a8bd
000002d0: fecd 333e a59d e9ba ab4f 063e b515 773c
000002e0: 11aa 13be bc07 3b3d 9318 1ebe beb7 e3bd
000002f0: 05a8 0bbd 999a 37be 59cc 0a3e eeff 0abe
00000300: 5fd2 b43d 9b4e e93d 0a29 b7bd 0ffc dabd
00000310: aaeb c03d 6113 043d e769 c03d e042 a13d
00000320: d8ea 3fbd 23e1 8cbd 48ee 90bd 2c22 a83d
00000330: 6f7f fe3d 6da3 b23d edd6 e1bc 27c7 c13a
00000340: 40f6 91bd 0883 163e 1829 3a3d 5195 363b
00000350: 4cee 573d dedc 38be 45fc 29be ce83 2e3e
00000360: d8ee 123e 6fe1 a03d edb5 313c f5d9 a23d
00000370: 33f2 94bd 4d47 32be 40b5 10be f043 8bbc
00000380: 4e19 203d 9606 76bd d427 3d3e 93e2 99bd
00000390: 37af f13d e853 923d f5cd d03c 1052 3f3d
000003a0: 68f6 2abc 9b4f 493a 5714 ca3d ec73 25be
000003b0: 2f66 03bd aa6e 01be 8e2f 3abe d792 cb3d
000003c0: 38c8 0b3e 66a4 103e 7919 a93d ae62 7cbd
000003d0: 3dc5 7dbd f7ae f6bd fe05 003d 3e85 f7bd
000003e0: 004f ddbb 1324 cc3c c5a6 84bb 8dc9 153e
000003f0: c50a 943d 5111 233e 6baf 223e d60d 23be

layers.0.bias f4 [22]
0.082982734 -0.07047585 0.1732198 -0.085011035 -0.069421366 0.084722936 -0.047644217 -0.115673214
0.07174569 -0.17508934 0.11733482 0.107132874 0.047510695 -0.1359122 0.18048437 0.17955628
-0.035740316 -0.09337563 0.059294175 -0.15555677 0.17418139 0.07269666
00000000: daf2 a93d a455 90bd 8860 313e 441a aebd
00000010: ca2c 8ebd 3883 ad3d 9526 43bd 14e6 ecbd
00000020: 68ef 923d 9f4a 33be 3d4d f03d 7b68 db3d
00000030: 939a 423d 912c 0bbe e5d0 383e 9add 373e
00000040: 7064 12bd b93b bfbd 73de 723d 464a 1fbe
00000050: 9b5c 323e fde1 943d

layers.2.weight f4 [15, 22]
-0.054871563 0.17527404 -0.2012062 0.00783376 0.15273097 0.029246358 0.15046301 -0.015063846
-0.14069602 0.10888426 0.19911787 -0.17102413 0.0013807699 0.10777072 -0.10879877 0.06477956
-0.06068405 -0.10254348 0.16717188 0.1822217 0.14406417 -0.18709192 0.1188127 0.12170783
-0.08280436 -0.08580686 -0.008930544 0.11557816 0.1393451 -0.11146953 -0.1095786 0.100535676
-0.0356219 0.20430729 -0.11961508 0.09221112 -0.16420732 -0.16712835 -0.190878 0.16991161
-0.15554477 -0.1350128 0.06416324 -0.17300148 -0.13499086 -0.05287284 0.16905668 0.13095996
-0.030861836 0.0512051 0.050674543 0.19250359 -0.024373466 0.11965026 -0.03832608 0.00480709
0.01945391 0.025059532 0.19431609 0.01418316 -0.17811511 -0.0029278246 -0.113713436 -0.0074018096
-0.10035677 0.16174443 -0.039223306 -0.040060885 -0.022448918 0.024279825 -0.21135987 0.016959507
-0.04385259 -0.20578955 -0.06532126 -0.21204291 0.10630385 0.20269479 0.17215566 -0.11270311
0.0009680087 0.14467296 -0.0896976 -0.20423354 0.13942754 0.17998582 -0.063685216 -0.033199344
0.12008968 0.042479377 -0.10213375 0.15369353 -0.078336686 0.12226858 0.17718378 0.15914191
-0.09958723 -0.14681461 -0.19934356 0.18328328 -0.15545267 0.008386674 0.020608502 0.20442568
0.15770315 0.05055838 0.1880262 -0.09453596 -0.14521858 -0.14873998 -0.18969776 -0.08415199
0.09095617 -0.066531144 0.19092812 -0.16261381 -0.06235243 -0.04760352 0.16690433 -0.14942452
-0.11281614 -0.0765051 0.069800526 -0.06612633 0.1789487 0.13512538 0.17949057 -0.19798325
-0.02132192 0.02927297 0.052022375 -0.17767064 0.11044239 0.15598752 -0.051132433 0.03864594
0.19502635 -0.08219553 0.12663221 0.011937028 -0.087260745 0.0033976145 -0.2003305 -0.11701153
-0.022382554 -0.12069041 0.054637812 -0.10266024 0.124943934 -0.01852627 -0.07233519 0.1966434
-0.1387176 0.08315038 -0.20922095 -0.017202664 0.10526108 -0.0420738 0.08164948 0.011541114
0.11506632 -0.07235898 0.13973023 0.0399894 -0.06547991 -0.10575348 -0.094959155 0.14281237
0.070436746 0.12482359 0.20764029 -0.18955296 0.18513432 -0.021576654 -0.119824454 -0.18296288
0.13564867 0.042331737 -0.17801823 0.13126154 -0.048142456 0.025077093 -0.10529223 -0.13923466
0.01385734 -0.06468336 0.098652564 -0.0536075 0.13989934 -0.07504322 0.003254685 0.01768766
0.092247985 -0.09448639 -0.14577623 0.18629222 -0.19150573 -0.14058915 -0.0036985534 0.1795887
-0.0047823684 -0.17434187 -0.07012948 0.018804843 0.03365223 0.06647336 0.18485823 -0.1456929
-0.08620461 -0.11341039 0.1923811 0.004086199 -0.030047867 -0.027638208 0.12476616 -0.13854052
-0.062285602 0.027210902 -0.0225679 0.006452299 -0.20858793 0.0052140225 0.09559104 -0.11044641
0.098726496 0.12591639 -0.011590475 0.04893726 -0.18102573 0.20558256 0.013678507 -0.008937576
-0.19110502 -0.1629379 0.15687974 -0.00464375 0.20591469 0.08026116 0.14610386 0.064713545
0.1077106 0.14178483 0.026629455 -0.16934867 -0.19191101 0.11849356 -0.20515387 -0.022445127
-0.0073718755 0.047768526 0.17575084 -0.1807321 -0.12707265 0.13596602 0.12932773 0.10710855
00000000: 01c1 60bd 0a7b 333e 0009 4ebe 2c59 003c
00000010: 8265 1c3e 0f96 ef3c fa12 1a3e 59ce 76bc
00000020: 9e12 10be b6fe de3d 8ee5 4b3e f320 2fbe
00000030: f3fa b43a e5b6 dc3d e4d1 debd 25ab 843d
00000040: d78f 78bd 5102 d2bd 1b2f 2b3e 5398 3a3e
00000050: 8f85 133e 0695 3fbe 1354 f33d f441 f93d
00000060: 5595 a9bd 82bb afbd 6b51 12bc 3eb4 ec3d
00000070: 7bb0 0e3e 234a e4bd bf6a e0bd a6e5 cd3d
00000080: 45e8 11bd ee35 513e c0f8 f4bd 2fd9 bc3d
00000090: f725 28be b223 2bbe 8675 43be 4ffd 2d3e
000000a0: 2147 1fbe cc40 0abe 0468 833d 4d27 31be
000000b0: 0b3b 0abe 3191 58bd 321d 2d3e 5e1a 063e
000000c0: f6d1 fcbc 70bc 513d 1c90 4f3d a91f 453e
000000d0: ddaa c7bc 320b f53d cffb 1cbd cb84 9d3b
000000e0: ce5d 9f3c a649 cd3c ccfa 463e 7c60 683c
000000f0: cf63 36be bfe0 3fbb 97e2 e8bd e18a f2bb
00000100: da87 cdbd 55a0 253e 9ea8 20bd e216 24bd
00000110: cbe6 b7bc 7ce6 c63c b96e 58be aaee 8a3c
00000120: c69e 33bd 7fba 52be 27c7 85bd c721 59be
00000130: d5b5 d93d 398f 4f3e 9349 303e e3d0 e6bd
00000140: f7c1 7d3a 2625 143e 60b3 b7bd 9922 51be
00000150: 18c6 0e3e 344e 383e 656d 82bd 09fc 07bd
00000160: 94f1 f53d dbfe 2d3d 802b d1bd d661 1d3e
00000170: fc6e a0bd f367 fa3d aa6f 353e 19f6 223e
00000180: 64f4 cbbd 9256 16be b820 4cbe 9dae 3b3e
00000190: fc2e 1fbe 4368 093c 29d3 a83c f754 513e
000001a0: ef7c 213e 4e16 4f3d f189 403e 129c c1bd
000001b0: 2eb4 14be 4b4f 18be 2140 42be e157 acbd
000001c0: 3a47 ba3d 7b41 88bd a982 433e 3c84 26be
000001d0: 4365 7fbd e9fb 42bd f8e8 2a3e be02 19be
000001e0: 260c e7bd b5ae 9cbd 94f3 8e3d 3e6d 87bd
000001f0: 543e 373e 4f5e 0a3e 60cc 373e 1fbc 4abe
00000200: 4fab aebc decd ef3c 6a15 553d 4bef 35be
00000210: 9f2f e23d 31bb 1f3e 3e70 51bd 354b 1e3d
00000220: fdb4 473e 2156 a8bd e0ab 013e 8693 433c
00000230: c3b5 b2bd 83aa 5e3b 7023 4dbe bea3 efbd
00000240: 9e5b b7bc 892c f7bd e6cb 5f3d 883f d2bd
00000250: 9be2 ff3d 67c4 97bc 7924 94bd e35c 493e
00000260: fd0b 0ebe bf4a aa3d 043e 56be 9aec 8cbc
00000270: 1f93 d73d 9455 2cbd d837 a73d f116 3d3c
00000280: e4a7 eb3d f230 94bd 7115 0f3e edcb 233d
00000290: 551a 86bd 4895 d8bd f279 c2bd 683d 123e
000002a0: 2441 903d 83a3 ff3d a89f 543e 2c1a 42be
000002b0: da93 3d3e 86c1 b0bc 8666 f5bd 9f5a 3bbe
000002c0: 7ce7 0a3e 0b64 2d3d 694a 36be 6d69 063e
000002d0: 0631 45bd 7a6e cd3c 74a3 d7bd 8893 0ebe
000002e0: e609 633c b678 84bd 5b0a ca3d 8a93 5bbd
000002f0: c641 0f3e 42b0 99bd 8e4c 553b b6e5 903c
00000300: 83ec bc3d 1582 c1bd 5d46 15be 63c3 3e3e
00000310: 141a 44be 9af6 0fbe 6e63 72bb 1ae6 373e
00000320: 6ab5 9cbb ad86 32be 0ba0 8fbd 9d0c 9a3c
00000330: ecd6 093d 2f23 883d 7a4b 3d3e 8530 15be
00000340: 0b8c b0bd b543 e8bd 8dff 443e 86e5 853b
00000350: f226 f6bc 8669 e2bc 6785 ff3d 91dd 0dbe
00000360: 301f 7fbd 66e9 de3c 51e0 b8bc cf6d d33b
00000370: 1398 55be 64da aa3b 3cc5 c33d ba31 e2bd
00000380: 1e31 ca3d 3af0 003e fae5 3dbc 7072 483d
00000390: cf5e 39be 3c84 523e d11b 603c e96e 12bc
000003a0: 09b1 43be 31d9 26be 15a5 203e 992a 98bb
000003b0: 4ddb 523e f75f a43d 409c 153e 8988 843d
000003c0: 6097 dc3d 0b30 113e 0426 da3c bd69 2dbe
000003d0: 5284 44be c0ac f23d db13 52be d8de b7bc
000003e0: c68f f1bb eea8 433d 07f8 333e d611 39be
000003f0: 551f 02be ad3a 0b3e 7d6e 043e ba5b db3d

layers.2.bias f4 [15]
-0.11314199 -0.007348787 0.16774487 0.09021602 0.112235986 0.09215314 -0.07089451 -0.009998511
0.055474803 -0.16779526 0.033935104 0.030986713 0.10861671 -0.01628299 -0.11394956
00000000: fdb6 e7bd 18ce f0bb 50c5 2b3e 2dc3 b83d
00000010: fbdb e53d c9ba bc3d 2431 91bd cbd0 23bc
00000020: 8c39 633d 85d2 2bbe 89ff 0a3d d9d7 fd3c
00000030: 7072 de3d e863 85bc 635e e9bd

layers.4.weight f4 [10, 15]
-0.007106574 0.16878706 -0.23039676 0.12191992 0.09241567 0.09541758 0.21180098 0.026012983
-0.21665616 0.0544439 0.0040816483 0.14318416 -0.047271825 0.13407433 -0.12785734 -0.13675573
0.118509844 -0.03379699 -0.029545562 -0.21023043 0.062300585 0.09492145 -0.23190174 -0.11423242
0.22593513 -0.15227097 0.20414343 -0.25614157 0.023668274 0.0345352 0.23904984 -0.07168019
0.08572583 -0.19504099 -0.021804858 -0.20058107 -0.16349007 -0.10484375 -0.06545777 -0.14689133
0.017314833 0.25260508 0.04892254 0.1491577 -0.13299035 0.06381519 -0.025183514 -0.15495688
0.093037255 0.16520804 0.039352242 -0.21020184 0.13749443 -0.07710946 0.011389699 0.011811423
-0.20214269 -0.20787415 0.058637075 -0.19269374 0.15738405 0.06303252 0.13615587 -0.08746505
0.15627728 -0.25198066 0.07117965 -0.13031876 -0.034572892 0.17061903 0.17232245 -0.16652736
0.22028607 0.028392104 0.1200542 -0.03933642 0.13412414 0.23650928 -0.0062395437 -0.21588041
-0.14553717 -0.21549404 0.22800708 -0.22199112 0.15734637 0.053682525 -0.058430847 0.24345529
0.05196473 -0.046245307 0.25105858 -0.21046479 -0.07274788 0.014261451 -0.15188217 0.0051446753
-0.11769787 0.032690074 0.1827284 0.13592547 0.25094673 0.19460766 -0.24969229 0.040991858
-0.15253259 -0.11435792 -0.036429677 -0.006315511 -0.12376071 0.11281483 0.16913916 -0.09828582
0.12648506 0.239284 0.12265121 -0.13867098 0.11865465 0.09014177 -0.07710503 0.17792678
0.031422284 0.17813884 0.17847177 0.23145711 0.038807835 -0.009893781 0.193314 -0.23856817
-0.23333059 0.0016313532 -0.072055206 0.13742086 -0.20035833 0.14455049 -0.13974316 0.15296455
0.08243861 -0.03273428 -0.22833972 0.11265682 -0.11807762 0.067612395 -0.22235012 -0.052669097
-0.21483462 -0.0072041648 -0.25340858 -0.07692853 -0.050109174 -0.13687731
00000000: 43de e8bb 84d6 2c3e 21ed 6bbe 27b1 f93d
00000010: 6d44 bd3d 4b6a c33d 5be2 583e 2e19 d53c
00000020: 1ddb 5dbe 9100 5f3d 59bf 853b de9e 123e
00000030: 1aa0 41bd c84a 093e 09ed 02be b209 0cbe
00000040: 4ab5 f23d b66e 0abd 8909 f2bc a546 57be
00000050: e62e 7f3d 2d66 c23d a677 6dbe b0f2 e9bd
00000060: 8a5b 673e ecec 1bbe fa0a 513e fd24 83be
00000070: f8e3 c13c c874 0d3d 7bc9 743e 10cd 92bd
00000080: 0691 af3d d3b8 47be 1aa0 b2bc 2065 4dbe
00000090: f169 27be 52b8 d6bd b90e 86bd ae6a 16be
000000a0: d6d7 8d3c 7455 813e 0063 483d ccbc 183e
000000b0: 9f2e 08be 8ab1 823d a84d cebc 04ad 1ebe
000000c0: 518a be3d 4c2c 293e d12f 213d 273f 57be
000000d0: 57cb 0c3e 91eb 9dbd dc9b 3a3c b384 413c
000000e0: 7efe 4ebe f6dc 54be 6e2d 703d 8251 45be
000000f0: 4929 213e 3217 813d 726c 0b3e e020 b3bd
00000100: 2707 203e 9c03 81be a3c6 913d 4872 05be
00000110: 4e9c 0dbd c1b6 2e3e 4c75 303e 2686 2abe
00000120: ac92 613e 8f96 e83c fade f53d 3a1f 21bd
00000130: d757 093e 7d2f 723e 1675 ccbb c10f 5dbe
00000140: b207 15be 78aa 5cbe b07a 693e a451 63be
00000150: 681f 213e 35e2 5b3d 2f55 6fbd 584c 793e
00000160: f8d8 543d b86b 3dbd c08a 803e 1584 57be
00000170: d7fc 94bd dca8 693c 0087 1bbe aa94 a83b
00000180: 950b f1bd 07e6 053d 271d 3b3e 0c30 0b3e
00000190: 177c 803e 3b47 473e 56af 7fbe 14e7 273d
000001a0: 8131 1cbe 7c34 eabd 4937 15bd 59f2 cebb
000001b0: 4176 fdbd 760b e73d d132 2d3e 134a c9bd
000001c0: 4d85 013e dd06 753e 8f30 fb3d c4ff 0dbe
000001d0: 3601 f33d 409c b83d 3ee9 9dbd 7032 363e
000001e0: a7b4 003d 076a 363e 4ec1 363e 1803 6d3e
000001f0: f7f4 1e3d 8619 22bc 1bf4 453e 374b 74be
00000200: 37ee 6ebe 21d3 d53a ae91 93bd 0eb8 0c3e
00000210: bc2a 4dbe 0b05 143e d518 0fbe bda2 1c3e
00000220: 93d5 a83d 6114 06bd e3d1 69be 9eb8 e63d
00000230: aed2 f1bd 5e78 8a3d c0af 63be 8dbb 57bd
00000240: 9bfd 5bbe ea10 ecbb c5be 81be b58c 9dbd
00000250: 473f 4dbd 9129 0cbe

layers.4.bias f4 [10]
-0.17220078 0.007346135 0.07701278 -0.086201586 0.0730848 -0.2565231 -0.046048056 0.1736465
-0.138953 0.20309673
00000000: 6755 30be d9b7 f03b e0b8 9d3d 758a b0bd
00000010: 7cad 953d ff56 83be e39c 3cbd 63d0 313e
00000020: b249 0ebe 97f8 4f3e

layers.6.weight f4 [5, 10]
0.00027917387 -0.22198741 0.25553352 0.2030854 0.1341107 -0.13455206 -0.25533682 0.23691888
-0.0063426336 -0.20992114 0.079814285 -0.30014297 0.22800145 0.1661308 -0.2683325 -0.15393844
0.2550901 -0.11685256 -0.14112127 -0.12111113 0.15112108 -0.21898429 0.13284118 -0.1432201
0.24096866 0.004816051 -0.058670606 0.15746485 -0.040069625 0.2917236 -0.05839351 -0.02255163
0.31289974 -0.07810135 -0.23227093 -0.10871092 0.11120428 -0.13077915 -0.30113983 0.031313043
-0.25904304 0.21178399 0.21959345 0.11050569 -0.057980675 0.12233785 0.034042746 -0.30279928
-0.034885176 0.18514349
00000000: 155e 9239 ab50 63be 4ad5 823e 9ef5 4f3e
00000010: 5154 093e 04c8 09be 82bb 82be dd9a 723e
00000020: ded5 cfbb 91f5 56be ac75 a33d 57ac 99be
00000030: 3679 693e 311e 2a3e e162 89be 0aa2 1dbe
00000040: 2b9b 823e 6550 efbd 1882 10be 1d09 f8bd
00000050: 7cbf 1a3e 6b3d 60be 8507 083e 4aa8 12be
00000060: 7dc0 763e f7cf 9d3b 9750 70bd 773e 213e
00000070: 0c20 24bd cc5c 953e 082e 6fbd 32be b8bc
00000080: 6534 a03e 9af3 9fbd 6ed8 6dbe d5a3 debd
00000090: 12bf e33d f8ea 05be 002f 9abe 1b42 003d
000000a0: 4aa1 84be e7dd 583e 1bdd 603e cf50 e23d
000000b0: 257d 6dbd 448c fa3d 6870 0b3d 8208 9bbe
000000c0: c2e3 0ebd 4196 3d3e

layers.6.bias f4 [5]
0.12597649 0.15554868 -0.27358627 -0.061339874 0.22783393
00000000: fbff 003e 2748 1f3e 8013 8cbe 853f 7bbd
00000010: 4c4d 693e

layers.8.weight f4 [1, 5]
-0.0012379737 -0.34617788 -0.33305064 0.42528042 -0.356155
00000000: 8143 a2ba 3a3e b1be 9d85 aabe 5bbe d93e
00000010: f359 b6be
