aeacus/weights/SVDD.pth (torch, 8135 bytes, 9 tensors)

layers.0.weight f4 [22, 29]
00000000: 9266 63bd 77e9 a7bd de8d 073e 7d66 d73c
00000010: 4e63 cd3d 30cc 6e3c 419b 00bd b26f d43d
00000020: 12f4 deba ffda b1bd 7d80 38be c237 ddbd
00000030: 545b 23be 7dc7 cfbc cae3 2fbe f400 173e
00000040: 2b0d 02be f60e 8dbc 5edc 973d 286c 99bd
00000050: 1fc6 00be 993a a33c a5b6 28be 2d21 91bd
00000060: a2a5 013e 7122 e9bd 5bce 373e 427e 5bbc
00000070: 1283 32be d502 08be 99b5 a5bd 7a47 d9bd
00000080: 41d9 593d d5f4 81bd 731d 0f3e 71f0 0f3e
00000090: 27ab f63d 3ee3 233d 16d5 df3d d5b3 a53d
000000a0: 7b28 e9bd 85b5 a8bd dfe9 9a3d a9f6 183e
000000b0: db7f 243e 9a44 253d c6de ea3c 4a52 50bd
000000c0: a4da 2fbd 5c0e 5d3d 7f35 2d3e cb65 893d
000000d0: 7f6c 893d 50f3 38be 94e3 a23d 52c6 9b3d
000000e0: f3bb b23d 5e90 bb3c ce23 c83d 5958 67ba
000000f0: 56d2 d5bd 6490 323c 8961 873d 7cea 733d
00000100: 30d1 10be c23e 0fbe 60f6 063e 875c 153d
00000110: bf63 543c 92ac 593c 5ef5 1b3e 3db4 1dbd
00000120: d51b 023e eec3 b83d 52b2 273e e878 09be
00000130: 359a 463d 4d1f 883d 90fa dc3c a7ee 323e
00000140: c04c cbbd 7330 d23d a305 d23d e0ba dcbd
00000150: 569a debd 976f 063a a7af 1ebd 670b 24bc
00000160: b368 11be a971 253e 0818 1f3e b312 b3bd
00000170: 4dcb 1c3e 9c44 d2bd 9d97 39be ec9d 26be
00000180: c278 a7bd 10f0 14be 0622 e5bd 4898 03bd
00000190: bc86 a8bd a52f 263e 060b 5e3d 86c7 e9bd
000001a0: 2897 dcbd 00a6 823c c7b5 f8bd adf3 1cbe
000001b0: 9f34 a63d 773e 32bd f596 f43d 7ca2 4d3d
000001c0: db17 233e eca1 f03d 8640 603d 278e 90bd
000001d0: 6391 de3d 7251 9b3d 5b14 953d 9d26 08be
000001e0: 0239 39bd 2859 6fbd f8a0 1fbe 7c8e 40be
000001f0: b8fe cd3b 2578 a03d 651b 133e d131 113d
00000200: 1972 1b3d 6e02 acbd 1e46 183e 3f16 9b3d
00000210: ec9b 24be 9ce6 3c3e bc18 1dbe 7491 4fbd
00000220: 5847 563c 0436 b9ba 31b9 473d 4e5a a1bd
00000230: 8321 863c ec2f 39be 2346 99bc 7e55 fd3d
00000240: 3b4c a3bd 9302 ecbd ba8c 113c 0874 bcbd
00000250: f7c2 1b3e 3c92 ddbd 36d5 3ebe 4b3e c7bd
00000260: 9bfd 293e 0b07 b43d a744 743d 1c59 9d3d
00000270: 072d 553d c572 4f3c b50f 2d3d 1f4d 18be
00000280: bad6 0e3e 8852 123e d8e5 f23d 36f6 5dbd
00000290: 0610 c2bd ce69 13bd 7948 26be d066 fbbd
000002a0: 7453 12be cf98 993d 1b53 3dbc b8ca 4abd
000002b0: 5eb8 0ebe 6e36 30be 78ce 23be b832 853d
000002c0: fc42 11be 21bc 97ba 33a1 073e 4a35 32be
000002d0: 7a0d ec3c 48d8 dcbd 868d 39bd b53e 953c
000002e0: 5a13 063d b1df a63c ce3a 28be b874 023e
000002f0: e75b 2ebe 29e6 83bc 66f0 fbbd 8bf5 03be
00000300: 2419 1cbe 51bd 00be 5f82 b3bd 2bed b93d
00000310: c9fb edbd adb5 14be fd4a 96bd 98fe 03be
00000320: 1c13 d33c 9f2c 0b3e 00c5 30be 91f8 b03d
00000330: e090 e73c 2f92 b53d e32c 9e3b 303e 0cbe
00000340: 6c65 9dbd b51f 3e3d 92d4 1f3e caa3 43bd
00000350: f6eb 193e 3af6 ee3b 0284 2a3e 11b4 33be
00000360: e631 6dbd 4eea 79bd f176 10be da03 a3bd
00000370: dbac 283e 3fb7 f0bb 0eac 6fbc a334 0ebe
00000380: 7645 91bd 111e 143e dbf5 09be 61f1 f03d
00000390: ab20 e3bd 8310 9d39 56aa 8f3b 04c4 2e3e
000003a0: b7b0 dfbd d56d 68bd 2ec8 0b3e cd3c 38be
000003b0: ec6e e1bd ffcd 08be bc6f 253e 47b6 2dbe
000003c0: a6b5 843d 5c43 c3bd 4809 fb3d ee96 b53d
000003d0: dfc4 9cbc 1533 17be df26 1d3e 91fd 3d3d
000003e0: 05fb ecbb 8255 3b3e feac e8bd d6ca e1bd
000003f0: 1644 4d3d 949a 39be e5f3 0cbe 0805 383c
-0.05551774 -0.08198827 0.13237712 0.026293987 0.100287065 0.014575049 -0.03139806 0.10372867
-0.0017009994 -0.08684348 -0.18017764 -0.108016506 -0.15952808 -0.025363678 -0.17176738 0.14746457
-0.12700336 -0.017219048 0.074150786 -0.07491332 -0.12575577 0.019925402 -0.16475923 -0.07086406
0.1266084 -0.11383522 0.17949812 -0.013396801 -0.17432812 -0.1328233 -0.08091278 -0.10609336
0.053185705 -0.06345526 0.13976078 0.14056565 0.120443635 0.040011637 0.10929315 0.08090941
-0.11384674 -0.08237747 0.075641386 0.14937843 0.16064398 0.040348627 0.02867068 -0.050859727
-0.04293312 0.053968772 0.16914938 0.067088686 0.06710147 -0.18061566 0.07953563 0.07606186
0.08727255 0.022895988 0.09772454 -0.00088251155 -0.10440509 0.010898683 0.066104 0.059549794
-0.14142299 -0.13988784 0.13179922 0.036465194 0.012963234 0.013285773 0.15230319 -0.038501967
0.1270593 0.090217456 0.16376618 -0.13425028 0.048486907 0.06646595 0.026974946 0.17473851
-0.09926748 0.10263147 0.10254981 -0.10777831 -0.10869281 0.00051283225 -0.038741734 -0.010012484
-0.14200096 0.16156639 0.15536511 -0.08743801 0.15311928 -0.102669924 -0.18124242 -0.1627118
-0.081773296 -0.14544702 -0.1118813 -0.03212765 -0.082288235 0.16229112 0.05420973 -0.11415009
-0.10771018 0.015948296 -0.12144046 -0.1532733 0.081155054 -0.043516602 0.11942855 0.050203785
0.15927069 0.11749634 0.054749034 -0.070583634 0.10867574 0.07583894 0.07279273 -0.1329598
-0.045220383 -0.058434635 -0.15588748 -0.18804353 0.0062864684 0.07835416 0.14365919 0.0354479
0.03795061 -0.08398901 0.14870498 0.075726025 -0.16075104 0.18447345 -0.15341467 -0.050675824
0.013078533 -0.0014130478 0.048760597 -0.078785524 0.016373402 -0.18084687 -0.018710202 0.12369822
-0.07973524 -0.115239285 0.0088836495 -0.09201819 0.15211092 -0.108189076 -0.18636021 -0.09728678
0.16600649 0.08790406 0.059635784 0.07683012 0.052044895 0.0126616405 0.042251308 -0.1487317
0.13949099 0.14289296 0.118602455 -0.054189883 -0.094757125 -0.035989575 -0.16238584 -0.12275469
-0.14289647 0.07499849 -0.011555458 -0.049509734 -0.13937518 -0.17208263 -0.1599673 0.065038145
-0.14185709 -0.0011576453 0.13245086 -0.1740314 0.02881502 -0.1078344 -0.045300983 0.018218378
0.0327333 0.020370336 -0.16428682 0.12739837 -0.17027245 -0.01610096 -0.12301712 -0.12886636
-0.15243965 -0.12572218 -0.08765101 0.09078439 -0.1162029 -0.14522429 -0.07338522 -0.12890089
0.025765948 0.1359124 -0.1726265 0.0864116 0.028267324 0.08865773 0.0048271283 -0.13695598
-0.0768536 0.046416957 0.15608433 -0.047763623 0.15031418 0.007292536 0.1665192 -0.17549159
-0.057908915 -0.061014466 -0.14107873 -0.07959719 0.16472189 -0.0073460634 -0.014628423 -0.13887267
-0.07093327 0.14464594 -0.13472693 0.117647894 -0.11090215 0.00029957676 0.0043843193 0.17066962
-0.109223776 -0.05674537 0.13650581 -0.17991944 -0.11007485 -0.13359831 0.16155905 -0.16964065
0.06479959 -0.09534332 0.1225763 0.08866678 -0.019136844 -0.1476558 0.1534686 0.046384398
-0.0072320723 0.18294337 -0.11361121 -0.11025016 0.05011376 -0.18125373 -0.13764913 0.011231668

layers.0.bias f4 [22]
00000000: 0638 863d 1416 ab3b e1bc 923d ae1f 39be
00000010: 98db 6c3d 0d22 1e3e 1370 db3d ebb8 143e
00000020: 6fd9 0b3e f92c 28be a20a e8bd ee0b 0ebe
00000030: e423 aa3d cd3a c5bd 7834 dcbd c9af c7bd
00000040: 8e81 313e c149 2fbe 8da7 293e afa1 3dbd
00000050: 0a4c 1d3d 596c 13be
0.065536544 0.005221138 0.07164932 -0.18078491 0.05782661 0.15442677 0.10714736 0.14523666
0.13657163 -0.16423406 -0.11330153 -0.13871738 0.08307627 -0.09630356 -0.10752195 -0.09750325
0.17334577 -0.17117979 0.16567822 -0.04629677 0.038402595 -0.143968

layers.2.weight f4 [15, 22]
00000000: 04ec e4bd 58b3 b03d a66f e6bd e3b7 d6bd
00000010: a6f1 023e 2547 22be ed07 b43d be65 8e3d
00000020: 8e66 1b3d 3d7f 873d 470f f73b 0cdf 12bd
00000030: 64e4 40be af7a bd3d 939a 8abd 7f9c 243e
00000040: 379b 0abe e196 023e cca3 11be df7e 173e
00000050: 00c5 27be 724c 6e3d 9a28 2b3e c1e9 ed3d
00000060: 17c0 0fbe ef3c fbbd 8fa6 333e 642c 45be
00000070: 0457 743d abb1 213e db7e 093e 2d4b 84bd
00000080: 8803 393c 9c4a 4dbe aaeb e9bb 41b3 51be
00000090: 0a24 113d dfc1 4f3d 3320 433e 0874 af3c
000000a0: 1803 043e 2bf9 273e bb42 803c 3e19 47be
000000b0: d964 c5bd ded9 5b3d b3a0 80bd da85 60bd
000000c0: 4b5f 1fbe 6f76 133e a34a 30be ee18 213e
000000d0: d3b0 40be bb33 ac3d dfc1 fabb 6779 203e
000000e0: 4c64 363e f8b8 abba ee6b 983d a987 403e
000000f0: 5def 533e ea19 bcbd b7ed 46be 99a8 3b3e
00000100: 26e5 87bd 47d2 f4bd 12b6 7e3d c149 723c
00000110: eacc c6bd be19 2abc 43f4 8e3d 462e 063d
00000120: 75ae 123e 5dc3 f23d 6377 1b3d 5aa1 2ebd
00000130: 9952 903d 27e9 043e 84a7 d7bd d32a 493e
00000140: 9040 523e dd0c 0e3c 9d90 0a3d 93f8 433c
00000150: 2857 413e 94c1 b13d 420b 07be 3d39 8cbd
00000160: f9da 51be 6a2d 393a 0fc9 22be 4965 063e
00000170: a863 253e 307f 4fbe 8ffd 33be 5ad6 1f3e
00000180: a6fd 35bc 5424 83bd 8211 1bbe 060e 49be
00000190: f4cd c23d b2c2 0e3e 570e a9bd 16e0 9b3d
000001a0: 6024 f3bd cb48 163b 7152 433e 7916 df3d
000001b0: e9fe 413b d9d1 cc3d 29ed 36be f939 df3d
000001c0: 256a 0c3e afd5 c73d 1338 873c 58a5 cdbd
000001d0: 78cf d03c 6cfe 55bd 987a 453e 5136 09be
000001e0: 4ebf b53b aed1 f13d 90ca 42be cc06 003e
000001f0: 6895 df3d f6ef 2bbd 4907 1ebe e9e2 fdbd
00000200: d87c 8d3d 660f 363e be20 51bd d589 3abd
00000210: 8009 453d cb3a e53c 7ab0 0dbe a977 18be
00000220: 364a 563d 4d1a 6e39 bf9c 2bbe a593 e53a
00000230: 6113 3f3e b8af c73d 7e06 20be a295 42be
00000240: 2bc5 42bd 87a6 4ebe be5a f53d 35f8 c0bd
00000250: 3502 fd3d cff8 cc3c 6f16 803d 3341 2f3e
00000260: 3f8d f1bd 157c 00be ea58 c93d ce98 f0bd
00000270: 2869 53be a8cb 4ebd da7e b8bb 7d2c c13d
00000280: 9274 f33c 57f9 c73b 2efd d83d 16ba e83c
00000290: 1fab 023e 1b25 143e 288c a8bd dcbd 423e
000002a0: e63e 4f3d ce45 96bd a521 e03d 2757 5abe
000002b0: cd56 983d ff4e 52bd 2529 2dbe 42d0 d8bd
000002c0: 4dc1 c23c 294b fe3d 187b 1fbe 21d5 053e
000002d0: f328 8fbd 8ccf bc3c 5a68 bfbd bd87 fd3c
000002e0: e879 8abd 543c 51be 062b a43b 2de6 133e
000002f0: 5183 bc3d a4c7 983b 126b 833d c901 4e3e
00000300: 0f13 2abe bf9e 2f3e fd99 b0bd 0e70 5abd
00000310: 6fb5 543e aa9e ecbc af5a d93d 29ba 46be
00000320: 9bd7 113e 87b2 223e e90a 4fbe e2ef 1abe
00000330: 20a0 1e3e bb15 8e3c 7937 903d a1f1 4abd
00000340: 6ab9 fc3d ccaa 12be acd2 3e3c 500b 063e
00000350: 04cd 653d ae2b 1b3e 2cd3 35be 8283 433e
00000360: 3c56 37be 4b84 03be 181a f33d 04b2 0cbe
00000370: a264 b43d e043 0bbe 31ab 9bbd eb83 d83d
00000380: c58c 263e 71a7 2dbe 2b98 b43d 5167 bf3d
00000390: 43fe 4d3e 5c5b 2dbd e26d a63d 0c42 25be
000003a0: b535 173e 2c94 82bd 6432 88bd a06b 553e
000003b0: 1975 233e 1621 37be a522 34be 8326 af3c
000003c0: 7c08 943d 5c69 a53d 732d d3bc fe0d 0f3e
000003d0: fe2e 97bd 43c8 9ebc e835 36bd 6530 aa3d
000003e0: a6bb d73d 4d1d b1bc 9feb 45bd ac51 00be
000003f0: 2c94 37be 4d06 403e c0eb 4f3d dc97 41be
-0.11177829 0.08627957 -0.11251764 -0.10484292 0.12787494 -0.15847452 0.08790574 0.069529995
0.0379396 0.06616066 0.007539663 -0.035857245 -0.18837124 0.09251916 -0.06767764 0.16075324
-0.13535772 0.12752868 -0.1422264 0.14794491 -0.16383743 0.058178373 0.16714707 0.11616851
-0.1403812 -0.122674815 0.17544006 -0.19255215 0.059653297 0.15790431 0.13427298 -0.06459651
0.011292346 -0.20047992 -0.007138689 -0.20478536 0.03543476 0.050722 0.19055252 0.021417633
0.12891805 0.16403644 0.01565682 -0.19443223 -0.09638376 0.05367457 -0.06280651 -0.05481515
-0.15563695 0.14400648 -0.17215972 0.15732166 -0.18817453 0.08408304 -0.0076525058 0.15671311
0.17811698 -0.001310139 0.07442461 0.1880175 0.20696779 -0.0918463 -0.19426619 0.18326034
-0.066355035 -0.1195417 0.062185355 0.014788092 -0.09707053 -0.010382114 0.06980183 0.032758974
0.14324363 0.11853669 0.037955653 -0.042634346 0.07047004 0.12979566 -0.10529998 0.19645242
0.20532441 0.008670059 0.03382932 0.01196112 0.18880904 0.086795 -0.13187888 -0.06846855
-0.20493688 0.0007063957 -0.1589701 0.13124575 0.16151297 -0.20263362 -0.17577194 0.15609112
-0.011107838 -0.064034134 -0.15143397 -0.19634256 0.09511939 0.13941458 -0.08254688 0.076111004
-0.11872172 0.0022931572 0.19074418 0.10892958 0.0029601401 0.10000963 -0.17863907 0.10899729
0.13712366 0.09757554 0.01650623 -0.100413024 0.025489554 -0.05224459 0.19285047 -0.13399626
0.005546487 0.11807571 -0.19022584 0.12502593 0.10917169 -0.04197689 -0.15432467 -0.12396795
0.06908578 0.17779312 -0.051056616 -0.045541603 0.048104763 0.027982136 -0.13836852 -0.14889397
0.052316867 0.00022707247 -0.16759013 0.0017515315 0.18659736 0.097503126 -0.15627477 -0.19002393
-0.047551315 -0.20180713 0.11980198 -0.09422342 0.123539366 0.025020985 0.06254279 0.17114715
-0.11794519 -0.12547334 0.09831412 -0.11747895 -0.20645583 -0.05048719 -0.0056303563 0.094323136
0.029718671 0.0061027217 0.10595165 0.028409045 0.1276059 0.1446728 -0.08229858 0.19017738
0.050597094 -0.07337533 0.10943917 -0.21322308 0.07438431 -0.051344868 -0.16910227 -0.10586597
0.023773814 0.124166794 -0.155743 0.13069583 -0.06990232 0.023048185 -0.09346075 0.030948514
-0.06761533 -0.2043317 0.0050100116 0.14443274 0.09204734 0.004662471 0.064169064 0.20117868
-0.16608833 0.171504 -0.08623121 -0.05332952 0.20772336 -0.02888425 0.10613 -0.19406952
0.14242403 0.15888415 -0.20219006 -0.1513057 0.1549077 0.017344346 0.070418306 -0.04954684
0.123400524 -0.14322966 0.011646908 0.13090253 0.05610372 0.15153381 -0.17756337 0.19093135
-0.1790399 -0.12843435 0.11870211 -0.13739783 0.08808257 -0.13600111 -0.076010115 0.10572036
0.16264637 -0.16958405 0.08818086 0.09345878 0.20116524 -0.042323455 0.08126427 -0.16138476
0.14766581 -0.06375918 -0.06650236 0.20841837 0.15962638 -0.17883715 -0.17591341 0.021380669
0.07228181 0.08076736 -0.025778508 0.13970181 -0.0738201 -0.019382602 -0.044485003 0.08310012
0.10533838 -0.021620417 -0.04832041 -0.12531155 -0.17927617 0.18752404 0.050761938 -0.18905586

layers.2.bias f4 [15]
00000000: 42eb 18be 0f81 aebd ca97 bbbd 84dc 02bc
00000010: 944b edbd ff87 47be e8b3 173e e1f4 283d
00000020: 052c cabd e6d3 073e df5f 13be 4ca1 d83d
00000030: 667d 5ebe dd8a d8bd f4d2 1cbd
-0.14933494 -0.0852071 -0.09159811 -0.007987145 -0.11586681 -0.19485472 0.14814723 0.04124916
-0.09871677 0.13264427 -0.1439204 0.1057764 -0.21727523 -0.10573361 -0.038287118

layers.4.weight f4 [10, 15]
00000000: 821d 2fbe 2d47 f4bd 13b6 56be a379 fcbd
00000010: 8ed9 2e3e 8fbc 323e b513 c2bb 6c3e 74bd
00000020: 9f6a a5bc 2045 37be f9cb ec3d 6e0c 36be
00000030: 430b e73d 5c39 103e a6c6 6bbb e6ad 70be
00000040: a4d4 493d 8625 40be 18a3 023e ce67 f63d
00000050: 9930 41be cf63 cebd f410 17be 0a56 393e
00000060: 695e 163e bbba 943d cf92 d4bd 816e 5ebe
00000070: 96d5 bebb 38e0 f5bc 7fa7 a13b 7583 39be
00000080: 88b5 683e e527 86be ec77 03be c766 f83d
00000090: 79f9 603e 79ab 86bc 37bf 573e e5d5 78be
000000a0: 4155 47bd 6fe1 1c3e cf81 ecbd 1ad0 74be
000000b0: ae9a 0f3d c720 883c 8768 ce3d f404 843e
000000c0: 2a01 f73d 1f6a e23c ec45 39bd 670f ec3d
000000d0: 2d32 43be 5563 d4bd 7276 02be 4822 923c
000000e0: d42c 60ba 206e febc 7d14 66bd eca4 573e
000000f0: 49e3 d03d 4e50 8f3a cce7 543d 576a 80be
00000100: a7ee ec3d 6289 47be 925e 6abe 85f6 f8bd
00000110: 405c 623e 56ca 243e 9275 833e 9910 d1bd
00000120: 9fe8 75be 2946 fc3d 3f77 f53c cc5e fc3d
00000130: d9e6 70bd 4ebb 8f3d 2c5c a4bd 4c6a 123e
00000140: 0ac0 dfbd 3e20 48be fb65 233e 730d 20be
00000150: 7ca3 75bc a202 3e3d a9f0 423e 6a64 acbd
00000160: 3e95 53be dba3 cabd 7659 093e dd7f 81be
00000170: a452 74be 823d bcbd dbd5 493d c99b 773e
00000180: 0907 893d 2f00 0a3e e504 613e 8d5f 493e
00000190: 163d 0fbd 08bd 6d3e a13c 4b3e 2afa ef3c
000001a0: 81a0 a33d 97fc 6bbe bba3 0bbe a15d 823e
000001b0: 6c23 00be c558 bf3d fc02 0fbd 1e21 733b
000001c0: 7d4f 033e 501b ff3d 64b9 d5bb c1b5 473e
000001d0: c0a9 9bbd d6c8 2b3e 36d4 5cbe 18bc af3d
000001e0: a30b 89bd e426 a43b c889 363e 0f0d 9a3d
000001f0: a2ed 77bd fd11 aabd 265e 43be 3f9b a63d
00000200: 0cb6 26be 534a e43d cec2 573e db25 2d3e
00000210: ed6a 6f3e a112 f9bd c43f 4d3e d5d6 303e
00000220: 598b 6cbe 37eb 6dbc 3aea 7abe 3f0c 193e
00000230: b740 17be a829 183e 8b71 64be 4a13 d3bd
00000240: f304 673d 18c0 6b3e 66e5 0d3c 93e3 2b3e
00000250: ee85 cbbc bb46 713e
-0.171011 -0.11927638 -0.20967893 -0.12327888 0.17075178 0.17454742 -0.0059227594 -0.059629843
-0.020192442 -0.17897463 0.11562342 -0.17778179 0.11281445 0.14084381 -0.0035976558 -0.23503837
0.049275056 -0.18764314 0.12757528 0.12031518 -0.18866195 -0.10077631 -0.14752561 0.18099228
0.14684452 0.072621785 -0.10379564 -0.21721841 -0.0058238013 -0.030014142 0.004933297 -0.18116553
0.22725499 -0.26202312 -0.12838715 0.12128978 0.21970166 -0.016439186 0.21069036 -0.24300344
-0.04866529 0.15320371 -0.115481965 -0.2390751 0.035059623 0.016617192 0.10078531 0.2578503
0.12060769 0.027638493 -0.0452327 0.11526375 -0.1906211 -0.103705086 -0.12740496 0.017838612
-0.0008551602 -0.031058371 -0.056171883 0.21059006 0.10199601 0.0010933967 0.05197887 -0.2508113
0.11568957 -0.19486001 -0.22887638 -0.12156395 0.22105503 0.1609281 0.25675637 -0.10208244
-0.24014519 0.123180695 0.029964088 0.123227686 -0.058813903 0.070181474 -0.08025393 0.14298362
-0.109253004 -0.1954355 0.15956871 -0.1563013 -0.014992591 0.04638923 0.19037117 -0.0841759
-0.206624 -0.09894534 0.13413033 -0.25292864 -0.2385965 -0.09191419 0.049276214 0.24180521
0.06690795 0.13476633 0.21974523 0.19665356 -0.034970365 0.23216641 0.19847347 0.029294092
0.07989598 -0.23045574 -0.13636677 0.25462058 -0.12513512 0.09343103 -0.034914955 0.0037098597
0.12823291 0.12456381 -0.0065223444 0.19502927 -0.076007366 0.16775832 -0.21565327 0.08580798
-0.06691673 0.005009519 0.17825997 0.07522022 -0.06052936 -0.08304212 -0.19078884 0.081350796
-0.16280383 0.11146989 0.21070406 0.16908972 0.23380633 -0.12161756 0.20043856 0.17269452
-0.23100032 -0.014521412 -0.24503413 0.14946078 -0.1477078 0.1485964 -0.22308938 -0.103064135
0.056401204 0.23022497 0.00866065 0.16786031 -0.024844136 0.23562138

layers.4.bias f4 [10]
00000000: 13ad 36be e241 873e 946e 103e d314 f13d
00000010: bf3f 863e 219e f0bd fe30 e8bd 1f29 0c3e
00000020: 7551 563e c25a 8a3d
-0.1783946 0.26417452 0.14104682 0.1177155 0.2622051 -0.11748911 -0.113374695 0.13687561
0.20929511 0.06755592

layers.6.weight f4 [5, 10]
00000000: 2816 223e bd7b 6dbd 32b8 38be 3c61 4abe
00000010: f914 a23e 3440 f63d 3e1d 63be be04 203e
00000020: de1b 1abd 003b 5a3e 20ee 3e3e 005b e63c
00000030: 383b 123d f49a 93be cd17 59bd 7fe0 653e
00000040: 121f 97be d762 7dbe bf6f 8fbe 917c 973e
00000050: dd30 b5bd 1655 7ebe 37dc 1e3e 6ca5 3fbe
00000060: c48b 84be 0572 20bd 9102 9f3e aa1c 05bd
00000070: 39e5 cabd 0b61 873e 2408 f9bd e5b5 debd
00000080: bb3f 1f3e 90fa 3bbe 15a7 79be 8ee0 7a3e
00000090: 74d9 75be 668e 68be b7c9 183c 2b72 49be
000000a0: 7840 aabc d7ef 813e 503f 59bd 4908 473e
000000b0: 355c 7ebc d576 823e 8dba 3ebe e2f1 8f3d
000000c0: 7108 8dbd 1856 8d3c
0.15828764 -0.057979334 -0.18039015 -0.19763654 0.31656626 0.120239645 -0.22179124 0.15626809
-0.037624232 0.21311569 0.18645525 0.028119564 0.035701007 -0.28829157 -0.053001214 0.2244892
-0.29515892 -0.24744736 -0.28014943 0.29587224 -0.088472106 -0.24837145 0.15513693 -0.18715447
-0.25887883 -0.039171237 0.31056646 -0.03249804 -0.09907002 0.26441225 -0.12159756 -0.108745374
0.15551655 -0.18357301 -0.24380143 0.24499723 -0.24008733 -0.2271057 0.009325436 -0.19672458
-0.020782694 0.25378296 -0.053038895 0.19436754 -0.015524914 0.25481287 -0.18625851 0.07028557
-0.06886376 0.017252967

layers.6.bias f4 [5]
00000000: 9020 8dbe 86e3 873d e11d 13bd acbe 893d
00000010: 6afd b13e
-0.27563906 0.066351935 -0.035917167 0.06725821 0.34763652

layers.8.weight f4 [1, 5]
00000000: f3ee 9cbe 6e2c 923e ecd4 bd3e f336 003e
00000010: 0317 b5be
-0.30651054 0.28549522 0.3707651 0.12520961 -0.3536912
