archive/vae.pth (torch, 10945 bytes, 12 tensors)

encoder.0.weight f4 [20, 29]
00000000: 0a8e ab3c 608d e13d b0b3 62bd da7a b7bf
00000010: dc35 87bc b316 0ebd 077d a5bd d5bd b83c
00000020: bc28 103e 407e 5a3d bb8a 1abe d9dd 16bf
00000030: 308d b0be 8b09 263e 106f e33e 92f3 373e
00000040: ec47 393d fdf6 4abe 4d01 4ebd 49e4 8ebd
00000050: 30c9 30be 4894 07be 792a c13d 11ff 0440
00000060: c80e d73d b93d 21be dfaf ecbd 0075 09bd
00000070: bf71 67ba 0070 773a 1050 06be b5ee 363e
00000080: d265 823d e049 28bd e8b1 863c 55f8 afbd
00000090: 4ce9 e5bd 31d1 88bd 5e6c 12be 308f 7bbd
000000a0: 76f7 9b3d 981c 15be c693 803d 669d 2abe
000000b0: a135 b2bd 90c7 f5bc f501 12be 9817 753d
000000c0: b408 17be d0a4 173d a43c 803d bc65 7c3d
000000d0: 2080 d8bc b896 6e3d 221a fb3d 5ff0 1bbe
000000e0: 2d46 2dbe 74be 62bd af56 28bc 3725 bfbb
000000f0: db72 1a3c d1b4 bf3d fb02 013e 0d82 b43c
00000100: e94e 39be 85a7 21be 86ac 5abe 890d 10be
00000110: 700a 93bd 1df3 b13d b6aa bdbd 4beb 723d
00000120: 30d7 e0bd d450 a7bd cbcb 0d3e 4a7c b53d
00000130: 64b0 0abe 2602 d53c 8385 62bd 6d5f 99bd
00000140: 84b3 76bd 1381 0abd 6026 4ebe 4840 693d
00000150: c694 08bd e1f5 0ebe d01f 3a3d f88d 933c
00000160: 20bf 893b 3806 edbc 001e fcb9 c631 30be
00000170: e88e e3bc 8083 ed3a 71d2 abbd 18b7 873c
00000180: 5173 1d3e 17ab b1bd 905f b4bc 34c2 783d
00000190: b72a b6bd cf12 08be 2c10 3ebd 784d f1bd
000001a0: d859 703d 1d3f 1f3e ee15 0abe e045 d23c
000001b0: 0066 9bba a1b2 d9bd e00a a73b 0b80 3bbe
000001c0: 1c0d 4abd eacc ec3d 7ec5 9d3d 1e9e c63d
000001d0: a626 48bc 99be 61bd f381 f43d 05e9 e8bd
000001e0: d8ef 253d 05b2 563e 8aef 8dbe 5177 9dbb
000001f0: 5d96 1bbd d369 ba3d 6b25 733e 3af6 fcbc
00000200: ea82 85be c27f 213c 786e 8cbe e406 34bd
00000210: f39d 333e db0b 96be ff95 48be 2734 f3bd
00000220: d811 10be a988 4a3c 7bae 2e3d de0e d93f
00000230: ba53 4e3c da8d 2bbe 37de 8c3d 8aff 45bd
00000240: 7c4b 443e b9be b23b 63c6 abbd deb5 19be
00000250: 8e3a 413e 613e 51bb 6b88 e3bd 18f7 35be
00000260: b5b8 9fbd 4747 0e3e 3e91 2dbe 8f7c a73c
00000270: b512 fb3b ac23 66be e3a4 83bd c5a0 bc3e
00000280: 8d2c 42bd 0906 55be bd47 e43d e809 44be
00000290: f44b c13d b87e 35bc 6713 6ebe 3603 71bd
000002a0: e0fe 683e bc0e 94bd 191e c03f 5cbb 39be
000002b0: cfce 9dbd 93be 22bf c1a0 14be 2646 dd3d
000002c0: b815 2abd d4b5 013d e079 c8bc 2938 073e
000002d0: b0ea 713c 36b6 83bd 6cbb 69bd 784c ab3c
000002e0: bec5 debd 3880 0dbd 97db c4bd d0b0 3ebd
000002f0: 6aec c93d df14 a3bd a09f 1abc 487a 35bd
00000300: 33c5 f7bd 88ad 56bd 0c11 63bd 822e a5bd
00000310: e679 cf3d 89ae 2ebe 9c22 11be bab0 a33d
00000320: b010 043d 97f1 073e 60d5 5bbc c653 ba3d
00000330: 9e88 b03c ef8c e73d 5393 b83c a85a 193e
00000340: 4e88 f3bd e2b0 883e fe29 543d 25cb 6cbe
00000350: 06c6 bd3e 1392 2bbd 360e 193f be80 b6bf
00000360: 3da5 49be 5889 80bd 3737 203e 1f53 743d
00000370: 5a8d 983d 2b25 483c bdf0 dfbc 44b8 413d
00000380: 3c94 463d 0d6e 8a3d 608f a9bd 8353 823c
00000390: a467 1abe 67aa 943d faf7 03bd 6b5f df3e
000003a0: 5055 a13d afcd 173e dd35 c83c db2c dfbc
000003b0: 9ef0 0cbd e253 e63c 87d7 143e 0843 0b3e
000003c0: 9f1c cc3a 01b4 8f3d 72f8 20bc 1de3 473d
000003d0: 777f a5bf 0c5d 5abc d31c f5bd f2e7 853c
000003e0: 643d 143d 2191 e93d 4182 973d 0ab1 253e
000003f0: 4ac7 983d 1efe c83c e040 473e 7057 a8be
0.020941753 0.11013293 -0.055347145 -1.4334366 -0.016505174 -0.034689616 -0.08080488 0.022551456
0.14078039 0.053343058 -0.15091984 -0.5893226 -0.34482718 0.16214578 0.4442067 0.17964008
0.045234606 -0.19820781 -0.05029421 -0.06977136 -0.17264247 -0.13240159 0.09431929 2.078068
0.10500866 -0.15746202 -0.11556982 -0.033558846 -0.00088289 0.00094389915 -0.13116479 0.17864497
0.06367077 -0.041086078 0.016442254 -0.085922875 -0.112261385 -0.06680525 -0.14299151 -0.06141585
0.07615559 -0.14561689 0.062781855 -0.16661605 -0.08701635 -0.030002385 -0.14258559 0.059836954
-0.14749414 0.03702241 0.06261566 0.06162046 -0.026428282 0.058249205 0.12260844 -0.15228413
-0.16921301 -0.05535741 -0.010274573 -0.005833294 0.009426798 0.0936066 0.12598793 0.02203467
-0.18096508 -0.1578656 -0.21354875 -0.14067663 -0.07179725 0.08688948 -0.09261076 0.059306424
-0.10978544 -0.081697136 0.13847272 0.08861597 -0.1354385 0.026002001 -0.055303108 -0.07488904
-0.060229793 -0.0338145 -0.20131826 0.05694607 -0.033345006 -0.13960983 0.045440495 0.018012032
0.004203692 -0.02893363 -0.00048087537 -0.17206487 -0.027778104 0.0018120855 -0.08389748 0.016566798
0.15376021 -0.08675211 -0.022018224 0.06073208 -0.08894866 -0.13288425 -0.04640214 -0.11782354
0.05867943 0.1555142 -0.13484928 0.025668085 -0.001185596 -0.10629774 0.005097732 -0.18310563
-0.04932891 0.11562522 0.07703684 0.09698127 -0.012216246 -0.05511341 0.11938848 -0.1137257
0.040511936 0.20966347 -0.27721816 -0.0048054834 -0.037985194 0.091022156 0.23744743 -0.030879129
-0.26076442 0.00985712 -0.2742803 -0.043951884 0.17540722 -0.2930592 -0.19588469 -0.11875182
-0.14069307 0.012361684 0.042646866 1.6957662 0.012593204 -0.16753331 0.068783216 -0.048339404
0.1916942 0.005454865 -0.08387449 -0.15010783 0.18869993 -0.003192805 -0.11110004 -0.1777004
-0.07798902 0.13894378 -0.16949937 0.020445136 0.007662142 -0.22474545 -0.06427934 0.36841407
-0.04740577 -0.20803083 0.111464955 -0.19144404 0.09438315 -0.011077575 -0.23249589 -0.058840953
0.22753477 -0.07229373 1.5009185 -0.18137878 -0.07705461 -0.63572043 -0.14514448 0.108043954
-0.04152462 0.031667545 -0.024472177 0.13205017 0.0147654265 -0.06431238 -0.057063505 0.020910487
-0.1087756 -0.034546107 -0.09612196 -0.04655534 0.098595455 -0.07962965 -0.009437472 -0.04430607
-0.1209816 -0.052411586 -0.05543618 -0.08065511 0.10130672 -0.17058767 -0.14173359 0.07992692
0.032242477 0.13275753 -0.013417572 0.0909801 0.02154952 0.11306178 0.022531187 0.14975989
-0.118912324 0.2669745 0.05179786 -0.23124368 0.37065142 -0.041887354 0.5978731 -1.4258039
-0.1969194 -0.06276196 0.15646063 0.059649583 0.07448836 0.012215893 -0.027336473 0.04729487
0.04848121 0.06759272 -0.082793 0.015908962 -0.15078598 0.07259064 -0.03221891 0.43627486
0.078776 0.14824556 0.024439747 -0.027243068 -0.034409158 0.02811617 0.14535342 0.13599789
0.0015572495 0.07016755 -0.009824859 0.048800576 -1.2929524 -0.013327848 -0.119683884 0.016345952
0.03619136 0.11404634 0.07397891 0.16180816 0.07459886 0.024535235 0.19458342 -0.3287921

encoder.0.bias f4 [20]
00000000: 0fbc 3bbc b2e4 803d 0af1 ebbd a869 b8bc
00000010: 899a adbd 674c 09be 44ba 16bd 03d2 5a3e
00000020: 44e5 bc3d a72d b9bd 9976 53be 19d0 52b9
00000030: eecf 49be ff67 e7bc 23cd a43c 2d8e 3a3e
00000040: fe39 c7bc 1f33 8e3c 6ced 28bd cbf2 4e3e
-0.011458411 0.0629362 -0.11520584 -0.022511318 -0.08476741 -0.13408051 -0.03679873 0.21369176
0.092234164 -0.090419106 -0.2065071 -0.00020104683 -0.19708225 -0.028247831 0.020117348 0.18218298
-0.024319645 0.01735836 -0.04124205 0.20209806

encoder.3.weight f4 [10, 20]
00000000: 2abc 5a3f 2bf4 d7bd 5b4a 0d3e 608d c0bd
00000010: 022f 8ebe d218 44bd 1061 4fbe 959d 19bc
00000020: 7094 84bc 48d4 a5ba 90da a93d 640d a6bc
00000030: 7eca 1c3e c80f f23d da09 38bd 16c7 56be
00000040: bc03 ddbe 8382 1c3f 78e2 4abd af70 db3e
00000050: d4a7 293f b840 803d cb97 793d 5830 31bd
00000060: 10e2 4abd ade3 8d3e 44bb 453e 235d be3c
00000070: d17a 0c3e 371a dcbe 8c31 20bb 816d adbe
00000080: 58e6 50be c580 acbc a968 693e ba6c d73e
00000090: 0fa8 10bf 584b c93f 8d7e 5bbe fdcf a43f
000000a0: 5296 4b40 89ef 13be d795 8abe 80f2 d93a
000000b0: 249e 323f e487 c53c 94da 9f3d 992e 553c
000000c0: 896b d2bd 00f8 d03e 528b ce3d 6242 d83e
000000d0: e5b2 79bd bd66 c13d d486 403d 6c3c 75be
000000e0: ec17 d0bf 71a1 8abe 28e2 2d3e 59c2 04be
000000f0: 3ea8 183d 540f 463e a6f2 583e 6abb 2ebe
00000100: b331 d33c 9103 dbc0 5ecc 10be 3030 0b3b
00000110: 03d2 b63b c9d7 26be 64a0 073e 7d97 c23d
00000120: ddd0 efbc 299a 27be 5755 00c1 d6af 4c3e
00000130: e0de 79bb f28d b93d 0896 313e eb15 8c3d
00000140: 7660 aebb 98d6 7bbd 0fb7 253e 34ee 223e
00000150: 25e7 813d 2afc 29bd 7737 00be f8b6 d2bf
00000160: 24ae bc3e 1751 6f3d 706c 473c 02fd 883d
00000170: 0837 29be 70b5 70bc bf97 5bbd 1976 04be
00000180: e9ac 60be 734a 5bbf fcae ec3d 8286 09bf
00000190: 30b6 7dbd b047 21bd 3de0 27bd 5808 da3d
000001a0: 0f6a 193e f173 3cbe e45c 00bd 711f d3bd
000001b0: 0e91 673c f5ae d73e 8cd6 57be 6884 1dbe
000001c0: c713 1bbe 9b06 0b3e 93e8 3ebe 3104 7cbe
000001d0: dd8a 683d f821 dc3f 4ce3 323e 64fa bf3f
000001e0: 2dc2 2bbd 4e3f c4bd c686 6b3c 52a0 173e
000001f0: b44d 9f3d ebeb 643b 6818 fdbc 25a8 143f
00000200: 1f70 313d f168 913e 46c5 1a3d f822 d5bd
00000210: dc6b 873d 9f8f 31be bfaf f3ba 7e51 1bbe
00000220: ddbf 80bc 001e fdbf e181 64be 55b2 dbbf
00000230: 265f 85bd 8457 a23d 7252 2b3e a316 f3bd
00000240: ee94 683c b4b0 a23b 804f 223b 6d1d 33bf
00000250: c959 de3e c47e 033d fa7e 30be 6bc2 debd
00000260: 4ba0 97bd 0c61 bf3d 5f03 a23c 58cc 11be
00000270: d314 163e 0010 88bf 3a7d 5e3e b1aa 07bf
00000280: 844f 8ebb 782c 013d 033f 28be d00d 6cbd
00000290: 2fa6 8f3d 9bf5 10bd 8c86 7dbd bf3b a1bf
000002a0: e400 583e a0f5 b9bb ac38 b43d e061 913c
000002b0: 2b88 dcbd dc87 08bd 35bc d5bc bb75 a5bd
000002c0: 7393 b5bd abcb d4bf 3373 5ebe 49c7 aebf
000002d0: fc1d 7f3f 00b5 2d3c 02fe ac3c fc54 2ebd
000002e0: e5d9 98bd 35c3 43be 586a cd3c 7d2f d53d
000002f0: 2ece 343d c015 23be acf7 033e 7503 a5be
00000300: a445 f7bd ffc8 c53d effc 64be 03f1 713d
00000310: a82c 00bf 091c bfbe 9891 58be 8ae1 a9be
0.85443366 -0.10544618 0.13797896 -0.09401965 -0.2777024 -0.047875233 -0.2025187 -0.009375949
-0.016184062 -0.0012651766 0.082936406 -0.020270057 0.1531162 0.11819416 -0.04493127 -0.20974383
-0.43166912 0.61136645 -0.049532384 0.42859408 0.6627171 0.06262344 0.060935777 -0.043258995
-0.049531996 0.27712765 0.19309717 0.02323777 0.13718726 -0.4298875 -0.0024443595 -0.33872607
-0.20400369 -0.021057496 0.22793831 0.4207514 -0.5650644 1.5726118 -0.21434994 1.2875973
3.1810498 -0.14446844 -0.27067444 0.0016628057 0.69772553 0.02411265 0.07805362 0.013011598
-0.10274417 0.4081421 0.10085167 0.42238146 -0.060961623 0.09443424 0.047003582 -0.2394883
-1.62573 -0.27076295 0.16980803 -0.12964763 0.037269823 0.19341785 0.21186313 -0.1706368
0.025780534 -6.8441854 -0.1414046 0.0021238439 0.0055792346 -0.16293253 0.13244778 0.0950155
-0.029274398 -0.16367401 -8.020835 0.19988951 -0.0038127229 0.09060277 0.17342389 0.06840118
-0.0053215576 -0.06148395 0.16183113 0.1591118 0.063429154 -0.041500248 -0.12521158 -1.6462088
0.3685161 0.058426943 0.01217185 0.066888824 -0.16524899 -0.014691696 -0.053611513 -0.12935676
-0.2194096 -0.85660475 0.11556813 -0.5372087 -0.061941326 -0.039375007 -0.040985335 0.10646123
0.14981864 -0.18403603 -0.031338587 -0.10308731 0.014133705 0.4212567 -0.21077937 -0.1538254
-0.15144263 0.13576739 -0.18643408 -0.24610974 0.056773055 1.7197866 0.1746952 1.4998288
-0.041933227 -0.09582387 0.014375394 0.14807251 0.077784926 0.0034930657 -0.030895427 0.5806907
0.043319818 0.28400376 0.03778579 -0.104070604 0.066123694 -0.17339943 -0.0018591805 -0.15167806
-0.015716488 -1.977478 -0.2231517 -1.7163798 -0.06512289 0.079268485 0.16730669 -0.11869552
0.014195664 0.0049649123 0.0024766624 -0.69966775 0.43427876 0.032103315 -0.17235938 -0.10876926
-0.0740362 0.09344682 0.019776998 -0.14238107 0.14656381 -1.0629883 0.21727458 -0.5299483
-0.004342975 0.03153655 -0.16430287 -0.05763036 0.07014119 -0.035390478 -0.061895892 -1.2596358
0.2109409 -0.0056750327 0.08799872 0.017746866 -0.107681595 -0.03333269 -0.02609072 -0.08079096
-0.08866014 -1.6624655 -0.21723633 -1.3654567 0.9965513 0.010602236 0.021117214 -0.042561516
-0.07463435 -0.19117434 0.025075123 0.10409448 0.04414194 -0.15926266 0.12887448 -0.322292
-0.1207383 0.096574776 -0.22362112 0.059067737 -0.5006814 -0.37326077 -0.2114929 -0.33179885

encoder.3.bias f4 [10]
00000000: 2cab 003e 8caa 493e 81b1 813d 1d4b 253d
00000010: 4fd4 1c3e 3849 c73e d84d c0ba f024 6a3e
00000020: 6bd7 b63d b089 963e
0.12565297 0.19693965 0.06332684 0.040354837 0.15315364 0.3892305 -0.0014671637 0.22865653
0.089278065 0.29401922

encoder.5.weight f4 [5, 10]
00000000: 0113 a63e 0ccf 423e 46a2 fd3f 66f6 4e3f
00000010: dc28 5c3c 2fb2 0b3e a539 37bd 3ec4 86bd
00000020: 3984 2b3e cf16 ad3e 08c2 6d3e 3431 523e
00000030: f3e8 9c3d e732 843f 80ae 02bf 9841 4d3f
00000040: 5eea 4abf 7901 21bf 1f88 e8be 8af8 92be
00000050: 804f 313c 3ced 8ebe 5005 08bd 0d98 08be
00000060: 9093 95bd 78df cb3d 9e2f 42be 9215 8bbe
00000070: ac89 833d d031 99bd dc37 263e 9f9c 06bd
00000080: 6c71 89be 25ba 31bd d1bd e0bd c4ea c4bd
00000090: 255c 26be 0a77 a9bd ad3c 243e 8a7f d23d
000000a0: 05f7 9c3c 3b8a a1be 466e c3bc ca7b 4740
000000b0: 493b d03d 6204 7b3d e9a5 ab3e efad 743e
000000c0: 4e4c bd3e 56a1 bf3e
0.32436374 0.19024295 1.9815147 0.80844724 0.013437476 0.1364219 -0.04473271 -0.06580399
0.16749658 0.33806464 0.23218548 0.20526582 0.07661619 1.0328034 -0.51047516 0.80178213
-0.79263866 -0.6289287 -0.45416352 -0.28705245 0.010822177 -0.2791537 -0.03320819 -0.13339253
-0.07303536 0.09954733 -0.18963477 -0.27164894 0.06422743 -0.07480204 0.16232246 -0.03286421
-0.26844347 -0.043390412 -0.109737046 -0.096150905 -0.16246088 -0.08274658 0.16038771 0.102782324
0.019160757 -0.31550774 -0.023856293 3.1169305 0.10167558 0.061283477 0.33525017 0.23894475
0.36972278 0.37427777

encoder.5.bias f4 [5]
00000000: 5a00 f13d 88eb 663e 6b02 93be 0a21 6abd
00000010: 445b 443e
0.11767645 0.22550786 -0.28712782 -0.057160415 0.1917544

decoder.0.weight f4 [10, 5]
00000000: d9df d7be 4d2b 7fbe c060 07be 80ed 9a3c
00000010: 0c40 4e3e 10f6 013f fb57 2bbf d47f cf3e
00000020: 3542 073e f9e9 45bf bbe5 38be 41ed 823e
00000030: c04c 45bc 4e8f 0f3e 2c00 883f 8c0d 92be
00000040: 07cc bebe e2e1 d4be 634b b53e 15f1 a9be
00000050: ee3b 1c3f 73b1 4f3f 70eb bfbd 700b 3b3e
00000060: 76ca d8b9 7602 90be b414 533e cfea 79be
00000070: 543d a83e 66ad 143f 0bdd 0a3f 9277 e0bd
00000080: 66be 803e 593f aa3c b191 8e3f 726c 963e
00000090: c4d6 afbe 8012 49bb 111a 32be 105e 8e3f
000000a0: c684 25be 0c24 483f 387e efbd dc14 cc3e
000000b0: 5312 5d3e 431f 973d 2034 00c0 108e b73d
000000c0: 738f 67be 9037 163f
-0.4216297 -0.24918862 -0.13220501 0.018912077 0.2014162 0.50766087 -0.6693112 0.40527213
0.1320885 -0.7731014 -0.18056385 0.25571635 -0.012042224 0.1401951 1.0625052 -0.2852596
-0.37265036 -0.41578585 0.35409078 -0.33191743 0.61028945 0.8113014 -0.09371078 0.18266082
-0.00041349576 -0.28126878 0.20613366 -0.24405979 0.3285929 0.58077085 0.54243535 -0.10960306
0.25145262 0.02078216 1.1138211 0.29379612 -0.3434354 -0.0030681193 -0.17392756 1.1122456
-0.1616393 0.78180003 -0.11693996 0.39859664 0.21589021 0.073790096 -2.0031815 0.08962643
-0.22613315 0.5867853

decoder.0.bias f4 [10]
00000000: c806 77be 404c 3e3f 53f0 8c3e 1637 2f3d
00000010: 3823 f2bd 4b19 51be c889 90be 18f8 0a3e
00000020: bc21 b13e 517b 0e3f
-0.2412368 0.743351 0.27527103 0.042777143 -0.11823124 -0.20419805 -0.2823012 0.13571203
0.3459605 0.55656916

decoder.2.weight f4 [20, 10]
00000000: 5aae 273e 7a19 40bf f19f 483e 5e1f 633e
00000010: f87e bd3d 36e4 1bbf 8289 b03e 3245 403e
00000020: 24c6 0ebe b4c4 a83c cc55 8abd 2016 393c
00000030: cecf 8bbe d88a 0dbd d861 09be b60e 673e
00000040: bcd3 93be e049 3d3d d52d 883e 91f4 8c3e
00000050: 871e 973e d08e 1d3e c78c 953e 5327 28be
00000060: a890 92be 4c01 29be edc2 3ebd 3b24 9a3e
00000070: 14b0 1abf 8358 863e 60b5 aa3d 09db 82bb
00000080: d8e3 143f 84f8 16be 737b 0abf d026 103e
00000090: b62a 9abe b0fe c3bd 9d9a 383e 6210 603e
000000a0: fb5d 31be 8ad9 51bf 29bf 58bf 63bc 423e
000000b0: d5dc d03e a2e2 e6be 39f6 263e df0c a5bf
000000c0: 00dd f63e f0fe 64bf eca8 dbbd 8de2 113f
000000d0: 3740 ebbe c975 5c3e 47aa b0bc 93a4 3ebf
000000e0: be12 e2be 5872 97be 53ed 6f3d f0a1 1f3e
000000f0: 42ee bbbd e75c 563f 1f58 33bf 1325 893e
00000100: 2fe0 a5be 9be3 9dbe fcbd b0be 2ac7 a3be
00000110: d0bc cb3b a39c 42bd 6280 1f3e ae40 ea3d
00000120: e68b ea3e 961f 1e3d 01f5 3abf f05f 4cbd
00000130: 842f a7be 7599 4e3e a24d e83e 375a 41bf
00000140: 00d3 153c dc18 b23c 1d86 673c 3938 943e
00000150: f6e4 f83e 1bf7 5bbf 277d d0bd 6f46 1a3e
00000160: 138f 01bf b6c0 383d a3e7 41be 7dbd fd3e
00000170: dad6 c9be 8fa4 84bd 4d56 68bc ca87 1dbf
00000180: d74a c8be a498 acbe 6e98 70be 8a54 913d
00000190: 356a 9d3e 69ce 8ebe 2575 233e f8ca 8d3e
000001a0: b122 09bf 7c82 3e3f ce51 1ebf 0907 f83d
000001b0: 5aaa 113f 907b 363d 009f 58bd 4a28 b03e
000001c0: 8367 f93c 7fe9 293e 294e 42bf 09d4 b2bd
000001d0: ea7f a33e aa6c bc3e dddf d1be b907 6a3e
000001e0: 7279 87be f477 cbbe a4d5 fa3e eff3 833e
000001f0: 4625 af3d ba64 efbe 8cc0 653e effe 5f3e
00000200: 4f77 81bd c75e e9bd 1c60 a0be d17a 00be
00000210: 4001 72be 2d7c e4bd 96ac bebe e2f4 46bd
00000220: f3b4 803d e08c b63e 87a9 ccbe aa10 b43e
00000230: b1b0 04be f6a9 423e 8b51 5d3e e8c7 8a3d
00000240: cb59 0fbe 3cb9 efbd c1ee c4bd c98c 763e
00000250: 653d a9be c0e7 98bf 385d f23d d934 94be
00000260: 76f9 f93e 0657 38be 687b 12be d1f9 fd3e
00000270: dfa1 b93e 7df0 963e 4fbc 05be 6f3b a6be
00000280: e090 5dbd 8cfc 3fbf 15ce 3c3f a8f5 23be
00000290: 5e30 9bbf f80e 393e 32af 24bf 9135 07bf
000002a0: f389 3d3f 7be2 843e c2b2 163e ccae 91bd
000002b0: 6ba8 853e dc2d dcbd 2c36 76be 352b 75be
000002c0: 0487 9abe 7e1d 6dbe 3279 1ebe 6d53 1bbe
000002d0: dbb9 9d3e fe6b a7bd 942b 74be b310 3bbe
000002e0: ce62 44be 6f86 f33e cfad e93d 5301 3e3e
000002f0: 1f44 23bf 9375 1f3f 2b29 02be 0f94 183d
00000300: 7377 fa3e 1e51 98be ecea 933e abb6 563e
00000310: 0df9 89be e597 f4bd 5c9c f4be ac3a 84c0
0.16375104 -0.75038874 0.19592263 0.22179934 0.09252733 -0.608951 0.3447991 0.18776396
-0.13942772 0.020601608 -0.06754646 0.011296779 -0.2730698 -0.03455624 -0.1341623 0.22564206
-0.28872478 0.04621303 0.26597467 0.2753034 0.29515478 0.1538651 0.29208967 -0.16421251
-0.2862599 -0.16504401 -0.046572614 0.30105767 -0.60424924 0.26239404 0.08335376 -0.003993396
0.5816016 -0.14743239 -0.5409462 0.14077306 -0.3011071 -0.09570062 0.1802773 0.2188125
-0.17321007 -0.81972563 -0.8466669 0.19017176 0.4079348 -0.45094782 0.16304864 -1.2894553
0.48215485 -0.89451504 -0.10725579 0.56986314 -0.4594743 0.21529306 -0.02156557 -0.7446987
-0.44154924 -0.29579425 0.05857594 0.15589118 -0.091763034 0.8373551 -0.7005634 0.26786098
-0.323976 -0.30837712 -0.34519947 -0.31987888 0.0062175766 -0.04751266 0.15576318 0.11438118
0.4580986 0.03860434 -0.73030096 -0.04989618 -0.3265344 0.20175727 0.4537173 -0.7552828
0.009144545 0.02174037 0.014131096 0.28949144 0.48612183 -0.8592393 -0.10180121 0.15065931
-0.5060894 0.04510566 -0.18936019 0.4955863 -0.3942173 -0.064766996 -0.014180732 -0.6153532
-0.39119598 -0.33710206 -0.23495647 0.07096203 0.30745092 -0.27891853 0.15962656 0.27693915
-0.5356856 0.74417853 -0.61843574 0.12110717 0.5690056 0.044551432 -0.05288601 0.34405738
0.030444866 0.16592978 -0.7590051 -0.08731849 0.31933528 0.36801654 -0.40991107 0.22854508
-0.26459843 -0.39739954 0.4899112 0.25772044 0.08552031 -0.46756536 0.22436732 0.21874593
-0.063215844 -0.113950305 -0.31323326 -0.1254685 -0.2363329 -0.11156497 -0.37241048 -0.048573382
0.06284513 0.35654354 -0.3997309 0.35168964 -0.12958027 0.19010147 0.21613137 0.0677641
-0.13999097 -0.117052525 -0.09615851 0.24077143 -0.33054653 -1.1945724 0.11834186 -0.2894657
0.48823136 -0.18001947 -0.14304888 0.49604657 0.3625631 0.29480353 -0.13060115 -0.3246722
-0.05409324 -0.7499473 0.73751956 -0.16011679 -1.2124135 0.18072116 -0.64329827 -0.5281611
0.7403862 0.2595404 0.14716628 -0.07113418 0.26105055 -0.107509345 -0.24044102 -0.23942263
-0.30181134 -0.23155782 -0.1547592 -0.15168543 0.3080586 -0.08174895 -0.23844749 -0.18268089
-0.19178316 0.47563502 0.114101045 0.18555193 -0.6377582 0.6228878 -0.12711017 0.037250575
0.48919258 -0.29749388 0.2889017 0.2096812 -0.26947823 -0.11943034 -0.47775543 -4.132162

decoder.2.bias f4 [20]
00000000: 9421 19bd 7191 9abe e5bf 37bd 2407 ff3c
00000010: f1e4 523d a085 b23e d029 0d3f b404 2e3e
00000020: 814c f6bd 62da 053f 319a 243e 8abd e7bd
00000030: f837 bfbe f0bb 7f3e 2196 853e f925 c1be
00000040: 7994 0d3e 802a 75bd 7a4b 693e 557e c53e
-0.03738554 -0.30189088 -0.04486074 0.031131335 0.051487867 0.34867573 0.55141926 0.16993982
-0.12026311 0.5228635 0.16074444 -0.113154486 -0.37347388 0.24974036 0.26091102 -0.37724283
0.13826169 -0.059854984 0.22782698 0.38572946

decoder.5.weight f4 [29, 20]
00000000: dae7 4fbe c8ca 08bd cdbc 3cbd dac3 303d
00000010: 71b0 0cbf 9189 d0bc 4c3b 31be d20e b93d
00000020: a7a8 72bd 6771 6fbd 802f b3bd 9896 02bd
00000030: f344 1b3d b192 603d 17e7 bcbd 683b 85be
00000040: 6b7c 75bf d602 453e 9102 cf3b 2b58 65bd
00000050: 201a 783c 1c2e febd f613 53bb 6c5e 0d3b
00000060: 41e7 353e c6c3 56bd d58d d0bc 891d 903c
00000070: 1e5c a23a b2da 2cbd a6a9 75bc 6c71 80bb
00000080: e881 1dbd f76d 8cbb 1dc4 1ebd 187e 44bd
00000090: 5ff6 17be 58c6 4cbd 5aeb 723c 0b71 253d
000000a0: efa3 c5bc 883d 263e ef49 553d b270 08be
000000b0: f31a e0be 8e18 933d bd64 28bc 26f0 28bd
000000c0: 03b7 a6bd d440 323d a4a7 543c 7777 d13c
000000d0: c368 863c 6c15 203d fe9c 18ba 0190 323d
000000e0: 7648 243e a033 8c3c 84b1 f3bc 4e9b 7f3d
000000f0: 1c91 28be 57d2 62be 4ac5 7a3d 6829 e2bd
00000100: f2d9 cf3e 883f c8bd 57f4 9dbe d539 eebd
00000110: 1377 c9be 6181 88be 0464 6dbe 06c3 17bc
00000120: d563 d0be c28d 273e a1ad dbbe 355e 19bf
00000130: 157e 8f3d ac44 313e f37c c3bd 6f95 8e3e
00000140: dbf5 413c 4c6a 513e 16d7 12bd 0435 153d
00000150: a9e3 d3bd c76c a6bc 7e36 02bc 9ae2 223c
00000160: c475 123d 6d8b 66bc e394 c23c b963 83bc
00000170: 46a0 50bc ce6a 27bb 729e 74bd 965e 9ebc
00000180: 1e24 f63c bbce 43be 6267 893c 70cd ca3c
00000190: 96b6 fc3c 50fa 6dbd 27d3 35bd 66fd 4f3d
000001a0: d4a2 13bd 2b1d c439 06ce 323c 216f 1cbc
000001b0: 4f72 9c3d 8012 16bc aae5 673d bbb8 9fbc
000001c0: c24e 51bc 1c55 fc3c d3e9 eebc d58c ea3b
000001d0: a0aa 8c3e fc09 433e f26d 083d 1134 953c
000001e0: aea9 083b 1044 d7bd f854 90bc 08e3 3ebb
000001f0: ecc3 1dbe 4140 edbb e410 98bb b89f 403b
00000200: 2d96 27bb 6d7e 13bc 893e 86ba ac1e 5ebc
00000210: 1f9c 36b9 6763 02bc 7ee2 89bc 24e4 21bc
00000220: 3335 9bbc 3ab3 333e 2d1b 4bbc 66ed 0dbc
00000230: e2cb 10bc 384f adbc 2622 0fbd 57b0 e739
00000240: 4a06 163d 9992 59bb c00a 22bb bf64 d8bb
00000250: dbc5 743c 094d 823b 6ded 993b 1645 b0bc
00000260: 8e44 55bc 7f0a 603c 87ae 583c c8d9 14bc
00000270: 9c1d 2b3e 5562 e5bd c123 adbc c052 27bc
00000280: 12ba 503d f14d 40be 00cd 663d 0c11 e6bb
00000290: e353 a7be cc6d a33c 5750 cb3c 9645 2e3c
000002a0: d242 6f3c befb a33c 01da b13b 84a7 7e3d
000002b0: 95b8 4fbd 0500 953c c828 65bc a04d fabd
000002c0: 928f b03a 264c 053e 219b 803d a67f 003f
000002d0: 2310 2dbc 00ea a93b c71f 93bb dc90 43bc
000002e0: de5f 91be efa9 0b3b 73a1 c3bc 2a45 8abb
000002f0: 4f21 85bb 14cf a739 6df3 f839 9da7 e7bb
00000300: 51df eb3b 7a5d 9abb aaba 693c 3aee 9a3c
00000310: b800 98bd d8ad 463e 9b8a bc3b 4cdc 87bd
00000320: 5064 b43c 5245 2f3e 8578 973d f482 84bd
00000330: d825 d63e 6155 993d 32d7 b4bd a7d4 47be
00000340: 5988 a0bc ab88 cd3a 06da 98be 752c f03c
00000350: 2d5e 113c 91f0 103e c732 f8be c85e f3bd
00000360: a855 ef3f 2ce5 febd b405 9fbd 72bd 2f3f
00000370: 01b9 623d 5240 033e f882 b0bd aafd 01bb
00000380: 1299 d9be 238e 54bd bc51 863d 861f 363c
00000390: 4937 76bd 2a79 b43c a5d5 2ebe 03df e0bd
000003a0: 7e43 b4bc 1a3b c2bd ea16 8abd 7d2a 7b3c
000003b0: b75e f83e f08e 1a3e 7d31 2abe 7173 72bf
000003c0: bd7d 25bd 3d9c 19be 49c4 2abf 88e6 9cbd
000003d0: 1d4d 07be 6ac4 d4bd d57d 8fbd c5b0 763e
000003e0: d8a7 a7bd 81b4 c9bd eb3a 5a3c b702 16bf
000003f0: 9563 143c 1f46 31bf 1fbb 863f 3274 02bd
-0.20303288 -0.033396512 -0.046078492 0.04315553 -0.5495673 -0.025456222 -0.17307776 0.0903603
-0.05924287 -0.05845776 -0.08749294 -0.0318819 0.037907552 0.054827396 -0.092237644 -0.26021886
-0.9589297 0.19239363 0.0063174446 -0.055992287 0.015142947 -0.124111384 -0.0032207943 0.0021571172
0.17763998 -0.052432798 -0.025458256 0.017592208 0.0012387072 -0.04220075 -0.014994061 -0.003919771
-0.038453966 -0.00428557 -0.038761247 -0.047971815 -0.14840077 -0.049993843 0.01482662 0.04039101
-0.024126021 0.1623441 0.05207246 -0.1332424 -0.4377056 0.07182418 -0.010277924 -0.04124465
-0.081403755 0.043518856 0.012979422 0.02556966 0.016407376 0.03908293 -0.00058217335 0.043594364
0.16043267 0.01711446 -0.029747732 0.06240397 -0.16461605 -0.22150551 0.061223306 -0.11043054
0.40595967 -0.097777426 -0.3085048 -0.11632124 -0.3934866 -0.26661208 -0.23182684 -0.009262806
-0.40701166 0.1636267 -0.42905906 -0.59909374 0.0700647 0.17311352 -0.095453165 0.27848384
0.011838402 0.20450705 -0.035849653 0.036427513 -0.10346157 -0.020315541 -0.007947562 0.009941721
0.03575684 -0.014071328 0.023752635 -0.016038762 -0.012733525 -0.0025545838 -0.059721418 -0.019332211
0.030046519 -0.1912183 0.01677293 0.024756163 0.030848783 -0.058100045 -0.044390824 0.05077877
-0.036043957 0.00037405765 0.010913378 -0.00954798 0.0763899 -0.009159684 0.05661551 -0.019497266
-0.012775125 0.030802302 -0.02916423 0.007157902 0.27473927 0.19046777 0.033307977 0.018213304
0.002085309 -0.10511029 -0.017618641 -0.002912702 -0.1540677 -0.0072403257 -0.0046406854 0.0029392075
-0.002557169 -0.00900231 -0.0010242026 -0.013557117 -0.00017415032 -0.00795827 -0.016831633 -0.009881053
-0.018946266 0.17548838 -0.012396616 -0.008662557 -0.008837672 -0.021155939 -0.034944676 0.00044191137
0.03662709 -0.0033198951 -0.0024725646 -0.0066038067 0.014939751 0.0039764685 0.004697493 -0.021517318
-0.013016833 0.013674377 0.013225204 -0.009085126 0.16710514 -0.11200396 -0.021135213 -0.0102126
0.0509587 -0.18779732 0.056347847 -0.007021075 -0.32681188 0.019949816 0.024818582 0.010636708
0.014603334 0.020017501 0.0054275994 0.062171474 -0.05071314 0.018188486 -0.013986774 -0.12221837
0.0013470522 0.1301733 0.062795885 0.50194776 -0.010562929 0.0051853657 -0.004489872 -0.011936393
-0.28393453 0.0021311005 -0.023880696 -0.004219671 -0.0040628086 0.00032007007 0.00047483612 -0.0070695416
0.0071982522 -0.0047108503 0.014265696 0.018912423 -0.07422012 0.19402254 0.0057538277 -0.06633815
0.022020489 0.17116287 0.07396034 -0.0647029 0.41825747 0.07486988 -0.08830108 -0.19514714
-0.019596266 0.0015680989 -0.2985384 0.029318074 0.008872551 0.14154269 -0.4847624 -0.118833125
1.8698015 -0.12446055 -0.0776476 0.68648446 0.055352215 0.12817505 -0.0861873 -0.0019835033
-0.42499596 -0.051893365 0.06558558 0.011115914 -0.060111318 0.022030432 -0.17073686 -0.10980036
-0.022004839 -0.09483929 -0.06742652 0.015329954 0.48509762 0.15093589 -0.16620441 -0.947074
-0.040403116 -0.15001006 -0.6670576 -0.07661158 -0.1321301 -0.103890255 -0.070064224 0.2409087
-0.081863105 -0.098488815 0.013319711 -0.5859789 0.009056945 -0.6924762 1.0525855 -0.031849094

decoder.5.bias f4 [29]
00000000: e673 4b40 bec8 9a3f e67b d53f a86a 63bf
00000010: e8b5 963f 49b7 86bf e9a1 81bf e274 a53f
00000020: 27b8 34be 294a 1a3d 1cd0 63bf f5b1 733f
00000030: 318d 2cbd 6781 143f c382 dbbe 3697 53be
00000040: bfbc 893f 8836 223f 2836 433e f3a8 a43e
00000050: de93 7f3e a933 203d 085c fb3e 0190 96be
00000060: bb7e 553e c1e7 d1be db3e acbe 5def 48bf
00000070: a434 b7c0
3.1789489 1.2092512 1.6678436 -0.8883462 1.1774263 -1.0524684 -1.0127536 1.2926295
-0.17648374 0.03766838 -0.88989425 0.95193416 -0.042126838 0.5800995 -0.428732 -0.20663151
1.0760726 0.6336446 0.19063628 0.32160148 0.2495875 0.039111767 0.49093652 -0.2940674
0.20849125 -0.40997127 -0.33641705 -0.7849024 -5.725176
